python/credit_scoring/models/genia_services_mlp_credit_scoring_model_v1.2.0_20250824.pt (torch, 77454 bytes, 19 tensors)

network.0.weight f4 [128, 26]
00000000: 666a 083e 2a35 2e3e 9e78 1cbd 4fcd 2c3e
00000010: 140e 64bd 152c 563d 2e6e cbbd de5f ef3d
00000020: 6026 353e 9b11 27be c30d 313e 8fd9 403d
00000030: 47d6 213e 6878 0a3d 2257 a63d 31a7 eebc
00000040: 8aa4 1d3e 460f 393d ccbf c1bd caab 7d3d
00000050: 2877 b7bd afbe c2bc 3951 9fbd db4e 003e
00000060: 12a3 28be 9aac b2bd 7271 15bd 30af f7bd
00000070: b6f1 3a3b 800f 5bbe 01ff 243e f93d 1abe
00000080: 9823 1a3e ed8a 153d 50a9 85bd 1d1a 033e
00000090: 50ac 9d3c a3ec 2e3e adcf 0b3c bf12 82bd
000000a0: 81fc 5d3d 0f88 81bd 78fe e33d 37cd 2a3e
000000b0: 5908 db3d a3a2 9fbd 181d d63d 585a db3c
000000c0: 6ce9 cf3d 7695 d8bd a7cd 56be 851e 9fbd
000000d0: de0b 1dbe cfbb 1f3e 410a 563d 351a 783d
000000e0: cd5f 693d 6388 c93a e32f 103e 07dc 03be
000000f0: 7922 463c ac13 20be cffa 973d 25c5 95bd
00000100: d42b 9c3d 5d4d 01bd d394 273e 76e2 efbd
00000110: 106b e0bd fcaa f0bd 1d26 3d3e 12d3 a13d
00000120: 4b30 343e d61a 31be ff71 4dbe 2711 21be
00000130: dcd5 ffbd 37ae 983d b07d 9f3d db04 353e
00000140: 7cca c5bd 3609 0bbe 6174 d53d 7bc1 a2bd
00000150: e16a e23d 41c1 4ebd b85d fc3d d83d 12be
00000160: 4c9d dcbd 753d 553d 8d40 583d 3b46 60bd
00000170: 7714 d13d 792c fd3d b5fa 10be 3df8 a5bd
00000180: 5644 3d3e 8e63 8cbd 737b 7dbd e66f 36be
00000190: 863e 03be c4cb 5c3d 154b d2bc 17db 16be
000001a0: 3004 903c c49d f2bd a4b6 2ebe f59a bfbd
000001b0: 29d1 3cbe 29a5 e4bd 3fde 443e 9848 663d
000001c0: 15af 333d 5bcb 3cbe 7cb1 ecbd 86c5 8fbd
000001d0: 108c 4a3d 7b13 49be 8cd7 c1bd 999d f4bd
000001e0: ae62 993b ce11 91bd 9277 69bb 3291 f5bd
000001f0: 48c6 12be f35e dfbd f24d 99bd 815f 27be
00000200: 0d06 253e b97a 5bbd e7eb 2e3e 34f5 4d3d
00000210: 5f89 27be 9de3 063e 01e0 87bd 703e 80bd
00000220: 583c 37be 50ef 41be a9b7 813d 7fe1 79bd
00000230: 61f1 983d 3af4 1abe 4aa5 1e3e dd3e 04be
00000240: 47de 31bd 1c1a ee3c 22a7 c23d 059c 353e
00000250: e1aa 403e 6283 22be 558d 313d 6c6a aabd
00000260: 833f 01bd f372 08be 6d42 2f3e f89f 0cbe
00000270: e927 bd3d 6e4d 823d 5c78 9b3d 36dc c1bd
00000280: 04bd 363e 269e 2e3d 348e 7f3c cb2a 1ebe
00000290: f9d4 9a3d ea9f 9fbc b4bc abbd c37d 303e
000002a0: 9fcb 303d 8a3c 04be 1b07 c5bd 9c69 2b3c
000002b0: 6b8f ca3d e0a0 8abd 94c2 bfbd c835 99bd
000002c0: a07c 15be 6dc3 8b3d 8a33 253e 7b49 5cbe
000002d0: ea5d 633d d187 d13d 95f0 203d 0a18 8bbd
000002e0: 9082 cc3d 8700 d23d 911c 513d 77f4 47bc
000002f0: e3c9 70bd c41e f43c 66c3 21bd 3495 a6bd
00000300: 2818 053e 2bd0 2f3e 219c c03b 1603 e4bc
00000310: 4d85 87bc f9ba adbc 56d8 633d c2c9 983d
00000320: c856 38be 4e7e 5ebd 5ebc 1c3e 3e73 5e3d
00000330: 4199 513a 709b 00be a029 f9bd fabf 2ebe
00000340: e9e0 4ebd d00c 6e3d 8486 d13d 6547 883d
00000350: bdb1 39be e651 e0bd 97bd c2bc 49da 393e
00000360: d898 f33c 88b4 6ebd e096 b83d 5c8c 68bd
00000370: a1b5 fdbd 1131 0f3e d679 e7bd 0901 80bd
00000380: 7fd4 3ebe 686f 2f3e 967c 163e e064 953d
00000390: cb6f 09be 3c27 4bbe 26e3 2ebe 7611 223e
000003a0: e28f c43d a270 1d3e 28eb e63d 1bc9 433d
000003b0: 3b05 3c3a 1789 1cbe 21f8 31be 0ea4 35be
000003c0: f2b2 803d 74bd a0bd a558 42bd bda1 cfbd
000003d0: c3e5 3fbd c93e e7bd 85f2 0cbe c21d 853d
000003e0: 2125 8cbd d1cd de3d 6b61 6bbd cfb1 f1bd
000003f0: 6f68 08bd 9d65 d4bd fa78 8abd 2f5b 3ebe
0.13321838 0.17012468 -0.038200967 0.16875194 -0.05567749 0.052288134 -0.099331245 0.11688207
0.1769042 -0.1631531 0.17290406 0.04708248 0.15804397 0.033806235 0.08122088 -0.029132457
0.15394798 0.04518058 -0.094604105 0.06193141 -0.08958274 -0.023772566 -0.07779164 0.12530081
-0.16468456 -0.087243274 -0.036485143 -0.12093961 0.0028525419 -0.21392632 0.16112901 -0.15062703
0.1505264 0.036509443 -0.065264344 0.1280293 0.019247204 0.17082457 0.0085334005 -0.06351232
0.054195885 -0.06324779 0.111325204 0.16679846 0.106949516 -0.07794692 0.10454768 0.026776478
0.101519436 -0.105753824 -0.20976888 -0.07769493 -0.15336558 0.15598987 0.052255873 0.060571868
0.05697613 0.0015375729 0.14080767 -0.12876903 0.01209318 -0.15632504 0.07420885 -0.07312993
0.07625547 -0.03156792 0.16365366 -0.11713116 -0.109579206 -0.11751363 0.1847157 0.079015866
0.17596547 -0.17295393 -0.20063017 -0.157292 -0.12491962 0.07455104 0.07787645 0.17677633
-0.096577615 -0.13577732 0.10422588 -0.0794706 0.11055542 -0.05047727 0.12322563 -0.14281404
-0.107721895 0.052060563 0.052795935 -0.054754477 0.102089815 0.12361998 -0.14158137 -0.08103988
0.184831 -0.06854926 -0.06188531 -0.17816123 -0.1281682 0.053905264 -0.025670568 -0.14732014
0.017580122 -0.11846498 -0.1706186 -0.093557276 -0.18439163 -0.11164314 0.19225405 0.056221575
0.043868143 -0.18436949 -0.1155729 -0.070200965 0.04944998 -0.19636337 -0.094649404 -0.11944122
0.004680953 -0.07083474 -0.0035624248 -0.119905844 -0.14333451 -0.10906782 -0.0748557 -0.16345026
0.1611559 -0.053583834 0.17082177 0.050282672 -0.16360997 0.13172765 -0.06634522 -0.06261909
-0.17894113 -0.18938947 0.063338585 -0.061006065 0.074679144 -0.15132228 0.1549274 -0.12914605
-0.04342487 0.029065184 0.09504534 0.17735298 0.18815185 -0.15870431 0.043347675 -0.083210796
-0.03155471 -0.133251 0.17115183 -0.13732898 0.09236128 0.06362425 0.07591316 -0.0946583
0.17845541 0.04263129 0.015597869 -0.15446012 0.075601526 -0.019485433 -0.08385602 0.17235474
0.04316294 -0.12913719 -0.09620496 0.010462191 0.09890636 -0.06768966 -0.09363285 -0.07480961
-0.14598322 0.06824384 0.16132942 -0.21512406 0.055509485 0.10230983 0.039291937 -0.067916945
0.0998584 0.10254007 0.051052634 -0.012204281 -0.058786284 0.029799826 -0.039492987 -0.08133927
0.12997496 0.17169254 0.005877987 -0.027833503 -0.016543055 -0.02120732 0.055626236 0.07460357
-0.18001854 -0.054319672 0.15306231 0.054309122 0.0007995554 -0.12559295 -0.121661425 -0.17065421
-0.05050746 0.058117688 0.10230735 0.066542424 -0.18134208 -0.10953121 -0.023772044 0.18149675
0.029735968 -0.058277637 0.09013152 -0.056774482 -0.123881586 0.13983561 -0.11302535 -0.062501974
-0.18635748 0.17132342 0.14695963 0.07294631 -0.13421552 -0.19839185 -0.17078838 0.15826973
0.09597756 0.15374997 0.11275321 0.04779921 0.000717241 -0.1528667 -0.1737981 -0.17738363
0.06284131 -0.07848635 -0.04744782 -0.10138271 -0.046849977 -0.11291272 -0.13764389 0.064998165
-0.06843019 0.108791 -0.057465952 -0.118014924 -0.03330272 -0.10370944 -0.06761356 -0.18589471

network.0.bias f4 [128]
00000000: d14a fc3d 1680 e0bd 44c5 e63d cd7c afbd
00000010: 1e06 f9b9 19c2 a1bc 6505 25bd 2537 443c
00000020: 83bc 443d ed7a 7dbd 6244 eabc f69e 133d
00000030: 59a4 e0b9 1f35 0b3a 474c 1c3d 6fd1 63bc
00000040: 9f09 33bd a352 603c a6ff 5bbc 9efd 81bd
00000050: b873 0fbd ca36 e9bc 4041 003e c638 86ba
00000060: d84b bc3c 741d 4639 a129 85bd cf00 973d
00000070: 8965 da39 ed11 cbba 8a87 ba3d dde9 12bd
00000080: 500d 78ba 6b42 c8bd 9201 153d 7272 923c
00000090: 2558 bdbd bd4c 353d 7d3d e639 21c3 17bd
000000a0: a002 c93d e9bc ba3c 6c39 3b3c fae8 67bc
000000b0: d94a 2ebd c906 27bd 5ec9 713c c638 1b3b
000000c0: 1a75 52bd 8828 df3d c4ea 463d 1d06 80bc
000000d0: 4a77 183d 80a0 b3bc 723f de3b 3633 c13d
000000e0: 1752 d5bd 577b 0abd c7ed c5b8 412e 6cb9
000000f0: 3660 bdbd bc37 7ebd 5dac 35b9 fc01 a638
00000100: ef4b 32ba a835 b439 054a 6fba a55c 28b9
00000110: 0901 ea39 acb1 9bb8 bc29 4c3c 2749 883d
00000120: 43bd 0bbd 10ef 18bd 29e5 c63c b090 97bd
00000130: ee3d 783d a539 e53c adf0 bdb8 b2bd c0bc
00000140: 9de5 4838 7e39 b1bd 252e dbbd 987a eb3d
00000150: 251d dabd 9035 c0bd 0ce4 87bc afba f438
00000160: c669 58b9 af71 07bd ca02 5ab9 e1a5 e539
00000170: 6ee3 c23d ccea ce3d e469 a33c 953b 98b5
00000180: 30b7 a13d 17a0 b7bd 0dee ab3c 3aef 45bd
00000190: 3e1b ad3d 471c d5bd 2739 683c 584d bdbd
000001a0: 18aa 473d 9327 80ba f717 cb3d 8f57 a3bd
000001b0: 6c9c 733d f6a1 82bd 9b3b 28bd 49ab 7c3c
000001c0: 6d7c 443a 32cc b0bd 7159 c8bd bf92 d1ba
000001d0: 8ec0 443b b5ee d23d 0e39 9c3d 1e13 4d38
000001e0: b159 5dbd e409 d8bd 42c0 d83d 8fdf 34bd
000001f0: ea69 6a3a ab72 b7bd e68c 8bbd 71e1 84ba
0.123189576 -0.109619305 0.11268094 -0.08568726 -0.0004749754 -0.019745873 -0.040288348 0.011976038
0.04803134 -0.06188481 -0.02859706 0.03604027 -0.00042847058 0.0005310345 0.03815868 -0.013904913
-0.043710347 0.013691577 -0.013427651 -0.06347202 -0.035022467 -0.028468508 0.12524891 -0.0010240308
0.022985384 0.00018893724 -0.06502081 0.07373201 0.0004165585 -0.0015493013 0.09107883 -0.03586756
-0.0009462433 -0.09778293 0.03637845 0.017876837 -0.09245328 0.044262636 0.0004391483 -0.037051324
0.09814954 0.022795158 0.011427265 -0.014154667 -0.04255185 -0.040777955 0.014757482 0.0023684963
-0.051381208 0.108964026 0.048563734 -0.015627915 0.037223138 -0.021927118 0.0067824656 0.09433596
-0.10416048 -0.033809032 -9.4379815e-05 -0.00022523945 -0.092468664 -0.06206487 -0.00017325715 7.9158664e-05
-0.0006801476 0.00034372252 -0.0009128156 -0.00016056241 0.0004463273 -7.42407e-05 0.012461122 0.06654578
-0.03411604 -0.037337363 0.024279194 -0.07400644 0.060605936 0.027981589 -9.057052e-05 -0.023527954
4.789756e-05 -0.08653544 -0.10702161 0.11497992 -0.1065009 -0.09385216 -0.016588233 0.00011669599
-0.00020638769 -0.0330674 -0.00020791139 0.00043801873 0.09516035 0.10103378 0.019947954 -1.1342223e-06
0.07896268 -0.089660816 0.020987535 -0.048323847 0.08452462 -0.10405784 0.014173782 -0.09243268
0.0487462 -0.0009777419 0.0991668 -0.07975685 0.059475347 -0.06378548 -0.04107247 0.015421697
0.00074953475 -0.08632697 -0.097826846 -0.0015989168 0.0030021998 0.10299436 0.0762807 4.8893613e-05
-0.054040615 -0.105487615 0.10583545 -0.044158515 0.0008942174 -0.08957418 -0.068139836 -0.0010137988

network.1.weight f4 [128]
00000000: 4a05 803f da39 7f3f b283 7c3f 8f27 813f
00000010: 792a 7b3f 5043 803f 2a1c 803f 68fa 7a3f
00000020: 99a9 823f 9af8 7c3f 8630 823f adb1 7b3f
00000030: 992e 813f 0a76 7c3f 040a 7c3f bb51 783f
00000040: bb32 823f 955d 7d3f 35ba 7a3f 5055 813f
00000050: daf9 7b3f 6fa1 7e3f 2059 7f3f 1e3a 803f
00000060: fca0 823f dcae 803f 9882 803f 5ee4 7c3f
00000070: 672f 7f3f 853c 7f3f caf2 7c3f 1819 803f
00000080: 2ca2 7e3f 1da1 7f3f cf02 7e3f 7468 7c3f
00000090: b633 813f 6d52 823f 2390 7d3f f497 7c3f
000000a0: c43e 813f 7a72 803f bc39 7f3f 3227 7e3f
000000b0: 1659 7e3f fe9b 7f3f dbda 823f 2b63 823f
000000c0: 06b0 803f bb73 7d3f 6375 7d3f d901 7d3f
000000d0: 5138 793f 8783 813f 0f27 813f e8bf 7e3f
000000e0: 6a7b 823f d7e1 7d3f 050a 7f3f ae66 7f3f
000000f0: d920 803f f848 7e3f 1248 803f e85e 7e3f
00000100: e91b 803f 8da2 7d3f 521d 7d3f 68fe 803f
00000110: 6e53 7e3f 1750 793f 5f0a 803f 1fa3 793f
00000120: 472d 803f e49b 7c3f 0d84 823f 8a05 7e3f
00000130: 06d2 7e3f 4ffa 7c3f cf37 813f 17b2 7e3f
00000140: 7d56 823f 4f41 7e3f 0d2a 803f 36d5 7f3f
00000150: b1a8 813f ccf8 7f3f b25b 7e3f 719f 7c3f
00000160: 8b35 7f3f d62f 7f3f 253f 813f f365 7e3f
00000170: 8f35 7b3f e665 7e3f 23d3 7e3f 67a1 803f
00000180: 28ea 7b3f cf8e 7e3f ab1a 833f cc3c 7b3f
00000190: 6c98 803f 5265 7e3f cfae 7f3f a715 803f
000001a0: 853e 7d3f a996 7b3f c3ae 7d3f c8a5 803f
000001b0: d513 803f dd24 7d3f 0e90 7d3f 7204 803f
000001c0: 2a25 7d3f e920 7e3f bbf3 7e3f 1b8f 7d3f
000001d0: e92c 823f 86a0 813f 72bc 7f3f 9edc 7d3f
000001e0: 972f 803f 4ca1 7e3f b804 803f 58c8 803f
000001f0: f8f0 7d3f 3240 813f 07bf 7e3f 6ac8 813f
1.0001614 0.9969765 0.9863845 1.0090197 0.98111683 1.0020542 1.0008595 0.9803834
1.0208007 0.98816836 1.0171058 0.98317987 1.0092345 0.98617613 0.9845278 0.9699971
1.0171732 0.9897092 0.9794038 1.010416 0.9842812 0.9946508 0.9974537 1.0017736
1.0205379 1.0053363 1.0039854 0.9878596 0.99681705 0.9970172 0.98807967 1.0007658
0.99466205 0.99855214 0.99223036 0.9859688 1.0093906 1.0181404 0.9904806 0.9866936
1.009728 1.0034935 0.9969747 0.9927856 0.99354684 0.998474 1.0223039 1.0186514
1.0053718 0.99004716 0.9900724 0.98830944 0.97351557 1.0118264 1.0090045 0.99511576
1.0193913 0.9917273 0.99624664 0.9976605 1.0010024 0.9933009 1.0021994 0.99363565
1.0008518 0.9907616 0.98872864 1.0077639 0.99346054 0.9738783 1.0003165 0.9751453
1.0013818 0.9867537 1.0196549 0.992272 0.9953922 0.9881944 1.0095156 0.99490494
1.0182644 0.99318403 1.0012833 0.9993471 1.0129606 0.9998901 0.99358666 0.9868079
0.99691075 0.99682367 1.0097395 0.9937431 0.981286 0.99374235 0.9954092 1.0049256
0.9840417 0.9943666 1.0242513 0.98139644 1.0046515 0.9937335 0.9987611 1.0006608
0.9892352 0.98276764 0.9909479 1.0050592 1.0006052 0.98884374 0.99047935 1.0001357
0.9888483 0.99268967 0.99590653 0.99046487 1.0169955 1.0127113 0.9989692 0.9916476
1.0014523 0.9946487 1.000144 1.006114 0.99195814 1.0097716 0.99510235 1.0139287

network.1.bias f4 [128]
00000000: 2657 90bc 1020 9a3b d968 20bb b3ec bdbb
00000010: 4ba5 5bbc a891 873b 2d49 f2ba dfd4 cfbc
00000020: fe69 423c c965 8ebb 7adf 7a3c e199 b5bc
00000030: d219 d13c 79d5 f339 330a deb8 5b90 8cbc
00000040: 8513 373c fc8e 173a 6b43 60bc 427c 943c
00000050: 4933 ce3a 82d3 5e3c 0def 963b 7e74 bbbb
00000060: 1e60 583c c404 a1ba 5baf 8e3b 361f 81bb
00000070: 70d0 7b3a bb6f 3239 ac25 8abc 7c10 cabb
00000080: 5aa2 bb3b 3532 e53a cbde 7fbb 41ed 45bc
00000090: 6751 a13c 5a3b 7d3b 6d3a 8bbc 11f4 07bc
000000a0: 2d8e b0bb dd13 e83a 09b6 333b 3fbe edbc
000000b0: 49e4 283b 53cd e3ba b41f dd3c 6a9c 6f3c
000000c0: 139e e03b d77b ddbc 9c3c 07bb 6cb0 363c
000000d0: 47a9 c0bc 6570 513c ea5b 5c3c 61d9 18bc
000000e0: 1713 c83c 9846 d7bb 5130 033c a87a 123c
000000f0: 0f7f 8bbc 6620 ecba ba4c 89ba 11f4 1c3c
00000100: c9b8 7ebc 7a3e ccbb 7d22 9bbb 8ed4 823c
00000110: dc84 8dbb 9857 9cbc 6575 5c3b 8a37 d6bc
00000120: 37b5 b33a d418 43bc 9aff 853c 189a be3a
00000130: 89c9 263b 077e 28bc 062b 873c afe5 103c
00000140: f375 a73c d917 e5bb 5cd8 4e3c 2827 99ba
00000150: 25fe a73c 1b7b be3b f00b 0ebb 1b8f 31bc
00000160: af10 283a 99ef 573b f569 923b b328 33bc
00000170: 9176 56bc 058f b4b9 d80f 0d3a bcf5 d83a
00000180: 679a 7eba 580f aa3b 499f 3a3c cfb6 80bc
00000190: a012 013a 3a55 a9bc f4e5 903b 61e4 65bb
000001a0: 78d1 323a 52e0 ccbb 62c4 2fbc 9b53 693c
000001b0: ac4d 503c 9e6e efbb 1913 96bc 2c4c 0a3b
000001c0: a9e8 603b 4dbc 25bc dba5 2abb 7f68 41bc
000001d0: 2da3 ad3c 1174 213c 51bf f2bb e748 693b
000001e0: bcf9 583b ea3e c83b da1c be3b 00d0 853c
000001f0: b18a 04bc e1a8 0c3c e69e e13b 4e10 d53c
-0.01761968 0.004703529 -0.0024476557 -0.005796039 -0.013406108 0.0041372366 -0.0018484943 -0.02537006
0.011866091 -0.00434563 0.01531207 -0.022168102 0.025525007 0.0004650762 -0.00010587685 -0.017158678
0.011174087 0.0005781499 -0.013687949 0.018125657 0.0015731837 0.013600232 0.004606134 -0.005720674
0.01320651 -0.0012284745 0.0043544 -0.003940488 0.000960595 0.00017017026 -0.016863666 -0.006166516
0.005726141 0.0017486276 -0.0039042707 -0.0120804915 0.019692136 0.0038640113 -0.016995633 -0.008297936
-0.0053880424 0.0017706115 0.0027421734 -0.02902138 0.0025770834 -0.0017379917 0.026992656 0.014624694
0.0068547814 -0.02703659 -0.0020635491 0.011150461 -0.023518218 0.012783145 0.013449648 -0.009329171
0.024423165 -0.0065696947 0.008007125 0.008940376 -0.01702836 -0.0018015027 -0.0010475137 0.009579674
-0.015546986 -0.0062330337 -0.004734336 0.015970495 -0.0043188166 -0.019084737 0.0033639309 -0.02614953
0.0013710622 -0.011907775 0.016357232 0.0014541773 0.0025449714 -0.0102839535 0.016500007 0.008843823
0.020441985 -0.0069913683 0.012624826 -0.0011684643 0.020506928 0.005813015 -0.0021674596 -0.010837342
0.00064111775 0.0032949208 0.0044681975 -0.010934996 -0.013089792 -0.00034438833 0.0005381084 0.0016552727
-0.0009712339 0.0051898174 0.011390516 -0.01571217 0.0004923735 -0.020670522 0.004421944 -0.0035078751
0.00068213744 -0.006252327 -0.010727974 0.0142411245 0.012713831 -0.007306888 -0.018319653 0.002110253
0.0034318364 -0.010115695 -0.00260388 -0.011804699 0.021195972 0.009854333 -0.0074080606 0.0035596432
0.0033107838 0.0061110156 0.005801779 0.016334534 -0.008089707 0.008585186 0.0068853972 0.026008751

network.1.running_mean f4 [128]
00000000: b061 853e 377e 67bc ccb0 cbbd 7719 66be
00000010: 4fee dabe 41bc 98be ddfb 4abe 99d9 45bd
00000020: a1d6 d43d 4711 f7be 466d 88bc 3fa4 80be
00000030: cf6c 033d b4b5 56be f582 f63c 0d06 1abe
00000040: 5b9a bd3d fd0d 2bbe 052e 90bd 0f0f 93be
00000050: 4dfa 7f3d a76c bebd 473e de3c b25c a4be
00000060: aed3 e0bd efa7 1b3e 9257 9c3e f0b1 843e
00000070: e37b 9e3d e164 fcbd c0ef aa3d e8de 583d
00000080: 05e9 49be c313 063e b255 b1bc 65ba 3a3d
00000090: 22cd 8fbe 9dbc f43d 5fc7 a0be 974b 5ebe
000000a0: 9620 893d 6e4b d93d a3b7 823e b718 94bd
000000b0: a0c2 843e 0417 1f3e c653 213e 802e 663e
000000c0: 6091 413e ebf1 473d 4708 563d 51b9 183d
000000d0: 2e5a e13d 39d2 d5bd 6de6 40bd 54f5 d83d
000000e0: 261a eebd 1fa8 853d bbde e23e 83a2 c63d
000000f0: 466a eabd 4f4c f7bd 315a 1abe 1ca0 9fbe
00000100: 6935 c13d 9652 e03b bb0d 9b3c 823d ad3e
00000110: 8773 47be 3889 e7bd 8712 383b 6ff0 d83e
00000120: a2aa 04be 1395 04be 8dbc 9d3d 3305 80bd
00000130: 491e 913d d839 86bd 47b3 8cbe 0c56 e4bd
00000140: 4619 d3bd 685c 7c3e 23ba 6fbe 3c51 c63d
00000150: f81b b1be 478d 63be 4de0 e0be 011f 24be
00000160: 784c 8abe e16a 21be 2d86 5e3d 944f ccbd
00000170: dd3c b83c f1a2 a43e 6bee 793e dc13 2cbe
00000180: 1fba 7ebd 06c8 90bb 0e83 343e 2204 55bc
00000190: c277 bf3d 2724 603d 9d9c 6dbe 129e 1c3d
000001a0: 2a0f af3d c2b4 993e 81c5 e73d bb30 6fbd
000001b0: 0264 a8bd 3838 e53c 144d 3bbe ee1d 07bc
000001c0: cc27 513e 40e5 933d 8911 8bbe 1232 393d
000001d0: b027 80be 6e2a 8e3e 5ad3 85bc 9346 fc3b
000001e0: a9ce 05be 1024 6a3e 624b 46bd be2c 083f
000001f0: 3e8d c0bc 0b5a 60be c5e7 b33d f72c e0bd
0.26051092 -0.014129213 -0.09945831 -0.22470652 -0.4275994 -0.29831126 -0.1982264 -0.04830322
0.103925 -0.4825537 -0.016653668 -0.2512531 0.03208619 -0.20967752 0.030091742 -0.1504137
0.092579566 -0.16704555 -0.070400275 -0.28722426 0.062494565 -0.092980675 0.027129306 -0.3210197
-0.10977875 0.1520078 0.3053556 0.25917006 0.07738473 -0.123239286 0.0834651 0.052946955
-0.19717796 0.13093476 -0.021647308 0.045587916 -0.2808619 0.11950038 -0.31402108 -0.21708523
0.066956684 0.1061009 0.2553073 -0.072312765 0.25929737 0.15536124 0.15754613 0.22478676
0.18903112 0.048814695 0.052253988 0.037286106 0.110035285 -0.104404874 -0.04709475 0.105936676
-0.11626081 0.06526207 0.44310555 0.096989654 -0.11446051 -0.120751016 -0.15073468 -0.3117684
0.09434015 0.0068457825 0.018927446 0.3383599 -0.19477664 -0.11305469 0.0028087215 0.42370936
-0.12955716 -0.12947492 0.07701979 -0.06250992 0.070858546 -0.065540016 -0.27480528 -0.11149225
-0.10307555 0.24644625 -0.2341085 0.09683463 -0.3459165 -0.22221862 -0.43921128 -0.16027452
-0.27011466 -0.15763427 0.05432718 -0.09976116 0.02248996 0.32155564 0.24407355 -0.16804451
-0.062189218 -0.004418376 0.17628118 -0.013001474 0.09349014 0.054721978 -0.23204274 0.038236685
0.08547814 0.3002072 0.11316968 -0.058396082 -0.082222 0.027980909 -0.18291122 -0.008246882
0.20425338 0.0722146 -0.27161816 0.045213766 -0.2503028 0.27766746 -0.016336132 0.007698843
-0.13067116 0.22865319 -0.048411734 0.5319327 -0.02350485 -0.21909349 0.08784441 -0.10946076

network.1.running_var f4 [128]
00000000: a4aa d63d e7ee fa3d a5ed ff3d e32b a33d
00000010: e36f b83d 2f8f 9a3d 76a5 6e3d 1b11 1f3d
00000020: f1fc cf3d cdd3 5a3d df1b 9a3d 0640 e13d
00000030: df35 fe3d fb1c 653d a5e8 ca3d fdad 6e3d
00000040: f3c4 9e3d c182 093e 72fd 1a3e 6e5e cf3d
00000050: cea6 913d 8ec1 e03d b27d cb3d 961a 7b3d
00000060: a0fe 813d 880e b03d 57f3 b63d b178 c33d
00000070: 1014 ec3d 3cdc cf3d 868c 8f3d 2b34 733d
00000080: ac48 923d 60ad b93d 2aab fe3d bf7c 133e
00000090: 85e7 693d 437d 943d 2b03 0d3d 185e 3c3d
000000a0: 1512 cd3d 430c 153e 6a3d ee3d e2ff 003e
000000b0: 7e8b fa3d b8b8 163d 80a8 953d caca 7b3d
000000c0: bb84 c03d efa0 0f3e 5095 303d a6f8 cc3d
000000d0: 49b4 c13d 0ac2 ec3d 3892 143d 1c12 373e
000000e0: 69f1 ae3d aa6a b03d c49a 3c3d 37c5 1f3d
000000f0: 1812 4f3d 2b53 ba3d c87a 7b3d 6666 5b3d
00000100: 3677 a83d 09d0 f03d dafc 343d 884a e93d
00000110: 27e1 af3d 230d 113e 6120 bc3d 482d b23d
00000120: 4566 843d 98c1 d13d 0d38 813d 672f 713d
00000130: 62d3 ab3d abb6 5d3d a8b7 bc3d dfa8 7a3d
00000140: d5cc 893d f4cf 313d 29fa f73d 68bd 813d
00000150: 43e6 283d 4e60 8c3d f9c2 0c3e 0db2 873d
00000160: f9b1 8f3d ce15 0b3e 6484 a53d 3877 973d
00000170: e91c 233e 6937 d43d f3ad 8a3d 64e9 703d
00000180: 53dc 983d b316 e73d ea2f d73d c2bb ba3d
00000190: c897 d83d 2191 843d 91bc 1d3e 594b d03d
000001a0: 15f0 473d d42b 363d 0f6c a33d e8ae b23d
000001b0: a0f1 923d d54e 633d 0963 d63d caf1 993d
000001c0: 5473 5d3d a1bd a33d 70f3 823d 9294 c63d
000001d0: dbd2 e93d 819f 9a3d 1ed8 783d a13b e03d
000001e0: 6804 ec3c 9225 1b3e 2f37 023e e7f9 a73d
000001f0: 4ac8 803d 758a 7f3d c130 5b3d c009 123d
0.10481766 0.12252598 0.12496499 0.07967355 0.09005716 0.07546841 0.058263265 0.038834672
0.101556666 0.053424645 0.07524847 0.109985396 0.12412619 0.05593584 0.09907655 0.058271397
0.07752409 0.13428785 0.15135744 0.10125433 0.071118936 0.109744176 0.09936084 0.06130465
0.06347394 0.085965216 0.08933132 0.095445044 0.11527264 0.10149428 0.070092246 0.059375923
0.07142767 0.09066272 0.12434991 0.14403056 0.05710556 0.07250454 0.03442685 0.045988172
0.100132145 0.14555459 0.116328076 0.12597612 0.12233637 0.036797255 0.073075294 0.06147269
0.09400316 0.14026235 0.043111145 0.100083634 0.09458215 0.115604475 0.036272258 0.17878002
0.08542139 0.086140946 0.046046034 0.039006438 0.050554365 0.09097894 0.06139639 0.05356445
0.08225863 0.117584296 0.04418645 0.11391169 0.08587866 0.14165168 0.09185863 0.08700043
0.06464819 0.10242003 0.06309519 0.058883097 0.083899274 0.054129284 0.09214717 0.061196204
0.06728522 0.04341121 0.12108261 0.063349545 0.04123522 0.06854306 0.13746251 0.06625757
0.070163675 0.13582537 0.08081892 0.07395786 0.15928997 0.10362131 0.067714594 0.05881633
0.074638985 0.112836264 0.10507186 0.09117843 0.10575825 0.06472994 0.15403964 0.101706214
0.048812944 0.04447539 0.07979595 0.08724767 0.071749926 0.055495102 0.10468108 0.07516821
0.054065064 0.07995153 0.06394088 0.09696306 0.114171706 0.07549954 0.06075298 0.10948873
0.028810695 0.1515105 0.12716363 0.08201962 0.06288202 0.062387902 0.053513292 0.03565383

network.4.weight f4 [64, 128]
00000000: 20de 76bc 1022 3bbb 8523 f6bb 24f5 6f3c
00000010: f315 0abd d989 f3bb 4282 1e3d 60a6 6f3d
00000020: 756f be3d 5726 76bd 2618 75bd 9ecc 17bd
00000030: c248 1cbc 2205 663d 5c8e d13d 2270 5a3c
00000040: 7664 88bd 85a2 a23b 783b 713d 4cb9 c03c
00000050: fedf 96bd 4f34 b63c 6482 94bd 367f 0bbd
00000060: 49c2 533d 2f9c 03bd 6365 1f3d 62fd a8bd
00000070: 0c0a a03d 2703 233d 1f7f 543d 5bb8 db3c
00000080: 98aa 2bbc 1e85 debc a776 0abd 36df 8fbd
00000090: 96f2 893d dd39 39bd 7b6b e0ba b277 97bd
000000a0: ac34 703c 7ca8 23bd 9c81 a7bd 5087 803c
000000b0: bb5d a7bd 4258 8dbc 80d4 95bd 6897 773d
000000c0: 41bb 9abd c17b 0a3b 3727 ed3c 5da4 60bd
000000d0: 6b75 713d 2d5f b03d d390 5fbd 1083 a8bb
000000e0: 503f 493d b800 8a3d 8d00 823d f8e9 9bbd
000000f0: 7959 8dbd 07a5 8bbd 93dc 66bd c1c4 85bc
00000100: 3afa 34bd adbe 403d 0891 7cbd ff36 c9bd
00000110: ab48 71bd 2edf 59bd bcf9 983d 9193 6b3c
00000120: 3346 ec3b f539 90bc 633b 94bd de08 f9bc
00000130: 00f1 113d faec 8b3d 79ce 773d 8ddf 96bb
00000140: 629e 25bd b8d3 1fbd 4ef1 a23d f2f0 c0bd
00000150: f466 8e3c a969 fabb 18c6 bf3d c961 483d
00000160: 3584 fbbc 3cf2 acbd 4ab1 8c3c 7eba 7dbd
00000170: 31c5 97bc 46b9 6b3c 1fa5 013d cd76 09bd
00000180: 3ac4 64bd cb65 98bd fb0c d4bd 6ea8 6f3c
00000190: d910 4ebd bc31 2a3c 615d 6ebd 102c 49bd
000001a0: c6d6 503d eca1 233d e4fa a53d 76df c13d
000001b0: 7577 3abd fedd 0ebd b5bc 69bd 5a23 743d
000001c0: 483b 433d c903 2d3d 0097 88bd f9a0 85bd
000001d0: 7650 a23d 8eed a4bd 56f6 42bd b527 6a3d
000001e0: 5b76 aebd 0917 03bd 0556 253d 6acb b03d
000001f0: b418 b6bc c1b7 a5bd 651c 313d cbe6 e33d
00000200: 5417 85bd 016e 77bb 3714 79bd 3874 e8bc
00000210: d8c7 df3c 2b40 2f3d 20f1 2d3d e07d 8ebd
00000220: 69f9 0cbd d8f0 4a3d 8370 59bc e60c cfbc
00000230: 977f 3fbd 2201 c63d 2d43 8bbd 0c77 64bd
00000240: 3e54 643d 0674 93bd 022d 3b3d 9315 d3bc
00000250: 7405 5e3b 76f4 3cbd b120 533d 13c9 7f3d
00000260: d53a 183c 0818 d63b f72c 83bc bff4 1ebd
00000270: 2d2e 51bd 9e05 f63c 62dd 283b 12fa 773d
00000280: f9ae 553b 9147 c73b b7c5 9bbd bd04 303d
00000290: 1511 d2bd 66a4 c83c 08ba 143d 6f64 873c
000002a0: 18fd 933d d43e ea3c f3b6 1bbd 0842 8cbd
000002b0: dcd9 b2bd 5c5d 7e3d 7b96 463d 8291 91bd
000002c0: 64fd 043c 7fd4 43bd 60c9 903d 6e48 22bd
000002d0: c9a8 2e3d 7555 6e3d e542 bf3c c723 3e3d
000002e0: 105c c93b 917a 973c cc77 3dbd c780 d0bc
000002f0: 54d3 38bc 909f e53c 2632 f2bc 50c5 5a3d
00000300: bb37 ac3d 6d89 2c3d 418c 0b3d 4908 93bc
00000310: 76fa ae3c 67ec cebb b0a7 963d f02c 97bc
00000320: fa56 0f3c 3693 8ebd d21b c43d c925 12bd
00000330: 8f13 8c3d 79f9 74bd 7691 afbd f0cd 05bc
00000340: 7fcc babd 9c05 3d3a 7ae6 913b ee92 adbc
00000350: 8596 8d3d 6017 303d e072 9ebd 8938 72bd
00000360: b25d 263d 73c8 21bd af35 953c aa4d 5ebc
00000370: 7f50 db3c fbfe 43bd 805e 4e3c af63 f4bc
00000380: 678a 39bd b6e6 09bd 77dd a63c 3b33 603d
00000390: 6306 8fbc 47bb 4d3c cffb bf3d 7e3c 8b3d
000003a0: 2339 14bc 29d2 57bd bd9e 8b3c 85b4 043d
000003b0: a33d 8cbd c07d c5bd 7df3 65bb 2701 c13d
000003c0: b432 8dbd b3b2 06bd bf31 f8bc 0ee9 86bd
000003d0: 902e 6ebd 35ec b23d a761 853d d69d 73bd
000003e0: bd06 013c 3a33 89bd 542f 693d 2746 87bd
000003f0: 25da c7bc 2b76 25bd 6de7 463c 2254 8f3d
-0.015067607 -0.0028554238 -0.0075115585 0.014645848 -0.03371234 -0.007432204 0.038698442 0.058508277
0.092986025 -0.060095157 -0.059837483 -0.037060373 -0.009538831 0.05615724 0.10232231 0.013332399
-0.066597864 0.0049632215 0.058894604 0.023525856 -0.07366942 0.02224174 -0.072514325 -0.034056865
0.051698957 -0.03213137 0.03891505 -0.08251454 0.07814416 0.03979793 0.051879045 0.026821306
-0.010477684 -0.027163085 -0.033804562 -0.07024996 0.06735723 -0.0452212 -0.0017121875 -0.07395877
0.014660995 -0.0399556 -0.08179018 0.015689522 -0.081721745 -0.017253999 -0.07315922 0.060447127
-0.07555247 0.0021130892 0.028949363 -0.05484425 0.05894987 0.08611903 -0.054581475 -0.005142577
0.049132645 0.06738418 0.06347761 -0.076129854 -0.06901831 -0.06818586 -0.0563627 -0.016329171
-0.044183947 0.047056843 -0.06166175 -0.09824943 -0.058907192 -0.053191356 0.07469508 0.014378444
0.007210517 -0.017605761 -0.072378896 -0.030399736 0.035630226 0.06832309 0.060499642 -0.004604286
-0.04043425 -0.03902027 0.079561815 -0.09420957 0.017383076 -0.00764199 0.09363955 0.04892138
-0.03070269 -0.0844464 0.017174382 -0.06194543 -0.018526645 0.014387434 0.031651612 -0.033560563
-0.0558512 -0.074412905 -0.10354038 0.014627559 -0.050309036 0.010387834 -0.05819452 -0.049114287
0.050986074 0.039949343 0.08104494 0.0946645 -0.04552408 -0.034879677 -0.05706473 0.059604026
0.047663957 0.042239938 -0.06669426 -0.06524844 0.07925503 -0.080531225 -0.047598206 0.057166774
-0.08518668 -0.03200439 0.040365238 0.08632548 -0.022228576 -0.08091689 0.04323997 0.11128005
-0.0649859 -0.0037754776 -0.060810294 -0.02837573 0.027316973 0.042785805 0.042466283 -0.069576025
-0.034417544 0.049546093 -0.013271454 -0.025274705 -0.04675254 0.09668185 -0.06799922 -0.055777594
0.055744402 -0.07199864 0.04569722 -0.025767123 0.0033877762 -0.046131574 0.05154485 0.06244762
0.00929137 0.0065336265 -0.016012652 -0.038807627 -0.051069427 0.030031975 0.002576672 0.06054122
0.0032605513 0.0060815294 -0.076060705 0.04297327 -0.102571644 0.024492454 0.036310226 0.016527383
0.07226008 0.028594412 -0.03801627 -0.06848532 -0.0873296 0.062100753 0.048483353 -0.071078315
0.008117054 -0.047810074 0.07069659 -0.039619856 0.042641435 0.058186967 0.023347327 0.04642084
0.006145008 0.018491061 -0.046256825 -0.02545203 -0.011280853 0.028030187 -0.029564928 0.053410828
0.08409067 0.042123247 0.034069303 -0.017948287 0.021359663 -0.0063148024 0.073562026 -0.018454045
0.008748764 -0.06961672 0.09575619 -0.035680566 0.06839668 -0.05980823 -0.08572666 -0.008166775
-0.09121036 0.00072106137 0.004452524 -0.021188226 0.06913475 0.042991042 -0.077367544 -0.059135947
0.0406167 -0.039497804 0.018214075 -0.013568321 0.026771782 -0.04785059 0.012595773 -0.02983269
-0.045298006 -0.03366729 0.020369275 0.054736357 -0.0174591 0.012556857 0.093742006 0.06798647
-0.009046826 -0.05269066 0.017043466 0.03239872 -0.06847694 -0.096431255 -0.0035087757 0.09424048
-0.068944365 -0.032885265 -0.030297158 -0.065874204 -0.058149874 0.08736459 0.06512766 -0.059476696
0.007875142 -0.06699224 0.0569299 -0.066051774 -0.024396012 -0.040395897 0.012140137 0.06998469

network.4.bias f4 [64]
00000000: ccfd bbb5 3001 dfb9 24ce 8db8 b5fc 69ba
00000010: e480 e6bb 7f09 ccbc 9fad 52bc ec71 82ba
00000020: 946c 2639 a5a6 99bc 7cf2 603c 6b1e d639
00000030: 4559 afbc 6758 453b bed9 f4b7 1e07 eab8
00000040: 36c0 643c 6805 353c cfd1 7d39 69ce 343a
00000050: d1b4 203c 0966 6f3c 93cc 3039 613b 4cbc
00000060: 1a85 b13c 8ec5 843a 1132 1abb e3af b5bc
00000070: fe05 7fba 03bd 5dba 4930 853a 281c c4bc
00000080: 785e e43b 93ad ac38 abfd 953c 6aa5 9c37
00000090: b619 9e3c a67d ebb9 5698 5b3a d3a4 f73a
000000a0: 0384 eb39 3194 9b3c 09ff 9cb8 4957 2dbc
000000b0: eafa f2bb 717e 9bb9 ca38 4939 5517 45ba
000000c0: 519b 803c c9c0 31ba 0620 5b36 f9dd bd3a
000000d0: 43c2 b438 99e1 c5b7 9a80 69ba 89dc 1ab7
000000e0: 9c90 d0bc 8f9d 6a39 2643 15bc 0cf0 85bc
000000f0: b713 0ebc 66de 583c 0cce b4bb 8450 3a3c
-1.400645e-06 -0.0004253476 -6.7618006e-05 -0.0008925901 -0.007034408 -0.024906872 -0.012858777 -0.0009952164
0.00015871442 -0.01875622 0.013729688 0.00040839924 -0.021404872 0.0030112506 -2.918846e-05 -0.00011159315
0.013961842 0.011048652 0.0002420612 0.00068972126 0.009808735 0.014611729 0.00016860878 -0.012465329
0.021669913 0.0010129677 -0.0023528377 -0.022178596 -0.0009728371 -0.0008458646 0.0010161485 -0.023939207
0.0069692694 8.23393e-05 0.018309435 1.8673676e-05 0.01929937 -0.00044916308 0.0008376887 0.0018893726
0.0004492105 0.018991562 -7.486164e-05 -0.010579892 -0.007415165 -0.0002965811 0.0001919001 -0.00075184304
0.01569906 -0.00067807414 3.2652183e-06 0.0014485709 8.619253e-05 -2.3589282e-05 -0.0008907408 -9.230463e-06
-0.02545958 0.00022374674 -0.009110248 -0.016349815 -0.008671693 0.013236618 -0.0055177268 0.0113717355

network.5.weight f4 [64]
00000000: 7efc 7c3f 850d 833f bb0e 7f3f efe8 7e3f
00000010: 348e 7e3f 0c01 803f b7a5 7d3f 419a 7f3f
00000020: 68d1 7c3f 24e0 803f c516 813f 5de2 7e3f
00000030: c70a 7f3f 8ab1 7f3f 53da 7d3f 065b 803f
00000040: 386f 7f3f 8ab8 7e3f 12eb 7d3f c892 7f3f
00000050: be52 803f d82e 803f 7a09 7c3f a892 823f
00000060: 93b8 7f3f fcd9 7a3f 8999 823f 1776 7b3f
00000070: bfe7 813f 5c0d 7a3f 5fd9 803f 47b1 813f
00000080: 85b3 7e3f 8233 7f3f c1c7 803f 3d88 7f3f
00000090: 977c 823f 485b 823f 399d 803f edb0 793f
000000a0: f9b6 803f 2205 813f 7ebb 793f 2918 7b3f
000000b0: 07dd 7e3f b9fa 7f3f bfc9 7d3f 6b5f 7e3f
000000c0: 8a11 803f 48f9 7b3f a80c 7a3f aa69 803f
000000d0: 422e 7f3f c65d 7e3f a91e 7d3f ae9f 7d3f
000000e0: adf3 7a3f d890 7e3f 9ee6 813f 4be7 7d3f
000000f0: f512 813f 404c 7e3f 2be2 803f c64a 7d3f
0.9882277 1.0238501 0.9963185 0.9957418 0.99435735 1.000032 0.99080986 0.9984475
0.9875703 1.0068402 1.0085074 0.9956415 0.9962582 0.9988028 0.9916126 1.0027778
0.9977908 0.99500334 0.99186814 0.99833345 1.0025251 1.0014296 0.9845196 1.0201006
0.9989101 0.9798887 1.0203105 0.98227066 1.0148848 0.97676635 1.0066336 1.0132226
0.99492675 0.9968797 1.006096 0.9981726 1.0194272 1.0184107 1.004798 0.9753559
1.0055839 1.0079691 0.97551715 0.9808374 0.9955601 0.9999195 0.99135965 0.99364346
1.0005352 0.9842725 0.9767556 1.0032246 0.9967996 0.99361837 0.9887491 0.99071777
0.9802807 0.99439764 1.0148504 0.9918105 1.008391 0.993351 1.0069021 0.9894222

network.5.bias f4 [64]
00000000: 3665 30bb 0ea5 ba3c 19d6 8cbb 8fd6 6c3c
00000010: aa43 43bc 9e8a d53a b74f 653b df63 8039
00000020: 6030 61bb 78dc d83a 7d35 df3b 9fa4 cc3b
00000030: c4e2 f0bb 3aaf f63b 20bc 4fbc 6172 db3b
00000040: 9431 ff3b 1006 70bb 9b29 e13b ef3c 2bba
00000050: 28bb 403c d9e0 363c 24fb 30bc 4af9 383b
00000060: 88a5 42bc ec6c 86bc 3c15 293c 5565 a6bc
00000070: 82e9 433c 6789 94bc f5bc 903c b242 553c
00000080: b588 d4bc 580e 92bb 851a efba 73df d33b
00000090: 421e 3c3c f0c2 ab3c 05b1 13bc e28c 1cbc
000000a0: 4525 0c3c 4ba8 ef3b e3df 1dbc 0c22 0a3b
000000b0: bfee 07bc e0fc 40bc 550e 4c3b 969b eebb
000000c0: 4b0a 46bb ed7a 47bc 740d 69bc 7b19 293b
000000d0: 0391 093b f93a d6bb 4838 cdbb 160d 033a
000000e0: 33ed 8cbc ceb6 9fbb 2075 753c fb6a 9dbb
000000f0: 23c8 783c 5167 4c3c 92f3 ca3b 3c19 82bb
-0.0026915795 0.022783782 -0.0042979834 0.014455452 -0.011917988 0.0016291921 0.003499014 0.00024488472
-0.003436111 0.0016545197 0.006811796 0.0062452103 -0.0073512513 0.007528213 -0.01267913 0.0066969846
0.0077878926 -0.0036624707 0.006871415 -0.0006532212 0.0117633715 0.011162006 -0.010802064 0.002822476
-0.011880286 -0.01640936 0.010320004 -0.02031199 0.011957528 -0.018131925 0.017668227 0.01301639
-0.025944093 -0.0044572763 -0.0018242156 0.006465846 0.011481823 0.020966977 -0.009014373 -0.009555073
0.008553808 0.0073137633 -0.009635898 0.0021077422 -0.008296668 -0.01177904 0.0031136472 -0.007281731
-0.0030218537 -0.012175304 -0.014224399 0.002580254 0.0020990975 -0.006537792 -0.0062628128 0.00049992034
-0.01720295 -0.004874087 0.014981538 -0.004804013 0.015184435 0.012475804 0.0061935866 -0.0039702933

network.5.running_mean f4 [64]
00000000: 4c79 83be a185 d0bd 3819 233e d39b 34bd
00000010: 8d8d 543e c5dc 0cbd a806 883d 4882 47bf
00000020: 0abd 7fbe c388 5f3e 8276 703e b920 583c
00000030: 877a 223f 9ee7 8b3d 66fa 1b3d dea0 59be
00000040: 626e 153f d501 0e3d bb71 5f3e e6b3 86be
00000050: 3268 e3be e868 84be cf88 253e 5205 c13e
00000060: 0a21 1f3e 5eef b33e 6233 79bd dd70 583c
00000070: 7856 52bd 2237 ffbb dc39 95bd 9f40 493e
00000080: d5e5 343c aa2c 0ebf 9019 d13c 00a6 c5be
00000090: 2003 153c 5d52 913e 02ae 653e c75b 8cbd
000000a0: 50bd 653c 1f9b 963d 0a0b 94bd d7f9 db3e
000000b0: 9f06 8f3e b47d 483e cd3a 2abe 670f a73e
000000c0: 3353 6c3d 3fef 5e3d edcd 76be fc1f 7abe
000000d0: e2e7 6dbe 5f92 18be aa67 a9be 6206 a93c
000000e0: 4f90 17be 5b2f 20be 141a 8d3b 1633 8fb9
000000f0: ede8 4dbe 87d7 19be 4b4e b13d 2644 963e
-0.2567848 -0.10181738 0.15927589 -0.044093918 0.20757122 -0.03439023 0.066418946 -0.7793317
-0.24974456 0.21829514 0.23482707 0.013191395 0.6346821 0.06831287 0.038080595 -0.21252772
0.58371556 0.034669716 0.21820728 -0.26309127 -0.44415432 -0.25861287 0.1616547 0.37699372
0.15539947 0.3514356 -0.060840018 0.013210502 -0.051351994 -0.0077885548 -0.072864264 0.19653557
0.011041124 -0.555369 0.025524884 -0.3860321 0.009094983 0.2838315 0.2242966 -0.06853443
0.014022186 0.07353806 -0.07228668 0.4296405 0.2793474 0.19579202 -0.16623993 0.3262894
0.057696532 0.05442738 -0.24101992 -0.24426264 -0.23232988 -0.14899586 -0.33086902 0.020632926
-0.14801143 -0.15643065 0.0043060873 -0.00027313147 -0.20108385 -0.15023623 0.08657511 0.29348868

network.5.running_var f4 [64]
00000000: 49c3 4e3e 0d9e 223e efe4 fd3d c1b1 b43e
00000010: 17aa 1c3e a5cf 4c3e 8106 5d3e 2e9b bf3e
00000020: d815 453e af6e 693e 0819 ec3d 49b1 ab3e
00000030: 4fdf 653e 82c5 343e e255 3b3e ce33 343e
00000040: b729 4b3e 90a9 8c3e bc41 753e 50c6 2d3e
00000050: a20b 8b3e 3f89 253e 6d9e 153e ecc3 593e
00000060: 7444 573e 4a24 1d3e 0dff 233e 8671 6f3e
00000070: 4f4e 023e a24e 033e c7e4 863e 9eec 843e
00000080: 7ab3 753e 7f40 813e eadc 233e d8e4 613e
00000090: 803c 7a3e a9d8 4d3e 50ba 723e 3350 383e
000000a0: 52e8 123e b2de 393e 3f84 103e 4d1a 2f3e
000000b0: 2a8d 3c3e d5a2 4c3e a4c1 493e caa0 2a3e
000000c0: 81a3 6e3e 15d3 6f3e 1661 743e f33b 1f3e
000000d0: d133 773e d43d 403e 6319 343e 8f3a 523e
000000e0: 3426 293e 6025 7b3e 029a 083e 0539 683e
000000f0: 5049 4b3e 16a5 583e a664 133e a06b d43e
0.20191683 0.15880604 0.12397181 0.35291865 0.15299259 0.20001085 0.21584512 0.3742308
0.19246614 0.22796129 0.11528212 0.33533695 0.22448467 0.17653468 0.1829448 0.17597887
0.19840132 0.27473116 0.23950857 0.16970181 0.27157313 0.16165636 0.14611216 0.21266145
0.21022207 0.15345874 0.16015263 0.2338315 0.12725185 0.12822965 0.26346418 0.25961775
0.23994246 0.2524452 0.16002241 0.22059953 0.24437141 0.2010218 0.23703885 0.17999344
0.14346436 0.18151358 0.14112948 0.17099877 0.18413225 0.1998399 0.19702774 0.16662899
0.2330456 0.23420365 0.2386516 0.15550213 0.2414086 0.18773586 0.1758781 0.20530151
0.1651848 0.24525976 0.1334 0.22678001 0.19852185 0.21156725 0.14393863 0.4148836

network.8.weight f4 [64, 64]
00000000: ada9 a13d d05a 253c ae5e 9bbd d09b c7bd
00000010: 2836 99bd 94ae a33d a0f6 8abd 25da ffbc
00000020: fcc1 743b a55b d9bc 1e1c 303d 42a9 aebd
00000030: f56f c73d b600 cbbd b54d 7ebd 510c b9bd
00000040: 31cb 823d f247 87bd e701 2abd fddc 803d
00000050: a032 58bc 9593 f53d 4deb ff3c 01ef 0fbd
00000060: 07f8 86bd 3c38 05be 26fb 423d d7ca d03c
00000070: 87f9 ee3d c812 febd 2db2 0a3d e86e 633d
00000080: c531 663d aabf 483d 7184 07bd a1ae d8bd
00000090: a8fd 40bd 9fc6 f23d c123 b1bd 46c0 acbd
000000a0: eb87 f53d a22f 553b 2aab 1abd 75c8 8d3c
000000b0: 2e7b f43c 1de9 52bb 65f3 b43d ec27 4a3c
000000c0: c57a 1cbd bcd3 aabd 1296 90bc 6291 6fbd
000000d0: 61a8 a33d e6db 2d3d faf0 b13d 50b5 d73d
000000e0: 62e5 013e a34b edbd 2460 28bd db06 2dbb
000000f0: 0f42 853d e23c 96b9 5f7c 2d3d 21d5 bbbc
00000100: f07f e6bd bdac 62bc deb2 92bb 6383 98bd
00000110: 0480 043e e3c6 d7bd 42c9 ebbd cb31 a0bd
00000120: fe6a e2bd 4829 05bd ca60 8dbd ba97 cb3d
00000130: f04d 903d 95e0 513d a055 c23d 2180 d4bd
00000140: 342d 8cbd d234 e93d da13 c13d 84cd ad3c
00000150: a0af 8e3d 8f71 c83c 74a9 c0ba ec2b 37bd
00000160: e19d 613d 8fa9 cebd 47f0 043e 37e5 c8bd
00000170: 3af9 e9bd 20a7 aa3d 6321 91bd 48ec 61bd
00000180: 48c8 81bc cb7f 09be 1c02 0bbc 46d9 5bbc
00000190: 9b4c ecbc 79f7 f53b 081b bdbd 720e dfbb
000001a0: 43ec 14bc b3d3 dabd ace9 c8bd 55a0 c53d
000001b0: 599d e4bd c620 5abc c74e 7cbd 4273 fd3d
000001c0: d16d c43d c194 753d 85ad 82bd d7b0 dabd
000001d0: 4f4c ddbc c6b6 7f3d 0f4d 873c dc77 8ebd
000001e0: 049d cabd e277 b93d e046 1d3d c534 ba3d
000001f0: d360 04be 410b 913c 5b6b 053e 7f96 01be
00000200: 6be4 fdbd f921 11be 4e98 98bd 2134 9bbc
00000210: 5023 723d 0b96 43bd 0f4b b13d 6a4d c23d
00000220: c556 933d 38db e2bd 9dc7 4f3d 32d7 963d
00000230: 9b70 cd3d ab09 f9bd 786e 04bd 2bbe a7bd
00000240: cec9 7dbd 7875 3b3d 9506 80ba d1fc 693d
00000250: 40d0 a0bd 970d 31bd 375b 643d f102 56bd
00000260: f91e ae3c 54d7 c3bd 11c0 da3d a32e 863c
00000270: 1fe1 f83c 603c 05bc a0fe ea3c e7a0 fc3d
00000280: 37e9 24bd 64c7 cd3d dd68 75bd a56d 2a3c
00000290: 8c59 acbd 7923 203d d085 f1bd 27f5 503d
000002a0: 5752 78bd 9853 023e e249 f23d 077a a23d
000002b0: accf ddbd 71aa 603d b594 b5bd 36b0 843b
000002c0: 2c3b 74bd e9a1 6e3d 78dc bcbc 72f3 253d
000002d0: 092a f03c dd23 903d 75e9 973d 2ed1 17bc
000002e0: 631b afbd fd7c 0f3d 0ab1 29bd e990 56bc
000002f0: 4e5f a5bb ff6c cf3d 0a56 bd3d cc1c b5bc
00000300: bf41 7bbd 95fa a63d 7e78 5c3d c70c 05be
00000310: 4e4f 9b3a bba9 d3bd 2094 2bbd 8f02 f1bd
00000320: 3e16 d9bd 4094 aabd 1fd1 9abc b285 6b3d
00000330: e075 e7bd 237e 6abd 2035 f03c 87fe 003d
00000340: 5fa4 3cbc c5ee bdbd 6469 2dbc a31e 323d
00000350: b4bb d4bd 4d84 95bd 5f02 d03c 707d 00bc
00000360: 4ec0 dd3d b870 273d 115e b23d 12f2 b9bd
00000370: 7360 31bd 1244 05bd 910e 93bc b33c 44bc
00000380: 5ed9 4b3d 738f b4bd f912 5abd 11b2 34bd
00000390: 5f80 9cba 11f4 d13c 4237 14bd 9687 9f3d
000003a0: ba5e cfbd b2ce cc3d 935e bf3c 624e 923d
000003b0: 0baf f5bd 551d c33d 4e25 973d f420 a93d
000003c0: 8f02 8a3d 818f 8bbd 0da5 07bd 2524 2f3c
000003d0: 8740 ee3c 5482 fdbd e6ed e0bc a833 bdbd
000003e0: bc0b 91bd a882 39bd a234 dfbc 7beb 883c
000003f0: ca3e 8e3d 2d4b 35bd 58c7 52bc c7bf 143d
0.07893691 0.010092452 -0.07586418 -0.09746516 -0.074810326 0.079922825 -0.06785321 -0.03123195
0.003734707 -0.026532957 0.042995565 -0.08528377 0.09738151 -0.09912245 -0.062085826 -0.09035552
0.06386412 -0.06605519 -0.04150572 0.0629215 -0.013195664 0.1199104 0.03124013 -0.03514004
-0.06590276 -0.13009733 0.047602795 0.025487347 0.11668687 -0.12405926 0.033861328 0.05552569
0.056199808 0.04901091 -0.03308529 -0.10580183 -0.047116905 0.1185429 -0.08649398 -0.08435111
0.11988815 0.0032529612 -0.03776089 0.0173075 0.029843893 -0.0032182403 0.08835486 0.01233862
-0.03820302 -0.083411664 -0.017649684 -0.058488257 0.079911 0.04244604 0.08688541 0.105326295
0.12685159 -0.11586692 -0.04110731 -0.0026401791 0.0650674 -0.0002865559 0.042354938 -0.022928776
-0.11254871 -0.013835129 -0.004476889 -0.07446935 0.12939459 -0.105359815 -0.11512996 -0.07821997
-0.110555634 -0.032510072 -0.06903227 0.09941049 0.070461154 0.05123957 0.09488988 -0.10376001
-0.06844559 0.11387028 0.094276145 0.021216162 0.069670916 0.024468211 -0.0014698938 -0.04471962
0.055082206 -0.100909345 0.12982284 -0.09809344 -0.11424489 0.08332658 -0.07086446 -0.055156976
-0.015842572 -0.13427655 -0.00848439 -0.013418501 -0.028845122 0.0075063077 -0.092336714 -0.006807142
-0.009089532 -0.1068491 -0.098101944 0.096497215 -0.11162824 -0.013313478 -0.061598565 0.12375499
0.09591258 0.059956316 -0.063807525 -0.10678261 -0.027013926 0.062430166 0.016516237 -0.06956455
-0.098932296 0.09056069 0.03839767 0.09092096 -0.1292756 0.017705562 0.13029234 -0.12655066
-0.12397083 -0.14173116 -0.07450925 -0.018945755 0.059115708 -0.047750514 0.086568944 0.09487422
0.07194284 -0.11076969 0.050727475 0.07365264 0.100312434 -0.12160047 -0.032331914 -0.081905685
-0.061960034 0.045766324 -0.0009767587 0.05712587 -0.078522205 -0.04322585 0.05575105 -0.0522489
0.021255003 -0.09562555 0.10681165 0.01637966 0.030380784 -0.00813207 0.028685868 0.12335377
-0.040261474 0.10047796 -0.05991446 0.010402118 -0.08415517 0.03909633 -0.11793101 0.051015045
-0.0606254 0.12727201 0.11830498 0.07933431 -0.10830626 0.054850046 -0.08866254 0.0040493263
-0.059626743 0.05825988 -0.023054346 0.04051537 0.029316919 0.070380904 0.07417575 -0.009266181
-0.085501455 0.035031307 -0.041428603 -0.013096073 -0.0050467616 0.10128211 0.09244926 -0.022108458
-0.061341997 0.081532635 0.053825848 -0.12993155 0.0011849196 -0.10335108 -0.04188931 -0.11768066
-0.105999455 -0.08329058 -0.018898545 0.05750055 -0.1130178 -0.0572492 0.029322207 0.031492736
-0.0115137985 -0.09274057 -0.010584209 0.04348625 -0.10387364 -0.07300625 0.025391756 -0.007842407
0.10827695 0.04087898 0.08709348 -0.090793744 -0.04330487 -0.03253562 -0.017951282 -0.011977362
0.049767844 -0.08816423 -0.05324075 -0.04411513 -0.0011940113 0.025629075 -0.03618551 0.07789533
-0.101254895 0.100003615 0.023360526 0.071438566 -0.119962774 0.09527079 0.07380162 0.082582384
0.06738769 -0.068144806 -0.03311639 0.01068977 0.029083503 -0.12378374 -0.027457189 -0.09238368
-0.07082316 -0.04529062 -0.027246777 0.016713848 0.0694557 -0.044261146 -0.01286491 0.036315706

network.8.bias f4 [64]
00000000: 911b 97ba f0e8 f738 4822 583d 1848 febb
00000010: 9ec9 333a cbda ae3c d64e 6e3c cc37 6cba
00000020: db01 35bd f094 adb9 5818 68bd 4d68 e2bb
00000030: 29cc 5639 ce29 c8b9 1e00 e63a 3681 2a37
00000040: 4575 c139 7b70 84ba 5b20 bfb9 18ca 65bd
00000050: 4659 a239 0469 1d3d afe6 36ba 8b55 df3c
00000060: 6fae 2dbc ffa8 1a3a ce21 46bd 928c 46bd
00000070: a823 febc 12e1 053c 0ee7 6fbc 8739 3fba
00000080: aa28 ca3c 71c6 8bb9 66f3 0ebb abaa 9e3c
00000090: f88d 2037 5394 c0b8 547c 0d3a a9c9 103d
000000a0: 7dc0 c83b 606b eab9 85ce 973b b1ae b4bc
000000b0: 4dd7 0ab9 84ba 20bd 14f0 3cbd 5cb8 193d
000000c0: d573 203c 5d8d 2d3a 1459 43bc 8b6c 1cba
000000d0: 25c1 9c39 4c82 dbb9 0a7b 2c3d a4ef 5a3d
000000e0: e01c 143c b189 46bc 947d c939 a889 71b9
000000f0: 29ed 7abc 88f5 3d3d d1a3 76bc 503e 4c3d
-0.0011528601 0.00011821266 0.05276707 -0.007760059 0.00068583514 0.021344563 0.014545163 -0.0009011
-0.044191223 -0.00033108098 -0.05666384 -0.0069094063 0.00020484686 -0.0003817812 0.0017547642 1.0162874e-05
0.000368992 -0.0010104323 -0.00036454466 -0.056100935 0.00030965562 0.03843023 -0.00069771236 0.02726247
-0.01060067 0.0005899816 -0.048372082 -0.048473902 -0.031022862 0.008171337 -0.01464249 -0.0007294644
0.024677593 -0.00026659996 -0.0021812557 0.01936849 9.569798e-06 -9.182901e-05 0.00053972495 0.035348568
0.006126462 -0.0004471196 0.0046327733 -0.022055956 -0.00013240911 -0.039240375 -0.046127394 0.037529334
0.0097932415 0.0006620491 -0.011923093 -0.0005967102 0.00029898543 -0.00041868014 0.042109527 0.053451195
0.009040087 -0.012117789 0.0003843127 -0.00023034832 -0.015315332 0.046376735 -0.015053705 0.049864113

network.9.weight f4 [64]
00000000: ab90 7f3f 9b26 843f 26cc 843f 9eb0 823f
00000010: 1924 833f ea3b 823f a632 813f bd99 793f
00000020: 674b 7c3f c1e0 7b3f 3117 813f 5cbe 803f
00000030: 8518 823f 76aa 813f c6e2 803f 8016 7e3f
00000040: a720 813f c614 813f b935 7d3f 88a7 7b3f
00000050: 4f4a 823f 6cd0 833f 6c0c 7e3f 9b28 793f
00000060: fda0 833f 6c6c 833f 5e60 793f e5ec 7f3f
00000070: d85d 7a3f 08e5 823f 55e5 7b3f fc84 7b3f
00000080: 5048 7f3f 55d4 7e3f c614 843f 3b23 823f
00000090: d494 823f 3da5 833f dfb1 823f 13a3 833f
000000a0: 4166 7e3f 6e98 7c3f 2aaa 813f 0591 823f
000000b0: bbde 743f 526e 7b3f 7247 833f c025 7b3f
000000c0: 3094 7b3f 08ca 783f 18ae 823f 0f22 843f
000000d0: d91a 7b3f b299 7b3f ac1a 833f 56d4 813f
000000e0: ab6e 7d3f 00ef 823f 9e8b 823f 3da4 823f
000000f0: cf91 7f3f d4f7 783f c2f6 7e3f dacc 823f
0.9983012 1.0324281 1.0374801 1.0210149 1.0245391 1.0174534 1.0093582 0.9750021
0.98552555 0.9838982 1.0085202 1.0058093 1.0163733 1.0130146 1.0069206 0.9925308
1.008809 1.0084465 0.989101 0.9830251 1.0178927 1.029798 0.99237704 0.97327584
1.0283505 1.0267463 0.9741267 0.9997085 0.97799444 1.0226145 0.9839681 0.98249793
0.99719715 0.9954274 1.031884 1.0167001 1.0201669 1.0284802 1.0210532 1.0284141
0.9937478 0.9867009 1.0130055 1.0200506 0.9565236 0.9821521 1.0256178 0.98104477
0.9827299 0.97183275 1.0209379 1.0322894 0.9808784 0.98281395 1.0242515 1.0142925
0.9899699 1.0229187 1.0198858 1.0206372 0.9983186 0.97253156 0.9959527 1.0218766

network.9.bias f4 [64]
00000000: 7636 be3c 888b 1d3d a9a8 1c3d 17be f93c
00000010: 4514 e83c 8a23 e63c ac22 e03c 9349 b4bc
00000020: 77de cabc 8ec4 8abc 2849 e8bb a2ef 993c
00000030: 293f 043d f1b7 cc3c 4531 5b3c 69b0 3abc
00000040: b289 643c 2893 da3c 5ca5 9abc 8621 e3bc
00000050: 906e d43c 786e 1b3d efaf 903c 1746 cfbc
00000060: 5cf1 0b3d 77a6 0e3d 5a3d c9bc 23be c03c
00000070: 1abd b5bc 0c8b 9b3c b0bd c2bc c2da b2bc
00000080: 266e e8bb 98cb 833c db2e 0d3d 5ef8 da3c
00000090: 9824 e63c 12ab 0b3d c192 0f3d 9499 f73c
000000a0: 4b75 93bc 9bb3 85bc a3c9 ad3c b01a ea3c
000000b0: 7092 84bb 6d69 2c3c 2cb0 023d b287 87bc
000000c0: a71d 503c 9a10 acbc cb93 f03c efe1 103d
000000d0: a9c4 b9bc 7839 a2bc 6f9c 083d b954 b03c
000000e0: 30ff f0bb 3d60 003d 7c51 e93c 85ee c63c
000000f0: 503a 11bc ee5f bebc 1c38 84bc 9d38 f83c
0.023219328 0.038463145 0.038246784 0.03048615 0.028329978 0.028093118 0.027360283 -0.02200774
-0.024764283 -0.016939428 -0.007088799 0.018791024 0.032286797 0.024990054 0.013378446 -0.0113945985
0.013948845 0.026681498 -0.018877678 -0.027725946 0.025931627 0.037947148 0.017662017 -0.025301976
0.034165725 0.034826722 -0.024565388 0.023528164 -0.022184897 0.018987201 -0.02377209 -0.021832827
-0.007093209 0.016088292 0.034468513 0.026729759 0.028093621 0.034098692 0.035052065 0.030224599
-0.018000266 -0.016320994 0.021214312 0.028577179 -0.004045777 0.010523182 0.03190629 -0.016544197
0.012702382 -0.02100401 0.029367348 0.035371717 -0.022676783 -0.019802794 0.03335231 0.021524774
-0.0073546395 0.03134178 0.028481238 0.024283657 -0.008864 -0.023239102 -0.016140036 0.030300433

network.9.running_mean f4 [64]
00000000: c182 cdbc 993f a5be 42ea 0e3e f95b bcbe
00000010: 1ffb 283e 1276 5e3b 5138 83bd 3989 bbba
00000020: 6d3a 8fbe 7703 bdbe 367d b13e 7750 123e
00000030: 668e b0be 4e41 f2bd a12c 05bd 7263 b83c
00000040: 130e da3d 1a41 f2be f7fc 913e e920 7b3e
00000050: b279 9b3c 7562 c3bd de83 bb3d 367d ac3d
00000060: e09f 00bf 9eef a23c adcc c1be 5f84 353e
00000070: 5f31 62be aba7 b6be 42af ea3d 44af 393e
00000080: 50c7 473e 8b3b 1f3c 5591 a83e d807 113e
00000090: e64e 1fbc a255 9a3d db0b ef3d eaa5 3e3d
000000a0: e095 a3bb 5f35 d93d 8462 053e 8246 9bbd
000000b0: e607 06bf 0bcd 3dbe 241a 30bd 63d8 94bc
000000c0: 84f5 cfbe 0003 2f3e ad95 2bbd 94c3 df3a
000000d0: ab3e 9f3d f9f3 353d 11e1 c5be b189 363e
000000e0: 69b7 9e3e f9bd 8fbd e0c8 cdbe a927 ac3e
000000f0: 5668 173e 468b 62be 4d67 b7bd 119c b4be
-0.025086762 -0.32275084 0.1395655 -0.3678892 0.16502045 0.0033944887 -0.06407226 -0.0014307863
-0.27974263 -0.36916706 0.3466584 0.14288507 -0.3448364 -0.11828862 -0.032513265 0.022508357
0.10647216 -0.47315294 0.2851331 0.24524273 0.018978927 -0.095402636 0.09156011 0.084223196
-0.5024395 0.019889649 -0.37851468 0.17726277 -0.22089146 -0.35674796 0.11459209 0.18133265
0.19509625 0.009718786 0.3292338 0.14163148 -0.009723401 0.075358644 0.11672183 0.046544947
-0.0049922317 0.10605883 0.13025862 -0.07581808 -0.523558 -0.18535249 -0.04299368 -0.018169587
-0.40617 0.17090988 -0.04189079 0.0017071837 0.07775625 0.044422124 -0.38648275 0.17825963
0.30999306 -0.07018656 -0.40192318 0.33624008 0.14785895 -0.22123441 -0.0895525 -0.3527532

network.9.running_var f4 [64]
00000000: c42d 0f3e f928 773e 501f 4b3e 064d 193e
00000010: 66bc 243e 0310 143e 9bf3 273e ae81 fa3d
00000020: 0687 2e3e 74f7 4d3e 80c2 543e c9b5 593e
00000030: 4a5d 373e 3d4b 0e3e 14db 923e 44a6 733e
00000040: f47c 743e aaa7 4b3e b503 853e e2b1 323e
00000050: c160 fb3d 0edb 233e 698a 1a3e e13c 5d3e
00000060: f259 0e3e fc90 573e 6a9a 4c3e 6524 333e
00000070: 5822 363e 4609 443e b52d 953e f43d 2d3e
00000080: 2f1e 653e 63b8 3c3e 89f8 803e 809e 073e
00000090: 5c06 453e 0483 0d3e c164 9b3e 090a 8c3e
000000a0: 5d1c 483e 27e6 483e c4cb 793e 89bc 603e
000000b0: 1b33 4f3e 53e8 583e baad 083e e954 0f3e
000000c0: d5e9 4d3e d678 013e 7b10 513e 8550 373e
000000d0: 933b 563e 0d5f 3c3e 3d2d 503e e59d 633e
000000e0: c4b1 1b3e ea20 5c3e c6fd 523e 5413 313e
000000f0: 2ce6 4b3e ff72 243e 2017 3a3e 5e87 0f3e
0.13982302 0.24136724 0.19836164 0.14970788 0.16087493 0.14459233 0.16401522 0.12231766
0.17043695 0.20113927 0.20777321 0.21260752 0.1790668 0.13895889 0.28682768 0.23793894
0.23875791 0.19888178 0.2597939 0.1745067 0.12274314 0.16001531 0.15091862 0.21605255
0.13901499 0.21051401 0.1998078 0.17494352 0.17786539 0.19144163 0.29136434 0.16918164
0.22374795 0.18429713 0.25189617 0.13244057 0.19240707 0.1381951 0.30350307 0.27351406
0.1954207 0.19619046 0.24394137 0.2194692 0.20234339 0.21182375 0.13347521 0.13997234
0.20108731 0.12643752 0.20416443 0.1790181 0.20921163 0.18395634 0.20329757 0.222282
0.15204531 0.2149693 0.2060462 0.1729253 0.19912022 0.16059493 0.18172884 0.14016482
