python/credit_scoring/models/genia_services_mlp_credit_scoring_model_v1.1.0_20250824.pt (torch, 77454 bytes, 19 tensors)

network.0.weight f4 [128, 26]
0	0x3e10a0a9	0.14123787
1	0x3e2e3bd6	0.17015013
2	0xbd0bbb1f	-0.034114
3	0x3e3e7f19	0.18603171
4	0xbd034fe7	-0.032058623
5	0x3ceadbed	0.028669322
6	0xbdbd8d79	-0.092554994
7	0x3de083ae	0.10962616
8	0x3e34328a	0.17597404
9	0xbe1eadf0	-0.1549604
10	0x3e311ec3	0.17296891
11	0x3cf63bcf	0.030057816
12	0x3e23a400	0.1598053
13	0x3d021ff4	0.031768754
14	0x3db55190	0.088534474
15	0xbd0dbc55	-0.034603436
16	0x3e175092	0.14776829
17	0x3d31d3fa	0.043415047
18	0xbda69157	-0.0813319
19	0x3d920b4d	0.07131062
20	0xbdc6b34e	-0.097021684
21	0xbca8f884	-0.020626314
22	0xbda601b7	-0.08105796
23	0x3de34391	0.11096872
24	0xbe29cdb6	-0.16582379
25	0xbdbc9742	-0.09208538
26	0xbd03a802	-0.032142647
27	0xbdf5a7e5	-0.11994914
28	0x3bd74555	0.0065695443
29	0xbe5a4895	-0.2131675
30	0x3e286e5d	0.1644835
31	0xbe1dae86	-0.15398607
32	0x3e1f369e	0.15548179
33	0x3cd06ed1	0.025443466
34	0xbd69eb15	-0.057108957
35	0x3dff7534	0.124735266
36	0x3ca739f8	0.020413384
37	0x3e27cbe6	0.16386375
38	0x3b58a0c3	0.0033054806
39	0xbd6e971e	-0.058249585
40	0x3d8cdd78	0.06878179
41	0xbd939bd9	-0.0720746
42	0x3de20045	0.11035208
43	0x3e28857e	0.16457173
44	0x3de01c20	0.109428644
45	0xbd842e3c	-0.06454131
46	0x3ddf1976	0.10893528
47	0x3d078a9e	0.03309118
48	0x3dcac25c	0.09900352
49	0xbdfd23e3	-0.123603605
50	0xbe4393b8	-0.19099319
51	0xbda9d285	-0.082921065
52	0xbe1f7dcf	-0.15575336
53	0x3e235f29	0.1595427
54	0x3ce9cc0a	0.028539676
55	0x3d665529	0.05623356
56	0x3d91168d	0.07084379
57	0xbc4a1f44	-0.012336556
58	0x3e0f0220	0.13965654
59	0xbe0cc96d	-0.13748713
60	0x3c94e2d2	0.018174563
61	0xbe11525b	-0.14191572
62	0x3d7a84c9	0.06116179
63	0xbd8a039e	-0.06738971
64	0x3d97041d	0.073738314
65	0xbd286e89	-0.04112104
66	0x3e302f19	0.17205466
67	0xbdf08aaa	-0.11745198
68	0xbdf5e28c	-0.12006101
69	0xbdf13616	-0.11777894
70	0x3e435d95	0.19078667
71	0x3d7953fd	0.060871113
72	0x3e41b1c8	0.18915474
73	0xbe3491e2	-0.17633775
74	0xbe4247e0	-0.1897273
75	0xbe1ca64e	-0.15297815
76	0xbdf4b8e4	-0.119493276
77	0x3da8b899	0.08238334
78	0x3dab3a7f	0.083607666
79	0x3e2ec61b	0.17067759
80	0xbdd98a74	-0.10622111
81	0xbe13e9d2	-0.14444664
82	0x3dcea1d2	0.100894585
83	0xbd9bf1a0	-0.07614446
84	0x3dd97cfc	0.10619542
85	0xbd0e8223	-0.034792077
86	0x3dda5baa	0.10662015
87	0xbe1640c2	-0.1467314
88	0xbdea053b	-0.11426779
89	0x3d7cfbbe	0.061763518
90	0x3d387dcc	0.045041844
91	0xbd3e7321	-0.046496514
92	0x3de8b8d8	0.11363381
93	0x3deb4ab6	0.11488859
94	0xbe0be323	-0.13660865
95	0xbda1b5c6	-0.07895999
96	0x3e3e2aee	0.18571064
97	0xbd86829e	-0.06567882
98	0xbd9dcbe1	-0.077049024
99	0xbe311af5	-0.1729544
100	0xbdf3288e	-0.118729696
101	0x3d615b98	0.05501899
102	0xbd0834b6	-0.033253394
103	0xbe119ff3	-0.14221172
104	0x3b852dca	0.0040642964
105	0xbe04e07c	-0.12976259
106	0xbe4bddd6	-0.19908842
107	0xbdb7b117	-0.08969324
108	0xbe22710c	-0.15863436
109	0xbe0cb9ed	-0.137428
110	0x3e4cc253	0.19996004
111	0x3d2bbb75	0.04192682
112	0x3d543071	0.05180401
113	0xbe3bdc96	-0.18345866
114	0xbddd1b01	-0.10796166
115	0xbd868272	-0.06567849
116	0x3cd0b738	0.02547799
117	0xbe3f460a	-0.18679062
118	0xbd916613	-0.07099547
119	0xbdd5d748	-0.10441452
120	0xbbbf6ecc	-0.0058420654
121	0xbdc34725	-0.09535054
122	0xbce3497d	-0.027745003
123	0xbdcbd6ab	-0.09953054
124	0xbe081781	-0.13290216
125	0xbdcd839b	-0.100348674
126	0xbd9d6e40	-0.07687044
127	0xbe2e4c39	-0.17021264
128	0x3e17f5ca	0.14839855
129	0xbd469e7b	-0.048490983
130	0x3e2b1f9c	0.16711277
131	0x3d64a5af	0.05582207
132	0xbe1b7c60	-0.15184164
133	0x3e18b020	0.14910936
134	0xbd7b1674	-0.06130071
135	0xbd8a66e1	-0.06757904
136	0xbe1bb22c	-0.15204686
137	0xbe4f5745	-0.20248134
138	0x3d69b15c	0.05705391
139	0xbd5998c7	-0.053124215
140	0x3d8f0a0b	0.069843374
141	0xbe230bad	-0.15922423
142	0x3e1418dc	0.14462608
143	0xbdfe4b77	-0.124167375
144	0xbd2dda79	-0.04244468
145	0x3d44fd17	0.048092928
146	0x3dcf90ad	0.101350166
147	0x3e23acc5	0.15983875
148	0x3e432d53	0.19060259
149	0xbe21487d	-0.15750308
150	0x3d376579	0.044774506
151	0xbda48199	-0.08032531
152	0xbd01797f	-0.03161001
153	0xbe10930b	-0.14118592
154	0x3e3b2bd3	0.18278436
155	0xbe14154b	-0.14461248
156	0x3dd2ea8c	0.102986425
157	0x3d76b2ac	0.06022899
158	0x3d9b68f8	0.075883806
159	0xbdde4178	-0.10852331
160	0x3e37612f	0.17908166
161	0x3d2c4ff4	0.042068437
162	0x3cce4284	0.025178201
163	0xbe1d85eb	-0.15383117
164	0x3d814c1e	0.06313346
165	0xbca95e45	-0.020674834
166	0xbd972b09	-0.07381255
167	0x3e292291	0.16517092
168	0x3cc8de3b	0.02452003
169	0xbdefcb2e	-0.11708675
170	0xbdc06030	-0.09393346
171	0x3c221d25	0.009894644
172	0x3dc0f9a2	0.09422614
173	0xbd84955e	-0.06473802
174	0xbdbf1101	-0.09329415
175	0xbd96cf83	-0.073637985
176	0xbe152604	-0.14565283
177	0x3d9a2e52	0.07528366
178	0x3e23db44	0.16001612
179	0xbe4e8454	-0.20167667
180	0x3d1fdc8e	0.039028697
181	0x3dc0051f	0.09375977
182	0x3d10706b	0.03526346
183	0xbd982b62	-0.074301496
184	0x3dc5f1f9	0.09665293
185	0x3dd0125a	0.1015975
186	0x3d69755a	0.05699668
187	0xbc94badf	-0.018155513
188	0xbda36432	-0.07978095
189	0x3d5e362b	0.054250877
190	0xbd521337	-0.051287856
191	0xbd8c5b42	-0.068533435
192	0x3e015a30	0.1263206
193	0x3e2f4ca1	0.17119075
194	0x3c43bfbf	0.011947571
195	0xbd23aa6a	-0.03995744
196	0xbc946e6e	-0.018119063
197	0xbcec3019	-0.028831528
198	0x3d7b0ec6	0.061293386
199	0x3da05911	0.07829488
200	0xbe38da1d	-0.18051954
201	0xbd718a28	-0.058969647
202	0x3e20d12e	0.15704796
203	0x3d7e689f	0.062111493
204	0xbc3600b9	-0.011108571
205	0xbdd917fe	-0.10600279
206	0xbdf78756	-0.1208636
207	0xbe23458e	-0.15944502
208	0xbd720003	-0.059082042
209	0x3d9ad9e5	0.07561091
210	0x3dc4700a	0.09591682
211	0x3d84d6e1	0.064862974
212	0xbe29db36	-0.16587529
213	0xbdff3a34	-0.12462273
214	0xbd087056	-0.033310257
215	0x3e49564c	0.19661826
216	0x3cbeb5f9	0.02328013
217	0xbd92f5d2	-0.07175793
218	0x3dde04a1	0.10840727
219	0xbd71c28e	-0.059023432
220	0xbdd27772	-0.10276689
221	0x3e01e09f	0.12683342
222	0xbded6d9d	-0.11593173
223	0xbd88520d	-0.06656275
224	0xbe3d8ac4	-0.18509966
225	0x3e306331	0.17225339
226	0x3e0b978b	0.13632028
227	0x3d83573f	0.06413125
228	0xbe1049d1	-0.14090659
229	0xbe4227af	-0.1896045
230	0xbe1c6930	-0.15274501
231	0x3e1f3476	0.15547356
232	0x3ddebfb3	0.108764075
233	0x3e26cdfd	0.16289516
234	0x3ddaacd1	0.10677493
235	0x3d269b02	0.04067517
236	0x3b41be37	0.002956284
237	0xbe2ccbec	-0.16874665
238	0xbe3c61f4	-0.18396741
239	0xbe2b25a2	-0.16713575
240	0x3d909c9f	0.07061123
241	0xbda98b2b	-0.08278497
242	0xbd3c4511	-0.045964304
243	0xbdea2d3a	-0.114344075
244	0xbd034f60	-0.03205812
245	0xbe012a69	-0.12613834
246	0xbe0f5c22	-0.1399999
247	0x3d8e95a8	0.069621384
248	0xbd852de6	-0.06502895
249	0x3de952a5	0.11392716
250	0xbd7469ac	-0.05967109
251	0xbdfdd977	-0.12394994
252	0xbd1feb0e	-0.039042525
253	0xbdac76b4	-0.08421078
254	0xbd836f34	-0.06417695
255	0xbe430438	-0.19044578

network.0.bias f4 [128]
0	0x3dfc4ab6	0.123189375
1	0xbde0801b	-0.10961934
2	0x3de6c576	0.112681314
3	0xbdaf7cba	-0.085687116
4	0xb9fb1254	-0.00047888106
5	0xbca1bf91	-0.019744666
6	0xbd250459	-0.04028735
7	0x3c44403a	0.011978203
8	0x3d44bbfa	0.04803083
9	0xbd7d783f	-0.061882254
10	0xbcea4399	-0.028596686
11	0x3d13a040	0.0360415
12	0xb9df1d91	-0.00042555903
13	0x3a0b8dae	0.0005323541
14	0x3d1c4ae5	0.038157362
15	0xbc63d16d	-0.0139049115
16	0xbd330907	-0.04370978
17	0x3c604f2a	0.013690749
18	0xbc5c00ee	-0.013427956
19	0xbd81fdba	-0.063472226
20	0xbd0f74e5	-0.03502359
21	0xbce93657	-0.028468294
22	0x3e004130	0.12524867
23	0xba85200e	-0.0010156648
24	0x3cbc49f3	0.02298448
25	0x39431f76	0.0001860837
26	0xbd85299e	-0.065020785
27	0x3d970030	0.07373083
28	0x39d97789	0.00041478526
29	0xbacaef22	-0.0015482644
30	0x3dba8734	0.09107819
31	0xbd12eb4a	-0.03586892
32	0xba774eab	-0.00094340247
33	0xbdc842d4	-0.097783715
34	0x3d1502f5	0.036379773
35	0x3c92755e	0.01787823
36	0xbdbd5865	-0.092453755
37	0x3d354cad	0.044262577
38	0x39e435bb	0.0004352758
39	0xbd17c18c	-0.037049815
40	0x3dc902ad	0.098149635
41	0x3cbabbf6	0.022794705
42	0x3c3b3593	0.011426347
43	0xbc67ec76	-0.014155498
44	0xbd2e4aef	-0.04255193
45	0xbd27054c	-0.040776536
46	0x3c71d00d	0.014759076
47	0x3b1ad5d0	0.0023625977
48	0xbd527627	-0.05138221
49	0x3ddf28df	0.108964674
50	0x3d46eca0	0.048565507
51	0xbc80068b	-0.01562812
52	0x3d187803	0.037223827
53	0xbcb3a149	-0.021927493
54	0x3bde0273	0.0067751943
55	0x3dc13340	0.09433603
56	0xbdd5521e	-0.10416053
57	0xbd0a7aff	-0.033808704
58	0xb8d7360a	-0.000102620645
59	0xb9719374	-0.00023038482
60	0xbdbd6009	-0.09246833
61	0xbd7e3797	-0.062064733
62	0xb931981c	-0.000169367
63	0x38a5ae9b	7.900336e-05
64	0xba338047	-0.0006847423
65	0x39b5ba35	0.00034661745
66	0xba6f8e4b	-0.000913833
67	0xb928a227	-0.00016082135
68	0x39eed1b3	0.00045551136
69	0xb89ab09d	-7.376189e-05
70	0x3c4c2678	0.012460344
71	0x3d88499c	0.06654665
72	0xbd0bc082	-0.034119137
73	0xbd18ef51	-0.037337605
74	0x3cc6e9bd	0.024281377
75	0xbd9790a1	-0.07400633
76	0x3d783e10	0.060606062
77	0x3ce53a8d	0.02798202
78	0xb8c3dd97	-9.339599e-05
79	0xbcc0bc0a	-0.023527164
80	0x3888a5fd	6.515903e-05
81	0xbdb13942	-0.08653499
82	0xbddb2eac	-0.10702261
83	0x3deb7aa1	0.11497999
84	0xbdda1cf7	-0.10650056
85	0xbdc035ce	-0.093852624
86	0xbc87e5e1	-0.016589107
87	0x38ed9be5	0.00011330078
88	0xb95b5e11	-0.0002092051
89	0xbd07707b	-0.033066254
90	0xb95877dd	-0.00020644018
91	0x39e37c8e	0.00043389614
92	0x3dc2e337	0.09515994
93	0x3dceeb24	0.10103443
94	0x3ca36b13	0.019948518
95	0xb8269b87	-3.972233e-05
96	0x3da1b71a	0.07896252
97	0xbdb7a09b	-0.0896618
98	0x3cabf1c0	0.020989299
99	0xbd45ee5a	-0.048323013
100	0x3dad1b5e	0.084524855
101	0xbdd51c7d	-0.10405824
102	0x3c6838cf	0.0141737005
103	0xbdbd4d4b	-0.09243258
104	0x3d47abc6	0.0487478
105	0xba811d95	-0.0009850735
106	0x3dcb1810	0.09916699
107	0xbda3578d	-0.07975683
108	0x3d739cde	0.059475772
109	0xbd82a1e7	-0.06378537
110	0xbd283aaf	-0.04107159
111	0x3c7ca30d	0.015419734
112	0x3a44920d	0.000749857
113	0xbdb0cbf6	-0.086326525
114	0xbdc858f5	-0.09782592
115	0xbad1c794	-0.0016004913
116	0x3b451249	0.0030070713
117	0x3dd2ef79	0.10299582
118	0x3d9c39ef	0.076282375
119	0x3855702a	5.088762e-05
120	0xbd5d580c	-0.054039046
121	0xbdd80970	-0.10548675
122	0x3dd8c020	0.1058352
123	0xbd34e00e	-0.044158988
124	0x3a6a33d4	0.00089341146
125	0xbdb77302	-0.08957483
126	0xbd8b8cdf	-0.068139784
127	0xba85954f	-0.0010191592

network.1.weight f4 [128]
0	0x3f803178	1.0015097
1	0x3f7a931d	0.9788073
2	0x3f8099fc	1.0046992
3	0x3f7e81c3	0.9941675
4	0x3f7a5ced	0.97798043
5	0x3f7f8bff	0.9982299
6	0x3f8139c3	1.0095752
7	0x3f7d0af2	0.98844826
8	0x3f831ca1	1.0243112
9	0x3f7e1723	0.99254054
10	0x3f801931	1.0007688
11	0x3f7b753c	0.9822576
12	0x3f810f61	1.0082818
13	0x3f76d254	0.96414685
14	0x3f7d0446	0.98834646
15	0x3f7c9e77	0.986793
16	0x3f7f8696	0.99814737
17	0x3f7c14ca	0.9846922
18	0x3f7b66a7	0.9820351
19	0x3f80e6e6	1.0070465
20	0x3f7797b8	0.9671588
21	0x3f7de387	0.99175304
22	0x3f7ccec0	0.98752975
23	0x3f7dec01	0.9918824
24	0x3f81b728	1.013402
25	0x3f813dd7	1.0096997
26	0x3f813665	1.0094725
27	0x3f804046	1.0019615
28	0x3f7fe0a1	0.9995213
29	0x3f800002	1.0000002
30	0x3f7cfb24	0.9882071
31	0x3f825e97	1.0185117
32	0x3f7de353	0.99174994
33	0x3f7fd70f	0.9993753
34	0x3f7aafaa	0.9792429
35	0x3f7b168f	0.98081297
36	0x3f7fdd49	0.9994703
37	0x3f822825	1.0168501
38	0x3f7d616e	0.9897679
39	0x3f7c26aa	0.98496497
40	0x3f7f8a74	0.9982064
41	0x3f7c1ff6	0.9848627
42	0x3f7dfa06	0.9920963
43	0x3f8243ba	1.0176919
44	0x3f7ca2fb	0.9868619
45	0x3f822c60	1.0169792
46	0x3f7db852	0.99109375
47	0x3f812f0c	1.0092483
48	0x3f7e4a77	0.99332374
49	0x3f8165bd	1.0109173
50	0x3f7e2a0c	0.9928291
51	0x3f7e8969	0.9942842
52	0x3f7e8b4d	0.99431306
53	0x3f811a62	1.0086176
54	0x3f7f5a65	0.99747306
55	0x3f7e1914	0.99257016
56	0x3f816417	1.010867
57	0x3f7bd31f	0.9836902
58	0x3f814b03	1.0101017
59	0x3f80c1c2	1.005913
60	0x3f7e0bd1	0.9923678
61	0x3f807921	1.0036966
62	0x3f7cbdc1	0.9872704
63	0x3f7c42d4	0.9853947
64	0x3f800228	1.0000658
65	0x3f7a021f	0.97659487
66	0x3f7ec06b	0.99512357
67	0x3f7ea0c6	0.9946407
68	0x3f7eca24	0.9952719
69	0x3f7b7a58	0.98233557
70	0x3f7e4970	0.99330807
71	0x3f7e1af2	0.99259865
72	0x3f80c133	1.005896
73	0x3f7ccc44	0.98749185
74	0x3f8198fb	1.0124811
75	0x3f7c10ba	0.9846302
76	0x3f80262d	1.001165
77	0x3f7c6154	0.9858601
78	0x3f7da07b	0.99073
79	0x3f7dc43e	0.99127567
80	0x3f7f837f	0.9981002
81	0x3f7f403b	0.9970738
82	0x3f8016cb	1.0006956
83	0x3f7e7590	0.99398136
84	0x3f820365	1.0157286
85	0x3f814214	1.009829
86	0x3f8072b5	1.0035006
87	0x3f7dec1e	0.9918841
88	0x3f7f34aa	0.99689734
89	0x3f8089a2	1.0042002
90	0x3f820f65	1.0160948
91	0x3f80678d	1.0031601
92	0x3f7abf80	0.97948456
93	0x3f8096d4	1.0046029
94	0x3f7cb2f8	0.98710585
95	0x3f802e14	1.0014062
96	0x3f7c912b	0.9865901
97	0x3f7e2e13	0.99289054
98	0x3f81d126	1.0141952
99	0x3f7c85f9	0.98641926
100	0x3f80edcc	1.007257
101	0x3f7b5c82	0.9818803
102	0x3f7f9ddd	0.99850255
103	0x3f80c6bb	1.0060648
104	0x3f7fa2aa	0.9985758
105	0x3f815ac7	1.0105828
106	0x3f7e0f51	0.9924212
107	0x3f81554f	1.0104159
108	0x3f7be38c	0.98394084
109	0x3f80221a	1.0010407
110	0x3f7e6712	0.9937602
111	0x3f7ebe52	0.99509156
112	0x3f7a24e5	0.97712547
113	0x3f81a0c8	1.0127192
114	0x3f7fc120	0.9990406
115	0x3f7eaa21	0.99478346
116	0x3f81bc61	1.0135614
117	0x3f816771	1.0109693
118	0x3f81179a	1.0085328
119	0x3f7fbd8c	0.998986
120	0x3f80806e	1.0039194
121	0x3f80f367	1.007428
122	0x3f7e88d0	0.9942751
123	0x3f81e79c	1.0148807
124	0x3f7d68a3	0.9898779
125	0x3f80ae70	1.0053234
126	0x3f7d92e4	0.9905226
127	0x3f7fe7e9	0.9996324

network.1.bias f4 [128]
0	0xbc869f91	-0.016433509
1	0xbd00e100	-0.031464577
2	0xbb765fc3	-0.00375937
3	0xbb01d537	-0.0019810924
4	0xbc2efe4a	-0.010680744
5	0x3aa3ecb1	0.0012506453
6	0x3bb5a9c8	0.005543921
7	0xbc7c8917	-0.015413544
8	0x3c9d1ce6	0.019178819
9	0x3a85a483	0.0010196123
10	0x3b83ce3f	0.004022389
11	0xbc9cc337	-0.019136054
12	0x3c7e924f	0.015537812
13	0xbc780ec7	-0.015140242
14	0xbb26f19e	-0.0025473605
15	0x3b861153	0.0040914207
16	0xbb27c909	-0.0025602004
17	0xbbb5a130	-0.0055428967
18	0xbc284546	-0.010270422
19	0x3c036e50	0.008021906
20	0xbc99b8b1	-0.018764826
21	0xbc433b2b	-0.011915962
22	0xba7915b9	-0.0009501833
23	0xbcaf3bf9	-0.021390902
24	0x3c48afba	0.012248928
25	0x3af3b0ee	0.0018592158
26	0x3c4d5a6b	0.012533764
27	0x3b5372b8	0.0032264423
28	0x3afd7e95	0.0019340093
29	0x3aad6c7c	0.0013231183
30	0xbc329a8c	-0.010901105
31	0x3c3f5e75	0.011680235
32	0x3adcdbef	0.0016850213
33	0x3be5be1a	0.0070111873
34	0xbc8a9c62	-0.016920272
35	0xbc8da8df	-0.017292438
36	0x3b6c69d1	0.0036073814
37	0x3c2f990d	0.0107176425
38	0xbbb385bb	-0.0054785884
39	0xbbc7834c	-0.00608865
40	0xbb04e85e	-0.0020280103
41	0xbc8669d6	-0.016407888
42	0x3c0faf81	0.008769871
43	0x3c06664b	0.0082030995
44	0xbb3d6415	-0.0028898765
45	0x3c7e1f0d	0.015510333
46	0x3b8e86e6	0.0043495772
47	0x3baf707b	0.005353985
48	0x3acde80e	0.0015709416
49	0xbc3eab72	-0.011637555
50	0xbc4ec7c2	-0.012620868
51	0xbb1a5ba6	-0.0023553162
52	0xbc55ae29	-0.013042011
53	0x3c9fbd0b	0.019499322
54	0xbb9356e0	-0.0044964403
55	0xbc3818be	-0.011236368
56	0x3c896113	0.016769921
57	0xbc1bb4f0	-0.009503588
58	0x3c3bede7	0.011470295
59	0x3b7f8e09	0.0038994572
60	0xbc7b8de1	-0.015353651
61	0xbb95ba50	-0.0045693293
62	0xbc27b1ec	-0.010235291
63	0xbb7f4028	-0.0038948152
64	0xbc9bfbf4	-0.019041039
65	0xbc44c436	-0.012009671
66	0x3c028cf7	0.007968179
67	0x3baeaed2	0.005330899
68	0xbbb3aab8	-0.0054829977
69	0xbc20338b	-0.009777914
70	0xbbe93696	-0.007117103
71	0xbc02232e	-0.007942958
72	0x3bac7fac	0.005264243
73	0xbc57ae24	-0.013164077
74	0x3bc37c8e	0.005965776
75	0xbbbbbcf6	-0.005729313
76	0xbbbd8819	-0.0057840464
77	0xbc71c501	-0.014756442
78	0x3c8692f8	0.016427502
79	0x3b414a61	0.0029493796
80	0xbb43f899	-0.0029902814
81	0xbbf19a1d	-0.007373108
82	0x3c9fbab0	0.0194982
83	0xbc0a63d5	-0.008446653
84	0x3c5adc4f	0.01335819
85	0x3cb3d086	0.021950018
86	0x3bbdb22a	0.005789061
87	0xbc4bc1c0	-0.01243633
88	0xbb61b8e6	-0.0034442483
89	0x3c214c1f	0.009844809
90	0x3c726cd0	0.014796451
91	0xbc0c2f93	-0.008556264
92	0xbb04c947	-0.0020261572
93	0x3c12152e	0.008916182
94	0xbbcb6222	-0.0062067667
95	0x3bd5cf88	0.006524984
96	0x3bd36172	0.0064508254
97	0x3b67b553	0.003535588
98	0x3c591574	0.013249744
99	0xbc6df309	-0.014523276
100	0xbaa9ecb7	-0.0012964223
101	0xbc9a4f26	-0.018836569
102	0xbb174361	-0.0023080932
103	0x3a602888	0.00085509615
104	0x3c1bd1e2	0.009510489
105	0x3c26674d	0.010156465
106	0xbb976486	-0.0046201376
107	0x3c326473	0.010888207
108	0x3ab86b87	0.0014070132
109	0xbb33732e	-0.0027381885
110	0xbbf2f076	-0.007413919
111	0xb98771e8	-0.00025834073
112	0xbca027fb	-0.019550314
113	0x3c80e41e	0.015733775
114	0x3b820264	0.00396757
115	0xbc2ac94c	-0.0104239695
116	0x3c7b201f	0.0153274825
117	0x3ac21fe8	0.0014810534
118	0x3ba18610	0.0049293116
119	0x3c87d983	0.01658321
120	0x3c15dc62	0.009146782
121	0x3ccc6c7b	0.024954071
122	0x3b01c82c	0.001980315
123	0x3c9c0f39	0.019050227
124	0xbb59376c	-0.0033144606
125	0x3a35ff3a	0.0006942634
126	0x3bd95733	0.0066327094
127	0x3c68cb77	0.014208666

network.1.running_mean f4 [128]
0	0x3e805bc9	0.25070027
1	0xbcb94182	-0.022614244
2	0xbdd4bb88	-0.10387331
3	0xbe57aafd	-0.2106132
4	0xbee10b3f	-0.43953893
5	0xbe9c582f	-0.3053603
6	0xbe455b8e	-0.19273207
7	0xbcf20c46	-0.029546868
8	0x3dcef834	0.10105935
9	0xbef72790	-0.4827237
10	0xbcd59796	-0.026073258
11	0xbe815249	-0.2525809
12	0x3d2cbc13	0.04217155
13	0xbe5db993	-0.21652822
14	0x3cba1dc8	0.022719279
15	0xbe2029eb	-0.1564099
16	0x3dc28247	0.09497505
17	0xbe2fa5b3	-0.17153053
18	0xbd9bc6ba	-0.076062635
19	0xbe93d45f	-0.28872964
20	0x3da8c0b1	0.08239878
21	0xbdb4b3fd	-0.088233925
22	0x3cfe7667	0.031062318
23	0xbea0e533	-0.31424865
24	0xbdd0b310	-0.101904035
25	0x3e1c760c	0.15279406
26	0x3e9e4b42	0.30916792
27	0x3e8281c5	0.2548963
28	0x3db6daa4	0.08928421
29	0xbde183d0	-0.11011469
30	0x3d9d7a18	0.07689303
31	0x3d64d088	0.055862933
32	0xbe4c0486	-0.199236
33	0x3e04e112	0.12976483
34	0xbc8ba66f	-0.017047135
35	0x3d4845df	0.04889476
36	0xbe9051b9	-0.2818735
37	0x3df63deb	0.12023529
38	0xbea351dc	-0.3189839
39	0xbe629159	-0.22125758
40	0x3da1ec35	0.07906381
41	0x3dd89877	0.10575955
42	0x3e84d959	0.25947073
43	0xbd881825	-0.0664523
44	0x3e852336	0.26003426
45	0x3e1cf9a6	0.15329608
46	0x3e20eda1	0.15715648
47	0x3e665770	0.22494292
48	0x3e379d01	0.17930986
49	0x3d437d18	0.04772672
50	0x3d67c193	0.05658109
51	0x3d0428bf	0.03226542
52	0x3dd67e0b	0.104732595
53	0xbde76560	-0.112986326
54	0xbd2c7523	-0.042103898
55	0x3dda352f	0.10654675
56	0xbe048f37	-0.12945257
57	0x3da2a732	0.07942046
58	0x3edf1e45	0.4357778
59	0x3db78d9b	0.08962556
60	0xbdf5be4b	-0.11999186
61	0xbdfc4a66	-0.12318878
62	0xbe26cdaa	-0.16289392
63	0xbe9c68d5	-0.3054873
64	0x3dc9fc18	0.09862536
65	0x3c74467f	0.014909386
66	0x3c995f81	0.018722298
67	0x3eaf1636	0.34196633
68	0xbe44c11f	-0.19214295
69	0xbdf37447	-0.118874125
70	0x39c95e18	0.00038407813
71	0x3ed09a53	0.4074274
72	0xbe0d9ff9	-0.13830556
73	0xbdebabba	-0.115073636
74	0x3da003e3	0.07813241
75	0xbd82518a	-0.063632086
76	0x3d8b9c69	0.06816942
77	0xbd7c8b72	-0.061656423
78	0xbe8b12c8	-0.27162766
79	0xbddcd28c	-0.10782346
80	0xbde26fbd	-0.11056469
81	0x3e73ce73	0.23809223
82	0xbe708f62	-0.23492196
83	0x3dc4526e	0.09586035
84	0xbeb5e87d	-0.35528937
85	0xbe686da8	-0.2269808
86	0xbedfc630	-0.43705893
87	0xbe243395	-0.16035302
88	0xbe81da0d	-0.25361672
89	0xbe2d4c5c	-0.1692366
90	0x3d826d5c	0.06368515
91	0xbdce83a5	-0.10083703
92	0x3cf292f0	0.02961108
93	0x3e9d3854	0.30707037
94	0x3e829a19	0.25508192
95	0xbe2dfbee	-0.16990635
96	0xbd845ef4	-0.06463423
97	0xbb0c4646	-0.002140419
98	0x3e364593	0.17799978
99	0xbc902ba0	-0.017598927
100	0x3db1c211	0.08679593
101	0x3d54ee89	0.051985297
102	0xbe6c4fd0	-0.23077321
103	0x3d10d50d	0.03535943
104	0x3db6cc79	0.08925719
105	0x3e959794	0.29217207
106	0x3dcfcb71	0.10146225
107	0xbd4c5e52	-0.04989464
108	0xbda287c2	-0.0793605
109	0x3ca2dd57	0.019880934
110	0xbe3766f5	-0.17910369
111	0xbc3c2162	-0.011482568
112	0x3e55fb52	0.20896652
113	0x3d53fa62	0.051752456
114	0xbe84af94	-0.25915205
115	0x3d3c3400	0.04594803
116	0xbe790fe0	-0.24322462
117	0x3e8db15b	0.27674374
118	0xbc5de86e	-0.013544185
119	0x3bae4551	0.0053183218
120	0xbdfc24e1	-0.123117216
121	0x3e697bc4	0.22801119
122	0xbd4b205f	-0.04959142
123	0x3f0436e6	0.5164627
124	0xbd07a9ba	-0.03312085
125	0xbe689c58	-0.2271589
126	0x3dad0290	0.084477544
127	0xbde9efb3	-0.11422672

network.1.running_var f4 [128]
0	0x3ddb8ebc	0.10720584
1	0x3df8c6a9	0.121472664
2	0x3df1197c	0.11772439
3	0x3da83269	0.0821274
4	0x3dd659e7	0.10466366
5	0x3d984913	0.07435813
6	0x3d701994	0.058618143
7	0x3d16e11b	0.03683577
8	0x3dcf6ab6	0.10127775
9	0x3d677956	0.0565122
10	0x3d933941	0.07188655
11	0x3de5d4e3	0.112222455
12	0x3e0a1dca	0.13487926
13	0x3d5b2fed	0.053512502
14	0x3dca043b	0.09864088
15	0x3d80671a	0.06269665
16	0x3daf9825	0.08573941
17	0x3e0ca8f7	0.1373633
18	0x3e1d3ad3	0.15354471
19	0x3dd361c7	0.10321384
20	0x3d9576e0	0.07298064
21	0x3de0b40f	0.109718435
22	0x3dd465c6	0.10370974
23	0x3d7ad400	0.061237335
24	0x3d817734	0.06321564
25	0x3db1ad24	0.08675602
26	0x3db57ff2	0.08862294
27	0x3dc06d43	0.0939584
28	0x3df2f3bd	0.11862896
29	0x3dd8136b	0.10550579
30	0x3d927a31	0.071522124
31	0x3d6f75c6	0.058461927
32	0x3d989faa	0.074523285
33	0x3dbea10f	0.09308063
34	0x3dfb9ee3	0.122861646
35	0x3e185cb4	0.14879113
36	0x3d69d614	0.057088926
37	0x3d97e06e	0.074158534
38	0x3d0ccb39	0.034373496
39	0x3d38e2d9	0.045138214
40	0x3dc3e30b	0.095647894
41	0x3e159418	0.14607275
42	0x3dec8e18	0.1155054
43	0x3dfd4541	0.12366725
44	0x3e074bf3	0.13212566
45	0x3d0b9ceb	0.034085196
46	0x3da1360c	0.07871637
47	0x3d8963b2	0.067084685
48	0x3dbe061a	0.092785075
49	0x3e18ff5c	0.14941162
50	0x3d36d97b	0.044641
51	0x3dc31c1b	0.09526845
52	0x3dc11963	0.0942867
53	0x3dead9af	0.11467301
54	0x3d1b55a0	0.037923455
55	0x3e435a48	0.19077408
56	0x3dad3ac3	0.084584735
57	0x3db8b0d1	0.090181
58	0x3d3d3358	0.046191543
59	0x3d2fb812	0.042900153
60	0x3d4fd1c1	0.050737146
61	0x3db119f7	0.086475305
62	0x3d805ab2	0.06267299
63	0x3d677a60	0.05651319
64	0x3da32224	0.07965496
65	0x3dd49daf	0.10381638
66	0x3d3699df	0.044580337
67	0x3dea8984	0.1145201
68	0x3dabd33c	0.08389899
69	0x3e07575a	0.13216916
70	0x3dc0bad7	0.09410637
71	0x3db14601	0.0865593
72	0x3d8032b2	0.06259669
73	0x3dd737f2	0.105087176
74	0x3d807acc	0.06273422
75	0x3d74a996	0.059732042
76	0x3da9d629	0.08292801
77	0x3d7aff8c	0.061278865
78	0x3dc39492	0.09549822
79	0x3d810f9d	0.06301806
80	0x3d848dc7	0.064723544
81	0x3d2dde3e	0.042448275
82	0x3df1e957	0.11812084
83	0x3d7208d2	0.059090443
84	0x3d2c7847	0.042106893
85	0x3d8a02e1	0.0673883
86	0x3e0f87f3	0.14016704
87	0x3d8ad24b	0.067783915
88	0x3d9e3401	0.07724763
89	0x3e07d0f2	0.132633
90	0x3db6ca56	0.08925311
91	0x3d9146f1	0.07093609
92	0x3e2f2933	0.1710556
93	0x3dc281ea	0.094974354
94	0x3d8da62b	0.0691646
95	0x3d633b28	0.055476338
96	0x3d976c3b	0.0739369
97	0x3dde5227	0.10855513
98	0x3dced58b	0.10099324
99	0x3da0abf1	0.07845295
100	0x3dd5a3b6	0.10431616
101	0x3d84c504	0.0648289
102	0x3e18e659	0.1493162
103	0x3dc9ac26	0.09847288
104	0x3d486e35	0.048933227
105	0x3d3abaab	0.045588177
106	0x3da1f1c8	0.07907444
107	0x3db87a32	0.09007682
108	0x3d9501b8	0.072757185
109	0x3d5f0427	0.05444732
110	0x3dd8e26d	0.10590062
111	0x3d88f5e9	0.06687529
112	0x3d4fc9d1	0.050729576
113	0x3d9cf9f6	0.07664864
114	0x3d993be2	0.07482125
115	0x3dca263d	0.098705746
116	0x3dec343f	0.11533403
117	0x3d9982d8	0.074956596
118	0x3d7ae21f	0.061250802
119	0x3de29134	0.110628515
120	0x3d0169d8	0.03159508
121	0x3e172833	0.14761429
122	0x3e00f4ba	0.12593356
123	0x3da4dabd	0.080495335
124	0x3d7bb904	0.06145574
125	0x3d6e4e9b	0.058180433
126	0x3d598e73	0.053114366
127	0x3d137fba	0.03601048

network.4.weight f4 [64, 128]
0	0xbcd31773	-0.025768017
1	0x3c244ebf	0.01002854
2	0xbc52a926	-0.012857711
3	0x3c4c5e5d	0.01247367
4	0xbbfc5733	-0.0077008246
5	0xba5c78e4	-0.0008410348
6	0x3ce09aec	0.027417623
7	0x3d5b98f8	0.05361268
8	0x3dca86ae	0.09888969
9	0xbd831c8e	-0.06401931
10	0xbd93d677	-0.0721864
11	0xbd0d4dc7	-0.034498002
12	0xbc07cd99	-0.008288764
13	0x3d48a114	0.04898174
14	0x3db1c2b2	0.08679713
15	0x3bbd37d6	0.0057744784
16	0xbd76fddd	-0.060300697
17	0x39da39d4	0.00041623286
18	0x3d5008db	0.050789695
19	0x3c5bc5d2	0.013413863
20	0xbd9da65a	-0.07697745
21	0x3c6eba69	0.014570811
22	0xbd8f0ab7	-0.069844656
23	0xbd0f3b0d	-0.034968425
24	0x3d5d516a	0.05403272
25	0xbd4ea5bc	-0.050451025
26	0x3d386ce9	0.04502574
27	0xbd8ff42f	-0.07028996
28	0x3dbe5b65	0.09294776
29	0x3d423d67	0.04742184
30	0x3d3b1144	0.045670763
31	0x3cae2a81	0.021260502
32	0x3c2d8d03	0.010592702
33	0xbd3fdb9f	-0.046840306
34	0xbd31091a	-0.04322157
35	0xbd97af25	-0.07406453
36	0x3da9d5c0	0.08292723
37	0xbd31fe62	-0.04345549
38	0xbbee043e	-0.0072636893
39	0xbda1b387	-0.0789557
40	0x3c8de8ce	0.017322924
41	0xbd170705	-0.03687193
42	0xbd941978	-0.0723142
43	0x3b9ca877	0.0047808248
44	0xbd9bdeed	-0.07610879
45	0xbc1d9a8e	-0.009619368
46	0xbd67024c	-0.056398675
47	0x3d88d8d0	0.06681979
48	0xbd82e893	-0.06392016
49	0x3bb0b612	0.005392798
50	0x3d1873f7	0.037219968
51	0xbd7bc924	-0.06147112
52	0x3d8ce8b9	0.06880326
53	0x3d879bab	0.06621488
54	0xbcfd444a	-0.030916352
55	0xbb1de502	-0.0024092798
56	0x3d536110	0.051606238
57	0x3dae8b24	0.08522633
58	0x3d58b747	0.052909162
59	0xbd71169f	-0.058859464
60	0xbd8d7084	-0.06906226
61	0xbd9326cd	-0.07185135
62	0xbd1aa930	-0.037759006
63	0xbccada56	-0.024762314
64	0xbd2e3559	-0.042531345
65	0x3d2dd0c9	0.04243544
66	0xbd6d3194	-0.05790861
67	0xbda84375	-0.082159914
68	0xbd662267	-0.056185152
69	0xbd5ee67f	-0.054419037
70	0x3d93fa94	0.07225528
71	0x3c20ff09	0.00982643
72	0x3c05bba3	0.008162412
73	0xbcbefa10	-0.023312598
74	0xbd97af0f	-0.07406437
75	0xbc5e3c61	-0.0135642
76	0x3d1aad8d	0.037763167
77	0x3d984f91	0.07437051
78	0x3d80f9aa	0.0629762
79	0xbabaacc8	-0.0014242167
80	0xbd0e181b	-0.034690958
81	0xbd42efd3	-0.047591995
82	0x3dab9f83	0.08380034
83	0xbd77731c	-0.06041251
84	0x3c222b82	0.009898068
85	0xbc5b6755	-0.0133913355
86	0x3db9c71f	0.090711825
87	0x3d4d6a2a	0.050150074
88	0xbcf8b826	-0.030361246
89	0xbd944a00	-0.07240677
90	0x3c98979f	0.018626986
91	0xbda3a453	-0.07990327
92	0x3b23fa2a	0.0025020936
93	0x3cee986d	0.029125417
94	0x3cf4fe4d	0.029906416
95	0xbcd6fa42	-0.02624238
96	0xbd8e2059	-0.069397636
97	0xbdab2765	-0.08357123
98	0xbddbd74d	-0.10734425
99	0x3d13574b	0.03597192
100	0xbd5f0116	-0.054444395
101	0x3be543f6	0.006996627
102	0xbd39a822	-0.04532636
103	0xbd7cd58e	-0.0617271
104	0x3d5d24cc	0.05399017
105	0x3d190b75	0.037364442
106	0x3d89b137	0.06723254
107	0x3dca42a4	0.09875992
108	0xbd3995a1	-0.045308713
109	0xbd0cc7fa	-0.0343704
110	0xbd76a7d8	-0.060218662
111	0x3d87aa5e	0.06624292
112	0x3d66a190	0.05630642
113	0x3d8370d3	0.06418004
114	0xbd187da2	-0.037229188
115	0xbd451800	-0.04811859
116	0x3d990745	0.0747209
117	0xbdaed764	-0.08537176
118	0xbd796ac3	-0.06089283
119	0x3d52b84f	0.0514453
120	0xbdcd8db8	-0.10036796
121	0xbca5e6b9	-0.020251619
122	0x3d43c6fb	0.047797184
123	0x3d969cc4	0.073541194
124	0xbb9e6c5a	-0.004834694
125	0xbd94310c	-0.072359174
126	0x3d54720a	0.05186657
127	0x3dee052a	0.11622079
128	0xbda2f0cb	-0.07956084
129	0xbb3e10e5	-0.002900177
130	0xbd7f4a38	-0.06232664
131	0xbd1af20c	-0.03782849
132	0x3cf29eb3	0.02961669
133	0x3d0ba88f	0.034096297
134	0x3d367eac	0.044554397
135	0xbd9f1af6	-0.07768814
136	0xbd089eee	-0.033354692
137	0x3d50488f	0.050850447
138	0xbbb0b0d7	-0.0053921747
139	0xbc9eeb85	-0.019399414
140	0xbd20f9c6	-0.039300703
141	0x3db0e68c	0.08637723
142	0xbd8087ee	-0.062759265
143	0xbd74c2fc	-0.059756264
144	0x3d6f1a36	0.058374606
145	0xbd51d7d0	-0.051231205
146	0x3d585325	0.052813668
147	0xbd2123ab	-0.039340656
148	0x3bb938c2	0.005652518
149	0xbcf52980	-0.029927015
150	0x3d8a366f	0.06748664
151	0x3d7b754d	0.061391164
152	0x3bee54af	0.0072732787
153	0x3bc0e350	0.0058864728
154	0xbcc5c45a	-0.02414148
155	0xbd2c2387	-0.04202607
156	0xbce2ddde	-0.027693685
157	0x3cd40dc7	0.025885476
158	0xbb5576ca	-0.0032572025
159	0x3da8df8c	0.08245763
160	0xbbf183e1	-0.0073704575
161	0xbab662de	-0.0013914963
162	0xbd80c8d7	-0.06288307
163	0x3d35b286	0.044359706
164	0xbdbb8b52	-0.091574326
165	0x3c5261fb	0.012840743
166	0x3d2a1251	0.041521374
167	0x3c3edecb	0.011649798
168	0x3d8e7c4b	0.06957301
169	0x3cf74640	0.030184865
170	0xbc9c2db6	-0.019064765
171	0xbd825514	-0.063638836
172	0xbdb3a530	-0.087717414
173	0x3d87276d	0.06599317
174	0x3d2ee865	0.042702097
175	0xbd93ffd1	-0.072265275
176	0x3bbdceb9	0.0057924655
177	0xbd1326d5	-0.035925705
178	0x3d901c1e	0.07036613
179	0xbd202585	-0.03909828
180	0x3d88ac25	0.06673459
181	0x3d9c8157	0.07641857
182	0x3cef7acf	0.029233364
183	0x3d574eed	0.052565504
184	0x3cd39a3b	0.025830379
185	0x3c867e84	0.01641775
186	0xbd64c4ae	-0.05585163
187	0xbce55d80	-0.027998686
188	0xbbd7c3c4	-0.0065846164
189	0x3d358b17	0.0443221
190	0xbcbee9eb	-0.0233049
191	0x3d32602b	0.043548744
192	0x3d9826fa	0.07429309
193	0x3d365754	0.044516876
194	0x3d491fab	0.049102467
195	0xbbbb2e78	-0.0057123266
196	0x3d2adf08	0.041716605
197	0xbc81ee41	-0.015860679
198	0x3da53d73	0.08068361
199	0x3b8cae00	0.0042932034
200	0xbb984c81	-0.004647792
201	0xbd838ea8	-0.06423694
202	0x3dc1df1c	0.09466383
203	0xbd44935f	-0.047992107
204	0x3d872934	0.06599656
205	0xbd79c7be	-0.060981505
206	0xbd9144cf	-0.07093202
207	0xbb6ac8a5	-0.003582516
208	0xbda8038a	-0.082038
209	0x3bfdaec0	0.007741779
210	0x3ab9fcab	0.0014189681
211	0xbce9c052	-0.028534088
212	0x3d91e76b	0.071242176
213	0x3d4d3556	0.050099693
214	0xbd9a95bf	-0.07548093
215	0xbd8a1bb6	-0.06743567
216	0x3d6e41dd	0.05816828
217	0xbd55073c	-0.052008852
218	0x3bd1dbf4	0.0064043943
219	0xbc830a80	-0.015996218
220	0x3cb23302	0.021752838
221	0xbd6e7f0f	-0.05822664
222	0xbb530b8e	-0.0032202932
223	0xbd29609a	-0.041351892
224	0xbcfb5535	-0.030680278
225	0xbd02dde3	-0.03194989
226	0x3d06347a	0.03276489
227	0x3d4d0669	0.05005494
228	0xbc4ea4c2	-0.0126125235
229	0x3c2b8cfd	0.010470626
230	0x3da792f8	0.08182329
231	0x3d748c73	0.059704255
232	0xbbf60785	-0.0075082206
233	0xbd58d7c0	-0.05294013
234	0x3cfd93e4	0.030954309
235	0x3d05c03e	0.03265404
236	0xbd97031d	-0.07373641
237	0xbdabd79b	-0.08390733
238	0x3bfee64b	0.007778918
239	0x3da03a7f	0.07823657
240	0xbdab59f3	-0.08366766
241	0xbd18d2b8	-0.037310332
242	0xbcc42656	-0.023944061
243	0xbdb02a85	-0.0860186
244	0xbd24a0cd	-0.040192414
245	0x3d8f418b	0.06994923
246	0x3d7649cf	0.060128983
247	0xbd8d6fe8	-0.0690611
248	0xbbf8b7da	-0.007590276
249	0xbd9039a2	-0.070422426
250	0x3d4c1e1e	0.04983341
251	0xbda9d09e	-0.08291744
252	0xbd450e09	-0.048109088
253	0xbd49023e	-0.049074404
254	0x3b2a9078	0.0026026051
255	0x3d86cc48	0.06581932

network.4.bias f4 [64]
0	0x3692d736	4.376193e-06
1	0xb9e143a2	-0.00042965735
2	0xb88826a6	-6.492184e-05
3	0xba6a4ee2	-0.0008938146
4	0xbbe66d95	-0.007032106
5	0xbccc099b	-0.024906924
6	0xbc52b085	-0.012859468
7	0xba82a91b	-0.000996861
8	0x391f834d	0.00015212335
9	0xbc99a843	-0.018756991
10	0x3c60f02e	0.013729138
11	0x39d5e2b8	0.00040795445
12	0xbcaf5a22	-0.021405283
13	0x3b455f51	0.0030116627
14	0xb80161dd	-3.084714e-05
15	0xb8d9d44c	-0.0001038691
16	0x3c64c5cf	0.013963177
17	0x3c350749	0.0110491
18	0x397e98aa	0.000242802
19	0x3a3588ff	0.0006925016
20	0x3c20ada9	0.009807029
21	0x3c6f6784	0.014612082
22	0x392e257f	0.00016607901
23	0xbc4c382c	-0.012464564
24	0x3cb18300	0.021668911
25	0x3a85207d	0.0010156777
26	0xbb1a4a9c	-0.0023543006
27	0xbcb5b18a	-0.022179384
28	0xba7f2405	-0.00097328454
29	0xba5e3210	-0.0008476088
30	0x3a853186	0.0010161854
31	0xbcc41b8a	-0.023938913
32	0x3be45f37	0.0069693583
33	0x38c33ba5	9.309434e-05
34	0x3c95f937	0.018307311
35	0x37cd629e	2.4483827e-05
36	0x3c9e1544	0.01929725
37	0xb9ed2e56	-0.00045238686
38	0x3a5c5c0b	0.00084060495
39	0x3af7d437	0.001890785
40	0x39e990c0	0.0004454907
41	0x3c9b9350	0.018991143
42	0xb8b14726	-8.45327e-05
43	0xbc2d5439	-0.010579162
44	0xbbf2f666	-0.007414627
45	0xb9a1c2b1	-0.0003085337
46	0x39460d1b	0.00018887634
47	0xba4585ba	-0.00075348804
48	0x3c809b12	0.015698943
49	0xba31ced3	-0.00067828334
50	0x36e92565	6.9482944e-06
51	0x3abdf6f3	0.0014493152
52	0x38b0f01b	8.437057e-05
53	0xb7f4d168	-2.9184579e-05
54	0xba69ff31	-0.0008926271
55	0xb7190b51	-9.1221455e-06
56	0xbcd08f0e	-0.025458839
57	0x39694720	0.00022247108
58	0xbc154082	-0.009109618
59	0xbc85f021	-0.016349854
60	0xbc0e1489	-0.008671888
61	0x3c58d7f5	0.013235082
62	0xbbb4cfda	-0.005517942
63	0x3c3a4ec9	0.011371323

network.5.weight f4 [64]
0	0x3f7dc31c	0.9912584
1	0x3f7ee72e	0.995715
2	0x3f7fb1f0	0.99880886
3	0x3f7e1760	0.9925442
4	0x3f82803e	1.0195386
5	0x3f7fb803	0.99890155
6	0x3f7a1304	0.97685266
7	0x3f82ae52	1.0209448
8	0x3f7f36a2	0.9969274
9	0x3f801b32	1.0008299
10	0x3f7d937c	0.9905317
11	0x3f7f8df4	0.9982598
12	0x3f7d587c	0.9896314
13	0x3f7ee0a9	0.99561554
14	0x3f7e6ed7	0.9938788
15	0x3f809c0e	1.0047624
16	0x3f7fa5a1	0.99862105
17	0x3f7ab608	0.9793401
18	0x3f7eb137	0.9948916
19	0x3f7f15dc	0.9964273
20	0x3f8054f2	1.0025923
21	0x3f7e6056	0.99365747
22	0x3f7a615e	0.9780482
23	0x3f817c0d	1.0115982
24	0x3f7e4b37	0.9933352
25	0x3f7c2e14	0.9850781
26	0x3f7d54bf	0.9895744
27	0x3f7b86ac	0.9825237
28	0x3f822701	1.0168153
29	0x3f7c66ad	0.9859417
30	0x3f80bc54	1.0057473
31	0x3f80e6b3	1.0070404
32	0x3f7ce04b	0.98779744
33	0x3f7eaf21	0.99485976
34	0x3f7eee6e	0.99582565
35	0x3f7fa127	0.99855274
36	0x3f836994	1.0266595
37	0x3f80a8c4	1.0051503
38	0x3f81ad4b	1.013101
39	0x3f7a7a23	0.97842616
40	0x3f7cb8a5	0.98719245
41	0x3f80994b	1.0046781
42	0x3f7ea4e6	0.99470365
43	0x3f7d255c	0.9888513
44	0x3f80235b	1.001079
45	0x3f802714	1.0011926
46	0x3f7d8f38	0.9904666
47	0x3f7d3d7a	0.9892193
48	0x3f7db9a5	0.99111396
49	0x3f7d0cc7	0.9884762
50	0x3f7da691	0.99082285
51	0x3f7e9660	0.99448204
52	0x3f804bcc	1.0023131
53	0x3f80f923	1.007603
54	0x3f7bce9b	0.9836213
55	0x3f7e775d	0.99400884
56	0x3f7e409c	0.99317336
57	0x3f821185	1.0161597
58	0x3f82ee42	1.022896
59	0x3f7c9981	0.9867173
60	0x3f7e18dd	0.9925669
61	0x3f8014de	1.0006368
62	0x3f8017d8	1.0007277
63	0x3f7b0367	0.98052067

network.5.bias f4 [64]
0	0xbc019959	-0.007910096
1	0x3b8113b7	0.003939118
2	0x3b22aa5c	0.002482078
3	0x3b93e387	0.0045132074
4	0x3bae081a	0.0053110244
5	0x3b1c48f9	0.0023847206
6	0xbc6c1049	-0.01440818
7	0x3b91bf3f	0.004447847
8	0xba117b40	-0.0005549677
9	0x3bd275c9	0.0064227325
10	0xbc29d07c	-0.010364648
11	0x3c2768ff	0.010217904
12	0xbc408613	-0.011750716
13	0xbc0a6004	-0.0084457435
14	0xbbd94425	-0.006630438
15	0x3c3dba35	0.01158004
16	0x3b80e386	0.003933373
17	0xbc691a0d	-0.014227402
18	0x3cb4ae98	0.022055909
19	0xbb9dfa2a	-0.0048210816
20	0x3c067731	0.008207128
21	0xbb7f7085	-0.003897698
22	0xbcaafb26	-0.02087171
23	0xbc1169c6	-0.008875316
24	0x387c8a02	6.021001e-05
25	0xbc5e3c93	-0.013564247
26	0xbba9fd87	-0.0051876935
27	0xbc7ce09a	-0.015434409
28	0x3ce1407a	0.027496565
29	0xbc25c94e	-0.010118796
30	0x3a4b07f5	0.0007745021
31	0x3c48ce71	0.012256251
32	0xbc95540b	-0.018228551
33	0x3ba3a46d	0.0049939663
34	0xbc28c4cc	-0.010300826
35	0x3bb82ace	0.005620337
36	0x3c3df897	0.011594913
37	0x3bc9d089	0.0061588925
38	0x3c19fcd6	0.00939866
39	0xbc946651	-0.018115195
40	0xbbb672fe	-0.0055679074
41	0x3c1e56cd	0.00966425
42	0xbba86f1f	-0.0051402
43	0xbc29b57b	-0.01035821
44	0x3a240ba1	0.00062578364
45	0xbbae4f7d	-0.0053195343
46	0xbc63eba7	-0.013911164
47	0xbc09f408	-0.008419998
48	0x3be3f4aa	0.0069566565
49	0xbca13f23	-0.019683426
50	0xb90cdae0	-0.00013432978
51	0xbc081b37	-0.00830727
52	0x3c060237	0.008179239
53	0x3c4db3f7	0.012555114
54	0xbc540e84	-0.012942914
55	0xb7ecb30b	-2.8216766e-05
56	0xbc1f90e9	-0.009739139
57	0x3c2243b5	0.009903838
58	0x3c54933b	0.012974556
59	0x3b1b8f9c	0.002373672
60	0x3b8d8777	0.004319127
61	0x3c15a6dc	0.009134021
62	0x3c39f113	0.0113489805
63	0xbba0809c	-0.004898144

network.5.running_mean f4 [64]
0	0xbe3b38fa	-0.18283454
1	0xbdc9e129	-0.09857399
2	0x3d92e666	0.07172851
3	0xbdc32949	-0.09529359
4	0x3e880a94	0.2657057
5	0xbd02c586	-0.031926654
6	0x3e039b8e	0.12852308
7	0xbf120266	-0.5703491
8	0xbd744429	-0.059635315
9	0x3e2f30d6	0.17108473
10	0x3dfcf15e	0.12350725
11	0x3db77ba2	0.08959128
12	0x3f178898	0.591928
13	0x3da49157	0.08035534
14	0xbd11081c	-0.035408124
15	0xbe5be17a	-0.21472731
16	0x3f099d54	0.5375569
17	0x3db043d6	0.08606689
18	0x3e5eda5e	0.21762988
19	0xbe5c0582	-0.21486476
20	0xbe9620a3	-0.29321775
21	0xbeae9b1a	-0.34102708
22	0x3da6447b	0.0811853
23	0x3ea29178	0.3175161
24	0x3e4d41c0	0.20044613
25	0x3ec43c46	0.38327235
26	0xbe276831	-0.1634834
27	0xbdc20a72	-0.094746485
28	0xbe291caa	-0.1651484
29	0xbcfb91d4	-0.030709185
30	0x3d1ca0f9	0.038239453
31	0x3eae9c7a	0.34103757
32	0xbd791b0d	-0.060816813
33	0xbf05157a	-0.51985896
34	0xbc2a3162	-0.01038775
35	0xbea76490	-0.3269391
36	0xbc372b97	-0.011179826
37	0x3e96cfef	0.29455516
38	0x3e041919	0.12900199
39	0xbe0b7edc	-0.13622612
40	0x3b0b2c38	0.0021236073
41	0x3e03002b	0.12793033
42	0xbd45c753	-0.048285794
43	0x3e9bee8c	0.30455434
44	0x3e4904a0	0.1963067
45	0x3dba0a6c	0.09084019
46	0xbdaa6736	-0.08320467
47	0x3e87c2d2	0.26515824
48	0xbd3f90de	-0.046769015
49	0x3e6fc760	0.234159
50	0xbe55d636	-0.20882496
51	0xbe3c72fb	-0.18403237
52	0xbe0b9dc8	-0.13634408
53	0xbdf46d6e	-0.119349346
54	0xbec4ef29	-0.38463715
55	0x3ce87662	0.028376762
56	0xbe21d698	-0.15804517
57	0xbcd980ad	-0.026550615
58	0x3dc1f3ae	0.09470306
59	0xbc7ac5e2	-0.015305968
60	0xbecfdb2e	-0.40596908
61	0xbd735aa4	-0.059412614
62	0x3e2544f2	0.16139582
63	0x3e3f7582	0.1869717

network.5.running_var f4 [64]
0	0x3e1c2c65	0.1525131
1	0x3e128ea7	0.1431223
2	0x3dfe6019	0.12420673
3	0x3e867cb6	0.26267022
4	0x3e0a6fda	0.1351923
5	0x3e5a682c	0.21328801
6	0x3e29bef5	0.1657675
7	0x3e75aec8	0.23992455
8	0x3e43ffeb	0.19140594
9	0x3e37f0f0	0.17963004
10	0x3dc3a24e	0.095524415
11	0x3e9e6b7c	0.3094138
12	0x3e80f26c	0.25184953
13	0x3e2f81dd	0.17139383
14	0x3e1e53b2	0.15461615
15	0x3dd12207	0.10211568
16	0x3e349898	0.17636335
17	0x3e5d1490	0.21589875
18	0x3e51ea5a	0.20499554
19	0x3ded86ec	0.11598
20	0x3e610942	0.21976188
21	0x3e1d26e8	0.15346873
22	0x3dd80b02	0.105489746
23	0x3df31fb0	0.11871278
24	0x3e3b6b57	0.18302666
25	0x3df335cc	0.11875495
26	0x3e18f69c	0.14937824
27	0x3e52cf0a	0.20586792
28	0x3e00137a	0.1250743
29	0x3da85495	0.08219258
30	0x3e538e1b	0.20659678
31	0x3e5d4ec3	0.21612076
32	0x3e73f278	0.23822963
33	0x3e51c63e	0.2048578
34	0x3e18ef04	0.14934927
35	0x3e4ad214	0.19806701
36	0x3e7c60ed	0.24646349
37	0x3e2be423	0.16786246
38	0x3e7ba303	0.24573903
39	0x3e0bc440	0.13649082
40	0x3df9c66b	0.12196048
41	0x3e1abeac	0.15111798
42	0x3df4ccd0	0.119531274
43	0x3e315d7e	0.1732082
44	0x3e1a9049	0.15094103
45	0x3e355239	0.17707147
46	0x3e672e6e	0.22576305
47	0x3e33e391	0.17567278
48	0x3e19d55b	0.15022795
49	0x3e520d2b	0.20512836
50	0x3e0485c7	0.12941657
51	0x3e1b88b8	0.15188873
52	0x3e49dfe8	0.1971432
53	0x3e2f09a1	0.17093517
54	0x3e2a7c9a	0.16649094
55	0x3e38e299	0.1805519
56	0x3e32af24	0.17449623
57	0x3e2e8414	0.17042571
58	0x3e1821ec	0.1485669
59	0x3e2137ec	0.15743989
60	0x3e5233fa	0.2052764
61	0x3e14a0cc	0.14514464
62	0x3e067a17	0.13132511
63	0x3eb83e0e	0.35984844

network.8.weight f4 [64, 64]
0	0x3da9e5e4	0.08295801
1	0x3cf57c57	0.029966516
2	0xbd251652	-0.04030449
3	0xbddc4619	-0.107555576
4	0xbdeeaad0	-0.11653674
5	0x3dd541f0	0.10412967
6	0xbd970a98	-0.073750675
7	0x3bd10764	0.006379055
8	0x3cc8a7f2	0.024494145
9	0x3a7c925b	0.0009634846
10	0x3ce11468	0.02747555
11	0xbdc60b99	-0.09670181
12	0x3dc124aa	0.09430821
13	0xbdb6b789	-0.08921725
14	0xbd8fa3ee	-0.07013689
15	0xbdfce81b	-0.12348958
16	0x3db50af0	0.08839977
17	0xbd635772	-0.055503316
18	0xbd2ff84d	-0.042961407
19	0x3d8bca56	0.06825702
20	0xbc1a86f1	-0.009431587
21	0x3da3b8e5	0.0799425
22	0x3d79ad92	0.060956545
23	0x3c0f3f16	0.008743068
24	0xbddf30aa	-0.10897954
25	0xbde2c6a9	-0.11073048
26	0x3d06067e	0.032721035
27	0xbc9370d7	-0.017998142
28	0x3dfff61d	0.12498114
29	0xbdedabf6	-0.116050646
30	0x3c8f2564	0.017473884
31	0x3d0ad233	0.033891868
32	0x3d63ebc6	0.055644773
33	0x3da99f9b	0.082823955
34	0x3a5c7842	0.0008410254
35	0xbdd7b147	-0.1053186
36	0x3ba43d83	0.0050122156
37	0x3de75822	0.11296107
38	0xbdb5f2c4	-0.088841945
39	0xbdbb85ed	-0.09156404
40	0x3dd5cbb4	0.10439244
41	0xbd25d1e5	-0.040483374
42	0xbd44d2e2	-0.048052676
43	0x3b4170c7	0.0029516683
44	0x3d8d68cd	0.06904755
45	0x3ccb4e4b	0.024817606
46	0x3db765e4	0.08954981
47	0x3b865a3e	0.004100113
48	0xbd617df9	-0.055051778
49	0xbd386c0b	-0.045024913
50	0x3c5642f0	0.013077483
51	0x3ba7fca9	0.005126555
52	0x3da624d8	0.08112496
53	0x3d9ec2d5	0.07752005
54	0x3dce83b4	0.10083714
55	0x3dab4a8e	0.083638296
56	0x3da7c838	0.081924856
57	0xbdbd59a6	-0.09245615
58	0xbd0b5112	-0.03401286
59	0xbc4eb0ea	-0.012615422
60	0x3df7f718	0.12107676
61	0x3ac13b77	0.0014742453
62	0x3cdf4c81	0.02725816
63	0xbb8ef7f2	-0.0043630535
64	0xbdf09b23	-0.1174834
65	0x3a9eaca9	0.00121059
66	0xbc040df8	-0.008059971
67	0xbd9a46b8	-0.0753302
68	0x3e1541b7	0.1457585
69	0xbdf29ae9	-0.11845953
70	0xbdc890b3	-0.09793224
71	0xbdd91f12	-0.10601629
72	0xbdc53fc0	-0.096313
73	0xbcd89647	-0.026438845
74	0xbd8afc0f	-0.067863576
75	0x3de6063d	0.112316586
76	0x3d96754c	0.07346591
77	0x3d215b0c	0.03939347
78	0x3dd96de1	0.10616661
79	0xbdb362cf	-0.087590806
80	0xbd7aee9c	-0.061262712
81	0x3e0262cc	0.12733
82	0x3dbda897	0.092606716
83	0x3cb97d21	0.022642674
84	0x3d73e25e	0.059542052
85	0x3d050f65	0.032485384
86	0xbc06a2b6	-0.008217504
87	0xbd378716	-0.044806562
88	0x3d6ca058	0.057770103
89	0xbdd5fccb	-0.10448607
90	0x3dec303c	0.115326375
91	0xbdbd7d9b	-0.09252473
92	0xbdf83339	-0.12119145
93	0x3dc1cdf8	0.094631135
94	0xbd829fb6	-0.06378119
95	0xbd01f10f	-0.031724032
96	0xbc651826	-0.013982808
97	0xbdf58c6a	-0.119896725
98	0xbc74df8a	-0.014945874
99	0xbc14c475	-0.009080042
100	0xbd255028	-0.040359646
101	0x3bbdc3a4	0.0057911444
102	0xbdc28f84	-0.0950003
103	0xbc03b46f	-0.008038624
104	0xbc9f8325	-0.019471714
105	0xbdd24b59	-0.10268278
106	0xbda887d5	-0.08229033
107	0x3dc0676e	0.09394728
108	0xbe005805	-0.12533577
109	0xbc8d4d36	-0.017248731
110	0xbd5bf70f	-0.05370241
111	0x3de0fa8f	0.1098529
112	0x3da803b1	0.08203829
113	0x3d86d502	0.06583597
114	0xbd5c62d2	-0.05380518
115	0xbdd86e9c	-0.10567972
116	0xbcf1b583	-0.029505497
117	0x3d86641d	0.06562064
118	0x3baede60	0.0053365678
119	0xbd6cf323	-0.05784906
120	0xbdeb9a92	-0.11504091
121	0x3dd6b9ed	0.10484681
122	0x3d35b17a	0.044358708
123	0x3d935167	0.07193261
124	0xbe04098f	-0.12894271
125	0x3c207b99	0.009795093
126	0x3e00bacd	0.12571259
127	0xbe00794b	-0.1254627
128	0xbdf32145	-0.1187158
129	0xbded085f	-0.11573862
130	0xbd83cfce	-0.0643612
131	0xbc38d5b5	-0.0112814205
132	0x3daf1621	0.08549143
133	0xbd6cd4af	-0.05782002
134	0x3dae9d2a	0.085260704
135	0x3d996ff7	0.07492059
136	0x3d88b846	0.06675772
137	0xbdc261bc	-0.094912976
138	0x3d4a9f6b	0.04946844
139	0x3d9ea689	0.07746608
140	0x3dd38254	0.103275925
141	0xbde5906c	-0.11209187
142	0xbd01ff59	-0.03173766
143	0xbd8f1164	-0.06985739
144	0xbd6406a9	-0.055670414
145	0x3d2cae24	0.04215826
146	0x3b6b1b37	0.0035874376
147	0x3d8dc28f	0.06921875
148	0xbdb93963	-0.09044149
149	0xbd2f47a2	-0.042792924
150	0x3d5aa478	0.053379506
151	0xbd155fb9	-0.03646824
152	0x3ccd16d3	0.025035297
153	0xbda75721	-0.081709154
154	0x3ddbdf5d	0.107359625
155	0x3b96d0b7	0.0046025175
156	0x3ceffe47	0.029296054
157	0x3c81182e	0.0157586
158	0x3ce63ca7	0.028105093
159	0x3e022894	0.12710792
160	0xbd215e3f	-0.03939652
161	0x3ddcadd4	0.107753426
162	0xbd90196d	-0.070360996
163	0x3bff5a9b	0.0077927834
164	0xbdbf4211	-0.09338773
165	0x3d3b2c55	0.045696575
166	0xbdfa5912	-0.1222402
167	0x3d6102db	0.054934364
168	0xbd6e98a1	-0.058251027
169	0x3e0cb844	0.13742167
170	0x3de22375	0.11041919
171	0x3d972836	0.073807165
172	0xbdee7895	-0.11644093
173	0x3d2a9ef6	0.041655503
174	0xbdae5b3f	-0.085134976
175	0x39e02311	0.00042750736
176	0xbda077a8	-0.078353226
177	0x3d9b1171	0.07571686
178	0xbc1d0816	-0.009584447
179	0x3d109dcc	0.035306737
180	0x3d04799d	0.032342542
181	0x3da9c02c	0.08288607
182	0x3d9e7e58	0.07738942
183	0x3b565082	0.0032701795
184	0xbdbd9c66	-0.09258346
185	0x3d316302	0.04330731
186	0xbce22d41	-0.02760947
187	0xbcea427f	-0.028596161
188	0xbb720345	-0.0036928218
189	0x3dce2674	0.10065928
190	0x3dc34d58	0.095362365
191	0xbc6f6c45	-0.014613216
192	0xbd652cc1	-0.055950884
193	0x3dc9a288	0.098454535
194	0x3d534dcc	0.051587865
195	0xbde72659	-0.11286611
196	0x3c0a35c2	0.008435668
197	0xbddf9ca3	-0.10918548
198	0xbd033b12	-0.032038756
199	0xbdf5b85b	-0.11998054
200	0xbdc39824	-0.09550503
201	0xbdc49eb3	-0.09600582
202	0xbce06575	-0.027392128
203	0x3d6e037a	0.058108784
204	0xbdfbbb10	-0.12291539
205	0xbd775bfe	-0.060390465
206	0x3cfdd3a2	0.030984703
207	0x3d342605	0.04398157
208	0xbade9c79	-0.0016983888
209	0xbdb923dc	-0.09040043
210	0xbc19e1aa	-0.009392181
211	0x3d1d14cc	0.03834991
212	0xbde162bd	-0.11005161
213	0xbd862130	-0.06549299
214	0x3ca4a368	0.02009745
215	0xbc39d6c0	-0.011342704
216	0x3de0f523	0.10984256
217	0x3cec258a	0.028826494
218	0x3d83da61	0.06438137
219	0xbd917096	-0.07101552
220	0xbd2895df	-0.041158553
221	0xbcc7eca3	-0.02440483
222	0xbc9d202b	-0.019180378
223	0xba0c0880	-0.0005341843
224	0x3d761e05	0.060087223
225	0xbdaeb04b	-0.08529719
226	0xbd7f4b1f	-0.0623275
227	0xbcfc4826	-0.030796122
228	0xbba31422	-0.0049767653
229	0x3d0b9105	0.03407385
230	0xbd05dbc6	-0.032680295
231	0x3da80289	0.082036085
232	0xbdcefd21	-0.10106874
233	0x3dcd1f85	0.100157775
234	0x3d44c007	0.048034694
235	0x3d9d153b	0.07670065
236	0xbdf6a2cd	-0.120427705
237	0x3da4a2a2	0.08038832
238	0x3dae464f	0.08509504
239	0x3da76720	0.081739664
240	0x3d5d51ff	0.054033276
241	0xbd60e12e	-0.054902248
242	0xbd0a2bd0	-0.03373319
243	0x3b0b9511	0.0021298567
244	0x3cc2bd47	0.023771895
245	0xbde51427	-0.111854844
246	0xbce3edb4	-0.027823307
247	0xbdd8c685	-0.105847396
248	0xbda91845	-0.08256582
249	0xbd2af5f1	-0.041738454
250	0xbc78804f	-0.01516731
251	0x3c2b286d	0.01044665
252	0x3d8d428f	0.06897461
253	0xbd216846	-0.039406084
254	0xbc40e2c2	-0.011772813
255	0x3cf707ac	0.030155025

network.8.bias f4 [64]
0	0xba972cee	-0.0011533776
1	0x39005b62	0.00012241074
2	0x3d5821d1	0.052766625
3	0xbbfe4a38	-0.0077603124
4	0x3a3541cc	0.00069144065
5	0x3caedb3d	0.021344775
6	0x3c6e4edb	0.014545168
7	0xba6c1fbc	-0.00090074143
8	0xbd35013c	-0.04419063
9	0xb9acfe15	-0.00032995702
10	0xbd681813	-0.056663584
11	0xbbe272c3	-0.0069106533
12	0x3954aede	0.00020283039
13	0xb9c78949	-0.00038058523
14	0x3ae5a642	0.0017520862
15	0x373f425d	1.1399939e-05
16	0x39c194dc	0.00036922737
17	0xba845c70	-0.0010098349
18	0xb9c184f0	-0.00036910875
19	0xbd65c716	-0.056098066
20	0x39a3c938	0.00031239702
21	0x3d1d6b4e	0.03843241
22	0xba36fbbc	-0.00069802604
23	0x3cdf563d	0.027262801
24	0xbc2daaad	-0.010599774
25	0x3a1ae92b	0.00059093785
26	0xbd4621c7	-0.048372056
27	0xbd468c93	-0.048473906
28	0xbcfe23c9	-0.031022923
29	0x3c05e073	0.008171189
30	0xbc6fe39b	-0.014641668
31	0xba3fbcac	-0.0007314186
32	0x3cca28e8	0.024677709
33	0xb98ba440	-0.00026634522
34	0xbb0f0642	-0.0021823798
35	0x3c9eacb5	0.019369463
36	0x3725d8bd	9.88523e-06
37	0xb8c1db87	-9.243847e-05
38	0x3a0db2de	0.00054053764
39	0x3d10c96a	0.035348333
40	0x3bc8bfb4	0.0061263684
41	0xb9ea728b	-0.000447173
42	0x3b97d441	0.004633457
43	0xbcb4b11d	-0.02205711
44	0xb90cb454	-0.00013418618
45	0xbd20ba88	-0.03924039
46	0xbd3cf035	-0.046127517
47	0x3d19b842	0.037529238
48	0x3c206a27	0.009790934
49	0x3a2e8ed1	0.00066588545
50	0xbc4359a9	-0.011923232
51	0xba1b0215	-0.0005913091
52	0x399aeab0	0.00029548025
53	0xb9dd6b70	-0.00042232452
54	0x3d2c7bac	0.04211013
55	0x3d5aeeca	0.053450383
56	0x3c14151a	0.009038234
57	0xbc468277	-0.012116066
58	0x39ca7dae	0.0003862208
59	0xb96fbedd	-0.00022863918
60	0xbc7aedfc	-0.015315529
61	0x3d3df4e8	0.04637614
62	0xbc76a38c	-0.015053641
63	0x3d4c3e1d	0.049863923

network.9.weight f4 [64]
0	0x3f7c4847	0.98547786
1	0x3f807d5f	1.003826
2	0x3f83030d	1.0235306
3	0x3f7c446a	0.9854189
4	0x3f7ec414	0.9951794
5	0x3f762c44	0.96161294
6	0x3f7c8e17	0.9865431
7	0x3f8096d8	1.0046034
8	0x3f80a5e9	1.0050632
9	0x3f8104d4	1.0079598
10	0x3f81faa9	1.015462
11	0x3f7d3907	0.9891514
12	0x3f7d45f3	0.9893486
13	0x3f7da371	0.99077517
14	0x3f7badc3	0.98312014
15	0x3f840230	1.0313168
16	0x3f7c5090	0.9856043
17	0x3f757a77	0.9588999
18	0x3f832390	1.0245228
19	0x3f812052	1.0087988
20	0x3f808554	1.0040689
21	0x3f7eba5d	0.9950312
22	0x3f79c83c	0.9757116
23	0x3f82ac22	1.0208781
24	0x3f7a6fba	0.9782673
25	0x3f7e2669	0.9927736
26	0x3f80bf99	1.0058471
27	0x3f73eb51	0.9528094
28	0x3f81680a	1.0109875
29	0x3f801417	1.0006131
30	0x3f834fe2	1.0258753
31	0x3f82729a	1.0191224
32	0x3f81c57b	1.0138391
33	0x3f74ea42	0.9566995
34	0x3f804a6a	1.0022709
35	0x3f7da49e	0.9907931
36	0x3f82bb0e	1.0213335
37	0x3f7af391	0.980279
38	0x3f7e060c	0.99227977
39	0x3f7eec3d	0.9957922
40	0x3f81a9b9	1.012992
41	0x3f828149	1.0195705
42	0x3f7c0e3f	0.9845924
43	0x3f81df8e	1.0146348
44	0x3f825ee0	1.0185204
45	0x3f7fa5f9	0.9986263
46	0x3f800649	1.0001918
47	0x3f805843	1.0026935
48	0x3f79ebae	0.97625244
49	0x3f7cc736	0.9874147
50	0x3f7d250a	0.9888464
51	0x3f801e3d	1.0009228
52	0x3f80a69e	1.0050848
53	0x3f83097d	1.023727
54	0x3f7eee0d	0.99581987
55	0x3f7e5ab6	0.99357164
56	0x3f812fdd	1.0092732
57	0x3f7eca56	0.9952749
58	0x3f804f23	1.0024151
59	0x3f7e0629	0.9922815
60	0x3f845ed1	1.0341436
61	0x3f80b88d	1.005632
62	0x3f83ba5b	1.0291246
63	0x3f7be1e4	0.98391557
