python/credit_scoring/models/genia_services_mlp_credit_scoring_model_v1.3.0_20250824.pt (torch, 229577 bytes, 25 tensors)

network.0.weight f4 [256, 26]
000000 89 5e 26 3e 02 d1 11 3e b5 b6 41 bd 19 67 33 3e
       0.16247 0.14239886 -0.047293384 0.17519797
000010 3b b1 7d bd e0 d5 6f 3d ba d3 d6 bd 57 2c fc 3d
       -0.0619366 0.058553576 -0.104896024 0.12313145
000020 b5 17 2c 3e 03 c0 08 be 00 cd 1f 3e a7 22 15 3d
       0.16805919 -0.13354497 0.15605545 0.03641
000030 05 af 09 3e 98 84 b9 3c 55 93 e3 3d 59 02 e1 bc
       0.13445671 0.022646233 0.11112086 -0.02746694
000040 4c d1 17 3e a2 63 19 3c 0a d4 f0 bd 0a 75 3c 3d
       0.14825934 0.009362133 -0.11759193 0.046010055
000050 99 a5 b1 bd 65 96 7e bc 22 eb b1 bd ff 34 1a 3e
       -0.08674163 -0.015538787 -0.08687426 0.15059279
000060 7e bd 1e be 8c e4 bb bd b7 9f e7 bc 2a 06 da bd
       -0.15501973 -0.09174451 -0.0282744 -0.10645707
000070 3e b0 fc 3b d5 fc 65 be 72 a7 27 3e ee ea 1c be
       0.0077114394 -0.22459729 0.16372469 -0.15323994
000080 83 1e 11 3e cb 17 25 3d 3a 37 84 bd 12 1f ea 3d
       0.14171796 0.040305894 -0.06455846 0.114317074
000090 e7 2f 05 3d bb e9 36 3e 92 e0 86 3c f4 cd 86 bd
       0.032516386 0.17862599 0.016464505 -0.06582251
0000a0 16 97 4d 3d b0 0e 5a bd 5d 7a d5 3d 5c de 2b 3e
       0.050192915 -0.053236663 0.104237296 0.16784042
0000b0 e5 ba f1 3d 5b 39 d6 bd 0c 28 e0 3d aa 5f 30 3d
       0.118032254 -0.104601584 0.10945138 0.043059982
0000c0 79 1d d8 3d 84 5f d8 bd c7 b8 51 be 97 7b 91 bd
       0.105524965 -0.10565093 -0.20480643 -0.07103651
0000d0 b8 29 2b be 38 d7 2c 3e 5b de 50 3d 2c 90 c0 3d
       -0.16715133 0.16878974 0.050993305 0.094024986
0000e0 b9 98 8a 3d a6 0c 18 bc 91 88 07 3e fb d2 fe bd
       0.06767411 -0.009280359 0.1323569 -0.12442585
0000f0 d2 79 48 3c c3 da d5 bd 21 65 4b 3d d1 81 b0 bd
       0.0122360755 -0.10442116 0.04965699 -0.086185105
000100 c7 03 25 3d f3 18 62 bd 0e 67 34 3e 97 8c e1 bd
       0.040286805 -0.055199575 0.17617437 -0.110131435
000110 e8 6b 00 be 8b 18 04 be da 87 3e 3e 51 17 1e 3d
       -0.12541163 -0.12899987 0.18606511 0.038596455
000120 48 f0 39 3e 50 c8 0b be a5 95 3e be 65 0f 15 be
       0.18158066 -0.13650632 -0.18611772 -0.14556654
000130 03 01 d1 bd 49 8f 88 3d a6 c0 ba 3d b4 85 1c 3e
       -0.10205271 0.066679545 0.09118776 0.15285379
000140 54 0a ce bd 45 60 09 be e2 c7 ec 3d de 29 ba bd
       -0.10060564 -0.1341563 0.11561562 -0.09090017
000150 48 91 03 3e 6f 3f 32 bd d1 c5 cd 3d 21 e1 1c be
       0.12848389 -0.043517526 0.10047496 -0.15320255
000160 0d 47 c3 bd 48 f1 52 3d d4 cb 2a 3d 4d 2f 48 bd
       -0.09535036 0.051499635 0.041698292 -0.048873235
000170 b7 73 e6 3d a3 f5 0e 3e 82 65 fd bd 94 f3 f8 bd
       0.112525396 0.1396089 -0.12372877 -0.12155834
000180 f8 58 20 3e 42 13 8a bd 4c 55 82 bd 71 19 3a be
       0.15658939 -0.067419544 -0.06363925 -0.18173768
000190 f6 d7 de bd 16 b6 5a 3d 2d 81 a4 bc 77 7c 0e be
       -0.10881035 0.053396307 -0.020081127 -0.13914667
0001a0 74 9b 6e 3b 2f 99 09 be 3d ec 2a be e9 f3 ed bd
       0.0036408575 -0.13437341 -0.1669168 -0.11618788
0001b0 c2 b0 2d be 56 d3 00 be bf c8 3c 3e d8 3e 08 3d
       -0.16961959 -0.12580618 0.18435954 0.033263057
0001c0 af a8 9b 3d 7a 6b 2e be 45 d8 18 be ab 0a 9c bd
       0.07600533 -0.17033187 -0.1492625 -0.07619222
0001d0 58 fa 30 3d 18 12 2e be c2 33 a7 bd 6c f8 0f be
       0.043207496 -0.1699909 -0.08164169 -0.14059609
0001e0 94 88 24 bc 89 c7 39 bd 7a 29 09 bd f8 7b fb bd
       -0.010042328 -0.045356307 -0.03348682 -0.122795045
0001f0 96 aa 14 be c2 c1 f5 bd 63 87 8c bd 73 9c 06 be
       -0.14518198 -0.11999847 -0.068617605 -0.13145618
000200 0b 18 28 3e 40 80 07 bd a8 72 28 3e f4 77 92 3d
       0.16415422 -0.033081293 0.16449988 0.071517855
000210 2d ee 30 be d2 9c 00 3e 5c 40 65 bd 2a 23 95 bd
       -0.17278357 0.12559822 -0.05596958 -0.07282098
000220 4f 8f 30 be ac ab 4c be dd 65 8d 3d 56 39 32 bd
       -0.17242168 -0.19987363 0.069041945 -0.04351171
000230 c9 7a a8 3d 1e 36 29 be b9 b9 0c 3e b4 c6 11 be
       0.082265444 -0.1652455 0.13742723 -0.14235955
000240 8f 49 6e bc 22 1f 1a 3d cf 31 a2 3d 4b 5e 1b 3e
       -0.014543905 0.037627347 0.079196565 0.15172689
000250 82 d7 3c 3e b5 1f 23 be ec 0d 5a 3d 07 6a a5 bd
       0.18441585 -0.15930064 0.053235933 -0.08076864
000260 37 4b b2 bc af 03 1d be 31 e6 32 3e 98 56 05 be
       -0.02176438 -0.15333436 0.17470624 -0.13021314
000270 a6 df c4 3d 49 42 6a 3d 3a 6d 7d 3d 09 84 e7 bd
       0.0961297 0.05719212 0.061871745 -0.113044806
000280 4a 5e 43 3e f3 3a f5 3c 26 d0 8d 3c 48 24 27 be
       0.19078937 0.029935336 0.017311167 -0.16322434
000290 f4 21 a6 3d 68 4d 06 bd af 57 9e bd 41 09 27 3e
       0.08111945 -0.032788664 -0.07731568 0.16312124
0002a0 39 a0 38 3d 2a 8d e6 bd 19 41 e0 bd a7 31 b7 bb
       0.045074675 -0.11257394 -0.109499164 -0.005590636
0002b0 33 2c c2 3d fc b0 02 bd 19 82 fc bd dd 20 ad bd
       0.094810866 -0.031907067 -0.12329502 -0.08453534
0002c0 b7 30 01 be 20 a6 93 3d ce 9f 25 3e 94 5c 3f be
       -0.1261624 0.0720942 0.16174242 -0.1868766
0002d0 da ec 55 3d fc 28 ca 3d 73 7f d5 3c 6d 23 9e bd
       0.052227832 0.098710984 0.02606175 -0.07721601
0002e0 05 97 eb 3d 5a c2 d3 3d 62 8a 9a 3d 4c 27 16 bd
       0.11503414 0.10339804 0.07545926 -0.03665857
0002f0 9a 9a 51 bd f5 87 83 3c 5b 60 df bc a9 ed 7c bd
       -0.05117283 0.01605604 -0.027267626 -0.061750088
000300 7c fd 02 3e 2c 2d 34 3e 85 8e 12 bd cc b2 3f bd
       0.12792009 0.17595357 -0.03578045 -0.046801373
000310 6c 9a 58 3c 35 b1 ab bb d3 03 62 3d 29 fb 26 3d
       0.013220411 -0.0052396306 0.05517943 0.04076687
000320 b8 1d 22 be 00 bb aa bd f6 98 1c 3e 09 4d 70 3d
       -0.1583165 -0.08336449 0.15292725 0.058667216
000330 12 35 91 bb 28 6e ee bd 01 e7 fb bd 7d df 18 be
       -0.0044313753 -0.116421044 -0.1229992 -0.14929004
000340 dd 46 21 bd ca 67 4d 3d fc 63 05 3e 75 17 9a 3d
       -0.03937422 0.05014781 0.13026422 0.07524005
000350 9c de 47 be de 4f c2 bd 04 8a 0c bd d5 db 42 3e
       -0.19518512 -0.0948789 -0.03431131 0.19029172
000360 13 dd fc 3c 25 78 94 bd 8a 68 da 3d d7 8a 96 bd
       0.030867135 -0.07249478 0.106644705 -0.073507
000370 c7 c3 01 be 6b 61 15 3e 32 dc cd bd 6f fc 23 bd
       -0.1267234 0.14587943 -0.100517645 -0.04003566
000380 b5 5f 3b be d4 98 10 3e 1b 55 15 3e bd 95 b4 3d
       -0.18298228 0.141208 0.14583246 0.08817623
000390 82 8e 07 be e1 86 3c be 0e 76 25 be d7 25 03 3e
       -0.13237956 -0.18410827 -0.16158316 0.12807404
0003a0 3e 0e db 3d 63 b9 2b 3e 3d 94 e2 3d 53 9c 24 3d
       0.10696076 0.16769938 0.110634305 0.040188145
0003b0 d3 fb e3 ba fd 0f 22 be e0 ba 2e be bf 22 38 be
       -0.0017393775 -0.15826412 -0.17063475 -0.17982005
0003c0 6b 17 9d 3d 5d 9a b4 bd 91 ff 43 bd 71 92 e1 bd
       0.07670482 -0.08818505 -0.04785115 -0.110142596
0003d0 99 10 3c bd 47 e7 1e be f4 85 f2 bd 9e a4 96 3d
       -0.045914266 -0.15517913 -0.11841956 0.07355617
0003e0 09 86 3e bd 79 96 e2 3d b9 e6 9e bd 07 6a 07 be
       -0.046514545 0.11063857 -0.077588506 -0.1322404
0003f0 46 5f 1d bd 78 12 db bd fe 03 86 bd 44 e1 41 be
       -0.038420938 -0.10696882 -0.0654373 -0.18933588

network.0.bias f4 [256]
000000 49 30 a0 3d c2 35 a1 3c d1 91 29 3d fb 14 b1 bd
       0.0782171 0.019678954 0.041398827 -0.0864658
000010 22 83 4b 3d cd 3b e4 38 13 e2 cc bd 85 8f c6 3d
       0.049685605 0.00010883026 -0.10004058 0.09695343
000020 e1 07 52 b7 b9 94 8a b8 c1 49 99 3d fb cb 31 3d
       -1.251881e-05 -6.6080545e-05 0.074847706 0.04340742
000030 c3 3d b0 3d e2 81 c0 bd e0 44 d5 3d 4f 83 f3 b9
       0.0860553 -0.09399773 0.104135275 -0.00046446404
000040 79 f9 44 36 e8 32 8a bd 7f 96 d9 bc dd 8e ce 3d
       2.9351488e-06 -0.06747991 -0.02656102 0.10085843
000050 b0 30 76 3d 74 f6 87 3d fa 1d 8a b8 03 4f f1 bc
       0.060105026 0.06638804 -6.585936e-05 -0.029456621
000060 88 ad f9 b9 3b 9a 92 bc e0 e3 35 bd 25 47 0a 3b
       -0.00047622272 -0.017895808 -0.04440677 0.0021099534
000070 12 b5 89 3d bb 85 83 bd 3b 1c ae bd ab e1 8c 38
       0.067239895 -0.064219914 -0.08501478 6.717754e-05
000080 e2 9d 89 bb ec eb d5 bc 19 60 74 39 b8 62 43 38
       -0.0041997293 -0.026113473 0.00023305452 4.6583562e-05
000090 c7 45 81 b8 9a 14 74 3d e8 b8 ed 3c 53 08 d4 3a
       -6.1641964e-05 0.05958996 0.029018834 0.0016176797
0000a0 df 44 01 bb 9c 01 f1 b7 a9 1d 34 3d d4 03 9c 38
       -0.0019724888 -2.8730188e-05 0.0439736 7.439373e-05
0000b0 7f 44 cc bd 44 cf e3 b7 dc 95 c8 3c 61 5b bb 39
       -0.09974002 -2.7157024e-05 0.024485521 0.00035735502
0000c0 82 d0 f2 b5 0b 93 94 b8 5b 91 1d 3d e5 b6 98 3d
       -1.8091089e-06 -7.084579e-05 0.0384687 0.07456759
0000d0 d6 da 89 bd ea 40 3b 3d d2 9e 1e 3c 70 ac 83 3b
       -0.06731193 0.045716204 0.00968142 0.004018359
0000e0 dc 20 ff bc 79 5d 01 bd 0b e8 d6 3d 0e 8b c1 b9
       -0.031143598 -0.031583283 0.104934774 -0.00036915432
0000f0 e1 0e dd 39 43 c1 57 39 07 88 42 3d ee 11 e4 39
       0.0004216349 0.00020575993 0.047493007 0.00043500907
000100 2b ba 46 3d 8b 8f 81 b9 95 e4 f8 b9 4f 78 85 b9
       0.048517387 -0.00024711745 -0.00047472553 -0.00025457374
000110 e2 1d bb bc 82 97 b3 b7 6d 92 32 b9 f3 42 d1 bd
       -0.022841398 -2.1409014e-05 -0.0001702995 -0.10217848
000120 a2 99 0a 39 c8 b7 0f b8 4c f3 97 3d 45 58 d7 b9
       0.00013217938 -3.4265016e-05 0.07419452 -0.00041073762
000130 c8 95 a1 bd 7c cd 1b ba ca cf d5 3d 02 84 4b b7
       -0.07889897 -0.00059434003 0.10440023 -1.2130478e-05
000140 71 f1 7d 3d 6b e7 ef b8 bd 6f 39 3d 97 76 44 bc
       0.061997835 -0.00011439513 0.045272578 -0.011991165
000150 53 ea d2 3d 5c 43 a2 b9 b5 25 75 39 e2 26 84 3d
       0.102986 -0.00030949234 0.00023379068 0.06452729
000160 20 20 a5 3c 66 5a 44 bd 29 75 28 b8 d6 46 63 3d
       0.02015692 -0.047937773 -4.0163435e-05 0.055487476
000170 3d 55 e3 b9 c9 c7 e0 ba bc fa 35 bd b5 c4 57 bd
       -0.0004336032 -0.0017149384 -0.044428572 -0.05267783
000180 ff de ef 3c 8c 0d 72 3c bf ed ae bd 9b b1 7c 39
       0.029281138 0.014773738 -0.0854144 0.00024098756
000190 5b 85 d0 b9 32 6c ae bd a0 f0 a5 3d 7d 78 f2 38
       -0.0003977221 -0.0851673 0.08102536 0.00011561902
0001a0 9f c7 18 bc 94 ed fa b8 b4 e9 a1 3b 68 8d da b9
       -0.009324937 -0.00011965181 0.0049411897 -0.00041685556
0001b0 99 1c c6 3d 87 b5 f8 3c c5 09 4c 38 da f5 27 39
       0.09673423 0.030359996 4.864649e-05 0.00016017948
0001c0 aa 2d f5 b9 2f 14 08 bc c9 21 a4 bd 90 3b ec 38
       -0.00046764064 -0.008305593 -0.080142565 0.00011264451
0001d0 d4 82 dc bb f8 b9 c4 bd 58 2c 95 3b fd 20 31 bc
       -0.006729463 -0.09605783 0.0045524053 -0.010811088
0001e0 81 84 c9 3d 36 db 97 3b 22 02 3d 3c 73 f3 0a 3a
       0.09839726 0.0046342863 0.011536153 0.0005300559
0001f0 27 e8 f9 3b 74 b3 2e 3d 72 e3 6f 3d 8e 66 f4 37
       0.0076265517 0.04265161 0.058566518 2.9134822e-05
000200 34 d8 81 b9 96 b2 d7 b8 47 64 6f bc ff 37 86 b7
       -0.0002476588 -0.00010285263 -0.01461131 -1.600012e-05
000210 87 31 10 3a 86 6d 66 3c 26 39 cd bd 70 c0 f0 3b
       0.0005500544 0.014064198 -0.10020666 0.007347159
000220 b7 9a f0 bb a1 9f 5a bd 28 07 3d bc e4 6e ac b6
       -0.007342662 -0.05337489 -0.011537351 -5.138909e-06
000230 04 60 a4 3c 8d 98 b0 bd 1f 18 b4 b8 b7 70 b4 3d
       0.020065315 -0.08622847 -8.587562e-05 0.08810561
000240 f9 3e fb bc 7e 77 f9 b9 7c 61 11 bc f0 b6 ee b9
       -0.030669676 -0.0004758201 -0.00887334 -0.00045531197
000250 f0 d6 4a 3c 67 89 1e bd e2 f1 f9 b9 cd 2d d5 3d
       0.012380347 -0.038705256 -0.00047673198 0.104091264
000260 e7 49 a4 37 85 71 5e bd e5 d0 be b6 b9 fd d4 b9
       1.9584737e-05 -0.05430748 -5.68676e-06 -0.0004062483
000270 7d 00 a6 3a 32 dd 38 b8 6e 98 b4 39 ad c2 a9 bc
       0.001266494 -4.4075023e-05 0.00034445844 -0.020722711
000280 e7 ae 32 3d 34 28 fb bc de 1c 57 bb 19 6c 3e 3d
       0.04362383 -0.030658819 -0.0032823603 0.04648981
000290 3b 76 8b bc f3 a3 a2 b7 06 a1 0b bc 2a 05 af bd
       -0.01702415 -1.938825e-05 -0.008522278 -0.08545907
0002a0 e3 b6 98 3c 95 c3 60 bc cc 65 82 bc be 5d d3 39
       0.018641895 -0.013718505 -0.015917681 0.000403149
0002b0 0d de e9 b7 b2 ef ab 3d 7c 54 ae 3d de a1 09 b6
       -2.7879165e-05 0.08395328 0.08512208 -2.050881e-06
0002c0 5f 6b a4 bd 3a 6d 67 38 26 30 3f b7 e9 98 9f 3d
       -0.08028292 5.5176417e-05 -1.1395698e-05 0.07792837
0002d0 27 01 86 39 1f da c2 bd 9d ae a7 3b a9 d4 ce 39
       0.0002555933 -0.095142595 0.005117251 0.00039449826
0002e0 8a c3 80 3b 41 1b 73 3a 79 a7 94 3b a1 7d ec 3c
       0.00392956 0.00092737755 0.004536566 0.028868498
0002f0 24 52 58 bd 46 a2 94 bd 1c 98 c1 3d 41 4a b9 3d
       -0.05281271 -0.07257514 0.09452841 0.09047366
000300 88 e8 04 bc 1c 8c c9 3d d5 51 11 b9 e4 5e 8b 39
       -0.00811208 0.09841177 -0.00013858762 0.00026582845
000310 e3 3f de bc 9b d1 d2 bc db 39 90 3d a2 a5 1d bd
       -0.027130073 -0.025734713 0.07042285 -0.038488038
000320 09 e5 1f bc ff db d7 3d f8 e8 9f bc 1b 7e d3 3d
       -0.009759196 0.10540008 -0.019520268 0.10326787
000330 40 f5 65 3c 94 7d a8 3c 4f 6d ee b9 a5 6a b5 b8
       0.014035523 0.020567693 -0.0004547634 -8.650617e-05
000340 43 69 64 3c f3 9f 4f 3a 40 23 e3 bc 7b 02 98 bd
       0.013941112 0.00079202576 -0.02772677 -0.07422348
000350 e5 fa 93 bd 6e 78 96 38 e3 f8 ac 39 85 60 2a bd
       -0.07225589 7.174989e-05 0.00032991832 -0.041595954
000360 33 98 f9 37 e4 a1 04 3d f8 60 0c 3d b8 2a c6 bb
       2.9753986e-05 0.032380953 0.034272164 -0.006047573
000370 af a2 f1 b9 27 1e af bd 66 2e 65 3d 73 11 8f bd
       -0.0004608831 -0.08550673 0.055952452 -0.0698575
000380 75 a7 0b b8 65 38 d1 ba c0 f5 99 bd bf c8 a7 bd
       -3.329614e-05 -0.0015962241 -0.07517576 -0.08192586
000390 fd 22 30 bd 68 c6 69 bd c6 15 82 3d 94 07 50 b9
       -0.043002117 -0.05707398 0.06351809 -0.00019839249
0003a0 30 3f 41 bd 95 4b a8 36 5b da 6f bc c6 69 1f b9
       -0.0471794 5.015589e-06 -0.014639462 -0.00015202825
0003b0 2a 47 a5 3d 27 9a ad bd c6 7d a8 bd 20 2b f1 b9
       0.08070214 -0.08476668 -0.082271144 -0.00045999233
0003c0 f5 7f 55 3d 8b c3 c6 bd 22 96 d1 3a f4 11 d6 3d
       0.052123982 -0.097052656 0.0015990178 0.10452643
0003d0 54 5a 56 b9 c1 9a 0d bd ed 3b a2 3c 5a 15 fb 3c
       -0.0002044228 -0.034571413 0.019803965 0.03064983
0003e0 9b e5 d4 38 13 05 95 bd 7b 09 da b7 e1 a0 33 bd
       0.00010151715 -0.072763585 -2.599204e-05 -0.043854598
0003f0 60 f6 a2 bd 0b ee 23 3d 46 6d 4e 3d 5a 70 10 3c
       -0.079571486 0.040021937 0.05039718 0.008815849

network.1.weight f4 [256]
000000 e0 4f 7f 3f 5c d6 7f 3f 49 88 80 3f 80 2b 7f 3f
       0.99731255 0.9993646 1.0041591 0.9967575
000010 7c 12 7a 3f 53 09 80 3f cc c7 7f 3f f3 1b 7e 3f
       0.97684455 1.0002846 0.9991424 0.992614
000020 c7 5f 81 3f b1 de 7d 3f b3 77 7c 3f 9e 9f 80 3f
       1.0107354 0.99167925 0.98620147 1.0048711
000030 2b 32 80 3f f0 f3 7d 3f 16 f5 79 3f 3e 30 77 3f
       1.001531 0.99200344 0.97639596 0.96557987
000040 6c fa 7a 3f 99 43 7d 3f 8d 98 7d 3f f5 b1 80 3f
       0.98038363 0.9893127 0.990609 1.0054308
000050 5d 78 80 3f 64 99 7f 3f 17 3d 7f 3f cd 3f 7c 3f
       1.0036732 0.9984343 0.9970259 0.9853485
000060 5c 6a 7c 3f c9 07 7d 3f 3f 16 7e 3f 4e 52 7b 3f
       0.9859979 0.98840004 0.99252695 0.9817246
000070 ab 47 82 3f ab 2c 7e 3f a6 d2 7f 3f 57 6e 7e 3f
       1.0178121 0.9928691 0.999308 0.99387115
000080 06 69 7f 3f 83 89 80 3f de 6d 7e 3f f7 ce 7d 3f
       0.9976963 1.0041965 0.99386394 0.9914393
000090 01 6f 80 3f 41 65 7e 3f eb 2c 82 3f 8a 35 7c 3f
       1.0033876 0.9937325 1.0169958 0.98519194
0000a0 d2 1f 80 3f 4e dc 7f 3f 60 d7 7e 3f 34 f9 7b 3f
       1.0009711 0.99945533 0.99547386 0.9842713
0000b0 2e e6 7c 3f a8 1a 81 3f de f4 80 3f d9 46 81 3f
       0.98788726 1.008626 1.0074728 1.0099746
0000c0 80 7e 7d 3f 33 91 7d 3f ba 85 80 3f 7d c1 80 3f
       0.9902115 0.9904968 1.004081 1.0059048
0000d0 84 81 7f 3f 34 30 7f 3f 0e 14 80 3f 11 6a 7d 3f
       0.99807 0.9968293 1.000612 0.9898997
0000e0 4c c0 7e 3f 57 8b 7d 3f ed 3b 80 3f e6 0e 7d 3f
       0.9951217 0.9904074 1.0018288 0.9885086
0000f0 9e 0d 80 3f 13 c3 81 3f 38 83 7b 3f 9d b2 7c 3f
       1.0004156 1.0137657 0.982471 0.9871004
000100 75 1f 81 3f 68 4f 7b 3f 64 55 80 3f 4f b7 82 3f
       1.0087725 0.9816804 1.0026059 1.0212191
000110 7e 41 7e 3f 11 b7 80 3f 74 34 81 3f 04 7f 80 3f
       0.99318683 1.0055867 1.0094132 1.0038762
000120 b6 6c 7d 3f a7 cd 81 3f c9 b6 7d 3f f3 c5 7b 3f
       0.98994005 1.0140885 0.99107033 0.9834892
000130 02 80 79 3f 56 03 7f 3f 38 66 80 3f fc d5 79 3f
       0.9746095 0.99614465 1.0031195 0.9759214
000140 8a fd 7f 3f 69 41 7d 3f b4 36 7a 3f 54 69 7c 3f
       0.99996245 0.9892793 0.9773972 0.9859822
000150 6d 5a 81 3f 3c 78 79 3f 09 99 80 3f 1f cc 80 3f
       1.0105721 0.9744909 1.0046703 1.0062293
000160 45 09 7c 3f cd 33 7e 3f 91 06 7a 3f 76 f8 79 3f
       0.98451644 0.9929779 0.9766627 0.97644746
000170 9d c7 7e 3f b9 6c 7d 3f f8 19 7e 3f 30 9a 7f 3f
       0.99523336 0.9899402 0.99258375 0.99844646
000180 bb 70 80 3f ae ff 7c 3f 73 31 79 3f ba df 7b 3f
       1.0034403 0.98827636 0.9734108 0.98388255
000190 6a 07 7e 3f bc 08 7c 3f 07 c5 7d 3f 64 5f 7b 3f
       0.9923006 0.9845083 0.99128765 0.9819243
0001a0 14 d3 7d 3f 44 35 7e 3f dd f8 7a 3f cf ca 7e 3f
       0.99150205 0.99300027 0.98035985 0.9952821
0001b0 e2 40 7f 3f 3f 82 7c 3f 23 7b 7d 3f 95 0a 7e 3f
       0.9970838 0.9863624 0.99016017 0.99234897
0001c0 f9 58 7c 3f 1c f8 7f 3f aa 64 79 3f 3e e8 78 3f
       0.9857326 0.9998796 0.97419226 0.97229373
0001d0 23 91 7d 3f a7 cd 7d 3f dd 9d 7d 3f 7c 6b 80 3f
       0.99049586 0.99141926 0.99069005 1.0032802
0001e0 95 cb 7e 3f 2c 5c 80 3f c6 51 80 3f 37 29 7d 3f
       0.9952939 1.0028129 1.0024955 0.98891014
0001f0 02 e7 7c 3f 54 dd 78 3f 2b b0 7b 3f 63 1a 7f 3f
       0.9878999 0.9721272 0.98315686 0.9964964
000200 47 76 7f 3f ec 1c 7b 3f 20 11 7c 3f 72 33 83 3f
       0.9978985 0.98091006 0.9846363 1.0250075
000210 aa 01 7e 3f a5 46 81 3f da 15 7d 3f b5 9a 7a 3f
       0.9922129 1.0099684 0.9886147 0.97892314
000220 8e 42 82 3f 31 97 7b 3f 6c 90 80 3f 1a 52 7c 3f
       1.0176561 0.98277575 1.0044074 0.9856278
000230 8f 53 81 3f e1 02 7e 3f 54 76 7e 3f 8d 6c 7c 3f
       1.0103625 0.9922314 0.99399304 0.98603135
000240 8e fa 7d 3f e1 03 7f 3f c9 01 7c 3f 65 f6 7f 3f
       0.9921044 0.99615294 0.98440224 0.99985343
000250 81 35 7e 3f 39 7c 7d 3f a1 f3 7b 3f b2 6f 7c 3f
       0.9930039 0.99017674 0.98418623 0.98607934
000260 4b d6 7d 3f b4 10 7d 3f 39 fe 78 3f cb 6e 83 3f
       0.9915511 0.9885361 0.97262913 1.0268186
000270 1b 58 7f 3f 74 87 7d 3f a2 39 7e 3f 46 4e 7c 3f
       0.99743813 0.9903481 0.9930669 0.98556936
000280 e2 82 7d 3f c0 8c 80 3f 17 8a 7e 3f 0a 4b 7f 3f
       0.99027836 1.0042953 0.9942946 0.99723876
000290 6e 05 7c 3f f0 06 82 3f d8 65 80 3f c5 58 7d 3f
       0.98445785 1.0158367 1.003108 0.98963577
0002a0 c7 42 80 3f ba 63 7d 3f 11 0f 80 3f 89 7e 7e 3f
       1.0020379 0.98980296 1.0004598 0.9941183
0002b0 4d 3b 7e 3f 74 97 7b 3f 4b a6 7d 3f 97 af 7f 3f
       0.99309236 0.98277974 0.9908187 0.99877304
0002c0 60 c2 7e 3f e8 67 7d 3f c0 cb 81 3f 4e 8f 7c 3f
       0.9951534 0.98986673 1.0140305 0.98656166
0002d0 fa 88 7f 3f b0 03 7e 3f c5 0d 7f 3f 3d 82 7e 3f
       0.99818385 0.99224377 0.99630386 0.9941748
0002e0 cf 96 80 3f 55 a0 7e 3f e3 12 80 3f ac c5 81 3f
       1.0046023 0.994634 1.0005764 1.013845
0002f0 b5 78 7e 3f a4 28 80 3f 23 c1 79 3f d3 38 7c 3f
       0.99402934 1.0012403 0.9756033 0.98524207
000300 63 ba 7a 3f f0 4c 7e 3f e5 58 7d 3f a1 09 81 3f
       0.97940654 0.9933615 0.9896377 1.0081064
000310 8f af 7f 3f 13 31 7e 3f d4 50 7e 3f dd 0b 7a 3f
       0.99877256 0.9929363 0.99342084 0.9767435
000320 cf 2b 81 3f 94 37 80 3f 75 40 79 3f 69 5a 7c 3f
       1.0091494 1.0016961 0.9736398 0.98575455
000330 89 42 7f 3f dd 19 7d 3f 07 2c 7c 3f 3b 87 7c 3f
       0.997109 0.9886759 0.9850468 0.98643845
000340 64 2e 78 3f 53 ec 7d 3f 16 1a 7e 3f 89 09 7c 3f
       0.96945786 0.9918873 0.99258554 0.9845205
000350 b1 d3 81 3f 7c 1a 7b 3f 54 4a 7e 3f 45 55 7b 3f
       1.0142728 0.98087287 0.99332166 0.98176986
000360 52 1f 7d 3f ec 29 7d 3f 28 29 81 3f d7 9a 7d 3f
       0.98875916 0.9889209 1.0090685 0.9906439
000370 ba 1c 7a 3f e1 4a 7c 3f 08 a5 7f 3f e9 f2 81 3f
       0.97700083 0.98551756 0.9986119 1.0152255
000380 b0 48 7c 3f d6 80 80 3f ee 82 7d 3f be be 80 3f
       0.9854841 1.0039318 0.9902791 1.005821
000390 80 fb 7b 3f e3 3c 7f 3f 16 cd 80 3f c5 94 7e 3f
       0.98430634 0.9970228 1.0062587 0.99445754
0003a0 de 22 7c 3f d4 6b 7b 3f d1 aa 7d 3f f4 c5 80 3f
       0.98490703 0.9821141 0.9908877 1.006041
0003b0 c5 92 81 3f 21 9e 7b 3f 94 c1 80 3f 07 4a 7f 3f
       1.0122916 0.9828816 1.0059075 0.9972233
0003c0 53 46 7d 3f 47 aa 7c 3f f8 0d 80 3f 9b 9f 7f 3f
       0.9893543 0.9869732 1.0004263 0.99852914
0003d0 36 f1 7b 3f 57 de 7d 3f 83 43 7b 3f 58 a6 80 3f
       0.98414934 0.9916739 0.9814989 1.0050764
0003e0 4d 3a 7f 3f 37 00 7c 3f e5 21 7c 3f fa d0 7d 3f
       0.99698335 0.9843783 0.9848922 0.99147
0003f0 7d 07 81 3f f8 4c 81 3f ed 26 7c 3f 7f 5a 7e 3f
       1.008041 1.0101614 0.98496896 0.99356836

network.1.bias f4 [256]
000000 ed 27 f9 3b 4e 2c 86 3c e3 de 73 3c 2e 9d 25 bb
       0.0076036365 0.016378548 0.014884683 -0.0025270688
000010 61 db 95 bc 98 7d 0d bc 69 74 08 bc e5 52 03 bc
       -0.018293085 -0.008635901 -0.008328536 -0.008015369
000020 5f 75 95 3c 35 54 2a bc ed 5c dc 3b d8 32 63 3c
       0.018244443 -0.010396053 0.006724945 0.013867103
000030 20 0c a9 3c ee cc 11 bc 43 0c ab bc b9 9a 81 bc
       0.020635664 -0.008898957 -0.02087987 -0.015820848
000040 af 55 a9 ba 72 16 c1 39 39 08 59 3c 09 7f ac bb
       -0.0012919212 0.00036828552 0.013246589 -0.005264167
000050 36 91 83 3c c8 b5 98 3b f3 aa 1c bb a0 71 ed 3b
       0.016060453 0.004660342 -0.0023905605 0.007246211
000060 34 8c 32 bc a6 8b 96 bc 3d 93 38 3c 13 88 90 bc
       -0.010897685 -0.018377136 0.011265573 -0.01764301
000070 28 05 6c 3c bf 2b 47 3c 02 39 53 3b b0 db 36 bc
       0.014405526 0.012156426 0.0032230024 -0.011160776
000080 df 39 d4 3b b9 fc a0 3c 12 20 c7 ba 4b 6c f3 3b
       0.0064766253 0.019651758 -0.0015192053 0.007428681
000090 39 05 55 b9 3f 3b a2 3b ee 43 4f 3c 9d 40 cd bb
       -0.00020315209 0.0049509103 0.012650473 -0.006263806
0000a0 6c a5 ba 3b 85 aa 12 3c 43 f1 14 bc 68 86 48 3c
       0.0056959894 0.008951788 -0.009090724 0.012239076
0000b0 90 a6 93 bb 75 04 1f 3b 5a 03 12 3c c3 9a 7b 3b
       -0.00450594 0.0024264131 0.008911932 0.0038391806
0000c0 f5 1d 81 3c 54 48 7c bc 5f ee 46 3b 12 e5 c4 3b
       0.015761355 -0.015398104 0.0030354483 0.0060087526
0000d0 53 f0 59 3b c0 6b 07 3b 0c c3 9a 3b f2 38 a4 bc
       0.0033254817 0.002066359 0.0047229584 -0.020046685
0000e0 f8 5e 86 bc 1b 0b 3a 3c 2f b1 0d 3b 31 83 72 bc
       -0.016402707 0.011355187 0.0021620502 -0.014801786
0000f0 5d ec 03 bc 6e 40 1b 3c 93 7e 02 bc 4d ce e5 bb
       -0.008051959 0.00947581 -0.007964748 -0.0070131184
000100 ad 21 60 bc 47 0b bb 3b aa 51 96 3b 58 49 81 3c
       -0.013679904 0.0057081315 0.004587372 0.015782043
000110 85 a6 bc bb 39 2d 94 3b cf f5 6f 3c b6 08 49 3c
       -0.0057571554 0.0045219925 0.014646008 0.012270143
000120 55 31 aa 3b 6b 7f 7a 3c 91 7e 35 3b 01 cf 1c bb
       0.005193869 0.015289168 0.0027693848 -0.0023927095
000130 19 ed bf bc ad df 53 3c af 1e 4d bc 47 d2 43 bc
       -0.023428487 0.012931746 -0.012519523 -0.0119519895
000140 40 ea 10 3c 07 32 49 bc e2 01 da ba 3a 61 24 3c
       0.008844912 -0.012279994 -0.0016632641 0.010032946
000150 a2 ed a1 39 df a5 58 bc 27 09 c0 3c 18 4a 3a 3c
       0.00030885363 -0.0132231405 0.023441864 0.011370204
000160 5b 5c 54 bc 27 ab 56 3b 17 9b 7c bc 09 c4 2e bc
       -0.012961472 0.0032755823 -0.015417836 -0.010666856
000170 99 4f d3 ba 0b e8 c3 3b a2 08 a5 3b be 54 23 bc
       -0.0016121744 0.0059785894 0.0050364295 -0.009968935
000180 11 e5 bc bb 56 a0 3b bc c5 c1 8d bc 18 14 16 bd
       -0.0057646115 -0.011451801 -0.01730431 -0.036640257
000190 38 77 41 bc cb 37 7e bc fc a5 ff 3b 93 2e 7a bc
       -0.011808209 -0.015516232 0.0078017693 -0.015269893
0001a0 f6 8b 3e bc ba e3 5f bc f8 93 07 bc e9 9b 75 3c
       -0.011630049 -0.013665134 -0.008275025 0.014990785
0001b0 40 b3 28 bb 9d b7 02 bc 0d 40 20 3c cb 3b 1d 3c
       -0.0025741607 -0.007978347 0.009780896 0.009596775
0001c0 28 f7 da ba 60 4a aa 3b f1 be 10 bc 4b 63 26 bc
       -0.0016705738 0.0051968545 -0.0088345865 -0.010155509
0001d0 b5 0f aa ba 4b fd 30 bc 60 a0 0c 3c ea 84 63 3c
       -0.0012974652 -0.010802577 0.008583158 0.01388667
0001e0 ad 18 46 bb 5c 7e 06 3c 7c f8 9a 3c 88 6f 2c 3b
       -0.003022711 0.008208837 0.018917315 0.0026311595
0001f0 78 b5 34 bc cc 42 f1 bc 43 d2 3f 3c f5 4c b0 bb
       -0.011029594 -0.029450797 0.011707845 -0.0053802677
000200 eb 23 33 3b b7 e3 5e bc 24 0e 4e bc bc ed a8 3c
       0.0027334641 -0.013604096 -0.012576614 0.020621173
000210 f3 59 8b bc 3f bb ff 3b e7 62 4f 3a 48 9d bd bc
       -0.017010665 0.007804304 0.0007911161 -0.023146287
000220 94 c8 20 3b 47 e1 12 bc 33 3d 96 bc cb b4 72 bc
       0.0024533616 -0.008964843 -0.018339729 -0.014813612
000230 43 45 84 3c 26 b3 3e 3a bc f8 45 bc 5f 7a a3 3b
       0.016146308 0.000727462 -0.012083229 0.004988953
000240 92 3e 03 3c a0 c1 4c bb 80 d5 8c bc b0 5a 3a 3c
       0.008010523 -0.003124334 -0.017191648 0.011374161
000250 cc 2a 03 3c d3 23 9d 3b 7a d6 47 bc 51 42 c1 bc
       0.008005809 0.0047955303 -0.012197131 -0.023591192
000260 ea 32 3e 3b c8 13 96 bc 4a ce 67 bc 66 95 52 3c
       0.0029022046 -0.01831998 -0.014148304 0.012853002
000270 76 8d 13 bb 85 97 6b bc 26 ee da ba 81 b0 59 bc
       -0.0022514737 -0.014379387 -0.0016703054 -0.013286711
000280 91 2e 2f 3c 7d 97 7f 3c 1a 68 96 bb 22 41 b2 b9
       0.010692255 0.015600082 -0.0045900466 -0.00033999333
000290 f2 88 2f bc eb aa ff 3b f8 3e 00 3d c3 03 42 bc
       -0.010713803 0.0078023574 0.03131005 -0.011841717
0002a0 d2 5e dd bb 0c d9 ce bb 5f 45 46 3c aa 07 b6 3c
       -0.006755688 -0.006312495 0.0121015 0.022220451
0002b0 d9 fa 61 bc 92 04 6b 3b a8 34 25 3c be 77 87 bc
       -0.013792717 0.0035860878 0.010083355 -0.01653659
0002c0 9e 17 16 3c 5b 02 62 bc bd b1 14 3c 30 ef 3f bc
       0.009160904 -0.013794507 0.009075579 -0.011714742
0002d0 ad 03 99 3c 9c e5 7f bb b9 64 32 bb ab c6 5d ba
       0.01867851 -0.003904677 -0.002722068 -0.0008460085
0002e0 7d 0d 97 3b 54 c6 82 bc f0 7c 00 3c 48 07 b2 3c
       0.004609762 -0.01596371 0.007842287 0.021731988
0002f0 10 7e b7 bb f9 d9 75 3b d5 3e 69 bc 4e 1a fa bb
       -0.0055997446 0.0037513955 -0.014236172 -0.0076325303
000300 58 6c f7 bb 96 82 d7 bb 2c 15 83 bb 79 dc 76 3b
       -0.0075507574 -0.0065768464 -0.0040003266 0.0037668033
000310 d6 08 0d bc ee ec be 3b 95 97 22 bb 3f 70 9a bc
       -0.008608064 0.005826584 -0.0024809588 -0.018852351
000320 ac d6 62 3a 90 89 9c 3b c8 86 66 bc bd e8 21 bb
       0.00086532044 0.004777141 -0.01407022 -0.0024705373
000330 23 ae ee bb fa 7e 66 bc d8 7e 78 bb a4 11 1f bc
       -0.0072839423 -0.0140683595 -0.0037917402 -0.009708796
000340 13 53 9a bc 1a 01 1f bc 35 42 73 bb f6 f4 2a 3c
       -0.018838441 -0.0097048525 -0.003711832 0.01043438
000350 08 f6 2f 3c c0 78 50 bb d5 71 ec 3b da 75 2b bc
       0.010739811 -0.0031810254 0.0072157183 -0.01046511
000360 1c 91 05 3c 93 dc db bb 0a 5d df 3b a2 b9 46 bc
       0.008152273 -0.006709644 0.006816511 -0.012129219
000370 33 00 e2 bb e1 3b 44 bb 74 6c c5 3b b3 f1 9a 3b
       -0.0068969964 -0.0029942917 0.0060248915 0.00472852
000380 36 b9 10 bc ed 3b 2e bb 31 75 fd 3b bc e8 8a bb
       -0.00883322 -0.0026586012 0.0077349176 -0.00423917
000390 c2 c0 1e bc 0f 9c 26 3c 43 c6 2a bc 58 32 94 3c
       -0.009689512 0.010169043 -0.010423246 0.018090412
0003a0 dd 16 8c bc 4b 16 d7 3b 97 ba b1 bb 8d 66 b1 b9
       -0.017100746 0.006563937 -0.0054238546 -0.00033836477
0003b0 f5 5b 1f bc b1 3a 44 bc 4b 43 13 3a f2 4f ad bb
       -0.009726514 -0.011976884 0.00056176324 -0.0052890712
0003c0 fc a7 17 bc d2 8b d2 bb f2 df 6b 3b c1 66 8e bc
       -0.009256359 -0.0064253593 0.0035991636 -0.017382981
0003d0 3e 86 ec bc 89 9e cc 3b ed 82 c5 bb b9 48 84 3a
       -0.028872605 0.006244485 -0.0060275705 0.0010092474
0003e0 c8 c7 be 3b aa 47 37 bc f4 b6 ea bb 02 84 17 bc
       0.0058221556 -0.01118652 -0.007162923 -0.009247782
0003f0 7b fa 03 bb 9a 5c d6 3c a9 58 44 bc 1d f3 96 3b
       -0.0020138312 0.026167203 -0.011984029 0.004606618

network.1.running_mean f4 [256]
000000 23 84 60 3e 2f 7f f4 3d 11 b9 23 be 70 a8 71 be
       0.21925406 0.11938321 -0.15988566 -0.2359941
000010 b2 94 ba be cb c6 8e be 6e 8f 86 be df 52 d9 3c
       -0.3644157 -0.27886042 -0.26281303 0.026528774
000020 9f 95 48 3d 9a c0 d9 be 76 cd d4 3d 74 8a 7f be
       0.048970815 -0.42529756 0.10390751 -0.2495516
000030 d5 f9 f0 3d 8e 28 a6 be af 9e b6 3d 11 ac 02 be
       0.11766402 -0.32452816 0.08916985 -0.1276095
000040 1c c0 1a 3e 48 ad 87 be a6 44 af bd 05 a0 e9 bd
       0.15112346 -0.2649939 -0.085580155 -0.114074744
000050 9a 3e 3c 3e b6 d0 a4 3c 86 6f b0 bd d9 48 ad be
       0.18383256 0.020119052 -0.086150214 -0.3384464
000060 47 7e e9 bd 4d 1f 07 3e a9 95 ac 3e a5 f0 3e 3e
       -0.114010386 0.13195534 0.33707932 0.18646486
000070 bc b2 2b 3e 56 80 3a be f5 dd ff bd b4 6e e8 3d
       0.167674 -0.18213019 -0.12493507 0.1134924
000080 d6 2f 4d be fc d9 55 3e 43 fa 61 bd 7b 29 17 3d
       -0.20037779 0.20883936 -0.05517031 0.036904793
000090 4f e4 3c be 1e 25 0d 3e 5d 1e 95 be f0 80 24 be
       -0.18446468 0.1378369 -0.29124728 -0.16064811
0000a0 5f 6e 02 bd 73 34 9e 3d 4d 59 93 3e 2e 96 55 bd
       -0.03184354 0.07724848 0.2877907 -0.052145176
0000b0 70 58 49 3e eb e2 53 3e 80 40 33 3e 1b 76 57 3e
       0.19662642 0.20692031 0.17505074 0.21041147
0000c0 21 9d 6a 3e c3 3c 83 bd 3d de 48 3d 27 8a 0a 3e
       0.22911502 -0.06408074 0.049040068 0.13529263
0000d0 cd 0a a2 bb 0b 01 9f bc d7 ae 2c bd 19 e8 e2 3b
       -0.004945135 -0.019409677 -0.042158928 0.006924641
0000e0 81 04 0a bd 0d b8 b6 3d 06 de 0e 3f de 3a cb 3d
       -0.0336957 0.08921824 0.5580753 0.099233374
0000f0 c7 2f 2c bc ff c5 16 bd 51 22 ae bd a9 e0 9a be
       -0.010509438 -0.036809918 -0.08502639 -0.30249527
000100 8a c4 23 3e c6 22 0f 3b 12 96 3f 3c 81 9b 9b 3e
       0.15992942 0.0021840795 0.011693494 0.30392078
000110 e1 06 65 be 1f 18 09 be 63 36 b7 bc 0d ec 62 3e
       -0.22365905 -0.13388108 -0.0223648 0.22160359
000120 0d f0 eb bd 05 0d b0 bd 8e 9d 13 3e 8b 41 68 3c
       -0.115203954 -0.08596233 0.14415571 0.014175783
000130 04 b8 a5 bd 60 27 da bd 50 7f 24 be 43 09 89 bd
       -0.08091739 -0.106520414 -0.16064191 -0.0669122
000140 6a 96 15 bd 73 55 b1 3e 0e 39 95 bd 3e 13 38 bd
       -0.0365204 0.34635505 -0.07286273 -0.044940226
000150 1b 0a 01 be d4 b2 f5 bd da 5f cc be 41 41 b0 bd
       -0.12601511 -0.119969994 -0.3991688 -0.08606196
000160 a3 3c 63 be 8a ea 20 be 38 e6 63 3d 35 c5 66 bd
       -0.221911 -0.1571447 0.055639476 -0.056340415
000170 a1 f7 9e bd 43 20 54 3e 93 4e 35 3e ea f1 63 be
       -0.07762075 0.20715432 0.17705755 -0.22260252
000180 b8 bd fc bd fe 7f ee 3d c1 ae 8b 3d 51 68 31 3d
       -0.123408735 0.11645506 0.06820441 0.043312375
000190 fc b5 a1 3a 1e 7e 95 3d c5 7e 16 be 91 83 12 3e
       0.0012337561 0.072994456 -0.14696796 0.14308001
0001a0 6e 13 a3 3c b6 a8 9a 3e 05 6f 53 39 af 7d ca 3c
       0.019906726 0.3020684 0.00020163886 0.024718134
0001b0 ae b8 28 bd 6e 3e f4 3d 21 10 1e be 1f 7c 2c bc
       -0.04119175 0.1192597 -0.1543584 -0.01052764
0001c0 53 25 58 3e 3f a8 10 3e 6c 97 84 be e3 71 0d 3d
       0.21107988 0.14126681 -0.25896776 0.03453244
0001d0 f0 50 79 be ec 83 b6 3d a5 bb ce bd e9 c2 be bb
       -0.24347281 0.08911881 -0.10094384 -0.005821575
0001e0 19 70 6b 3d 33 92 b1 3e 95 24 0f be 78 c2 10 3f
       0.05747995 0.34681854 -0.13978799 0.56546736
0001f0 58 b4 af bc f3 b1 bc bd 49 ac 70 3e 08 ac cd bd
       -0.0214483 -0.092136286 0.23503222 -0.10042578
000200 fe 72 76 bd 4f 7b 88 bd ac 40 3e be 9b 8e 69 bd
       -0.06016826 -0.06664144 -0.18579358 -0.057020765
000210 68 09 23 be 3d 44 da bb 5a 15 b8 be 21 0c 8d be
       -0.15921557 -0.0066609667 -0.3595379 -0.27548316
000220 39 a1 09 be c0 ee 2a bd 2a 39 43 bb 6d a4 e6 3c
       -0.13440408 -0.041731596 -0.002978871 0.028154576
000230 f5 52 18 3e 92 e9 cf be 82 eb 3c be 95 06 9d 3e
       0.14875396 -0.40607888 -0.18449214 0.30669084
000240 17 34 18 be 96 e3 91 3c 78 29 80 be 7f 94 5e 3e
       -0.1486362 0.017808717 -0.25031638 0.21736334
000250 90 5f 73 3d 30 89 16 be c3 32 12 be 57 a9 b6 3e
       0.059417307 -0.1470077 -0.14277177 0.3567607
000260 6a 4f a0 bd 30 8a 72 3c 7e 00 57 3c 71 26 17 3e
       -0.07827647 0.014803454 0.013122676 0.14760758
000270 76 13 23 3e 03 8f 93 bc b3 d3 95 3d 0a 96 95 be
       0.15925393 -0.01801253 0.07315769 -0.29216033
000280 90 52 be 3d ce 49 3c 3e 31 39 a5 bd 73 f9 22 bb
       0.09293091 0.18387529 -0.08067549 -0.0024867922
000290 7b 00 95 bd 57 be 10 be 76 ca 67 3e da c7 83 bd
       -0.07275482 -0.14135109 0.22635826 -0.06434603
0002a0 ac 17 33 be 1a c8 dd 38 95 78 b1 be cb e2 91 be
       -0.17489499 0.00010575373 -0.3466231 -0.28493342
0002b0 04 f7 47 be bd 68 05 be 88 8c d9 3e 52 49 ee bd
       -0.19527823 -0.13028236 0.4249003 -0.116350785
0002c0 12 8d 12 be 58 49 c2 be 61 d3 38 3e dd a7 11 3e
       -0.14311627 -0.37946582 0.18049385 0.14224191
0002d0 52 48 b8 3d ab 5e a8 3d fa 7d ac bd af 32 19 be
       0.08998169 0.082211815 -0.084224656 -0.1496074
0002e0 48 29 95 3d 20 f9 af 3b 2a f6 ef 3d d6 f1 ef 3d
       0.072832644 0.005370274 0.11716874 0.117160484
0002f0 ec 27 91 3c 47 b7 44 bd c4 1c 48 3e 4c 34 04 3e
       0.017719232 -0.04802635 0.19542223 0.12910575
000300 c6 fa 01 bd ed 06 c6 3e a4 98 99 3d 02 f1 fe 3d
       -0.031733297 0.3867716 0.07499817 0.12448312
000310 77 11 26 3e 02 c9 07 3e 3c d7 9a 3e 51 ed bf bb
       0.162176 0.13260272 0.30242336 -0.0058571477
000320 2a 08 6f be ee 72 b6 bc 95 1d 86 be 38 e9 cd 3e
       -0.23342958 -0.0222716 -0.26194444 0.40216994
000330 89 09 fc bd 65 b2 ad 3d 55 ff e1 3d eb fe f3 3d
       -0.12306506 0.08481292 0.11035029 0.11913856
000340 51 7a 18 be 01 d8 7d be 64 95 09 be 5a 83 a4 bd
       -0.1489041 -0.2478943 -0.13435894 -0.08032866
000350 a7 6d 7a bd 44 1d 30 3e be e6 7e 3e b0 37 91 bc
       -0.06113973 0.17198664 0.24892709 -0.01772675
000360 21 e8 ce bd 27 6f 47 3e 37 aa f1 bd d3 de 52 3e
       -0.10102869 0.19475995 -0.11800044 0.20592813
000370 f2 34 54 be e0 cf 86 bd f1 b0 77 be ea 04 1b be
       -0.20723322 -0.06582618 -0.24188592 -0.15138593
000380 89 e6 85 be 1a 08 c7 bd 62 3e 8a 3e 30 5d 85 be
       -0.26152447 -0.09718342 0.2700072 -0.2604766
000390 10 5c 12 be dd 81 09 3e 77 5d af be cc d8 83 be
       -0.14292932 0.13428445 -0.34250996 -0.2575134
0003a0 fc 3d 64 be a4 b6 4a 3b ce c0 f9 bd 9c 80 55 bd
       -0.2228927 0.0030931616 -0.12194978 -0.052124605
0003b0 3a 03 24 3e 1b 55 b6 bc e4 58 a1 be 7d 4b 52 be
       0.16016856 -0.022257378 -0.3151313 -0.20536609
0003c0 2e 47 b7 3c ba 9a 34 3e 36 e1 f9 3d 7a 96 a4 3d
       0.022372808 0.17637148 0.12201159 0.080365136
0003d0 e2 19 bd be 12 af 30 3e 61 11 15 be 04 18 f6 3d
       -0.3693381 0.17254284 -0.14557411 0.12016299
0003e0 b9 9d db 3b bd 2e 12 bd 72 ce 57 3e 04 22 18 bd
       0.0067021516 -0.035689104 0.21074846 -0.037141815
0003f0 c6 23 6d bd 30 32 8c 3d 36 02 95 3e 44 3c 2e bd
       -0.057895444 0.0684551 0.2910325 -0.042537943

network.1.running_var f4 [256]
000000 1b 51 c9 3d 52 3a fb 3d 8f 17 0c 3e c2 42 a5 3d
       0.09829923 0.12266983 0.13680862 0.08069374
000010 a7 ae d3 3d a8 bd 97 3d d7 cf 73 3d fe 7d 23 3d
       0.10336047 0.07409221 0.059524383 0.039915077
000020 7a ec de 3d 74 58 65 3d ae 6c 99 3d 8e 2d f3 3d
       0.10884948 0.05599256 0.07491432 0.11873923
000030 a5 96 de 3d bd d5 52 3d 5a d6 c5 3d fe 78 84 3d
       0.10868577 0.051473368 0.09660025 0.0646839
000040 af 8f ad 3d f9 76 00 3e 50 04 15 3e c7 66 d4 3d
       0.08474671 0.12545384 0.14552426 0.10371166
000050 43 15 95 3d 34 79 d8 3d d5 05 cf 3d 3a 30 8b 3d
       0.07279446 0.10569993 0.10108534 0.06796308
000060 3a ba 82 3d 0e 64 a0 3d 0f 70 b6 3d e7 9f b2 3d
       0.06383176 0.07831584 0.08908092 0.08721905
000070 ef 1c e9 3d 41 fb cb 3d 8f d8 92 3d a7 71 7f 3d
       0.11382472 0.09960032 0.071702115 0.062364247
000080 3c 9e a0 3d dd 37 b8 3d 8e 5d fe 3d 24 ba 09 3e
       0.07842681 0.0899503 0.12420188 0.13449913
000090 bf 2f 66 3d f9 6a 90 3d 35 c3 0c 3d e6 7e 3a 3d
       0.056197878 0.070516534 0.03436585 0.045531176
0000a0 57 1a bd 3d e0 3c 06 3e 58 56 f7 3d 84 14 00 3e
       0.092335396 0.1310916 0.12077016 0.12507826
0000b0 ee 3a 09 3e 06 6e 03 3d 42 36 94 3d 84 ff 4f 3d
       0.13401386 0.03208735 0.07236911 0.050780788
0000c0 0e ff c1 3d aa 87 0d 3e c9 87 37 3d 87 21 c7 3d
       0.09472476 0.13821283 0.04480723 0.09723192
0000d0 df 18 bb 3d 02 21 e7 3d 13 ab 1e 3d b7 a2 38 3e
       0.09135603 0.112855926 0.038737368 0.18030821
0000e0 f0 af ad 3d 17 bf b1 3d 20 eb 29 3d 03 ac 2e 3d
       0.08480823 0.086790256 0.041484 0.042644512
0000f0 0f dc 34 3d f1 3c ba 3d 95 b2 83 3d b9 e8 52 3d
       0.044155177 0.09093655 0.06430546 0.051491473
000100 05 91 a2 3d d4 3f d9 3d 21 22 36 3d cf 67 d6 3d
       0.079378165 0.106078774 0.04446614 0.10469019
000110 b2 a4 b9 3d 53 45 01 3e e2 a7 c1 3d 50 fd b4 3d
       0.09064616 0.12624101 0.09455849 0.08837378
000120 d6 e0 6a 3d 46 bd d1 3d c1 8c 8b 3d ac b2 71 3d
       0.057343327 0.10241179 0.06813956 0.059008285
000130 50 72 ab 3d c0 0f 81 3d a0 c1 be 3d 16 06 7d 3d
       0.08371413 0.06301832 0.09314275 0.061773382
000140 67 2a 88 3d 2e 79 2c 3d 02 81 f3 3d 89 39 95 3d
       0.066487126 0.042107753 0.11889841 0.072863646
000150 ef b7 24 3d 2e cb 99 3d 57 25 11 3e d8 6e 88 3d
       0.040214475 0.075094566 0.141744 0.06661767
000160 6b 54 8f 3d e6 43 0d 3e 9c dd 9e 3d f6 47 9c 3d
       0.06998523 0.13795432 0.077571124 0.07630913
000170 8e 96 1a 3e 8a 72 cd 3d 46 7e 83 3d 92 5e 6d 3d
       0.15096495 0.10031612 0.06420569 0.057951517
000180 a1 92 8e 3d d7 ec ec 3d be c3 b9 3d 69 13 ad 3d
       0.06961561 0.11568611 0.09070538 0.08450968
000190 05 05 d6 3d 0e ab 7d 3d 97 30 28 3e 08 35 c1 3d
       0.10450176 0.06193071 0.16424786 0.09433943
0001a0 a7 29 51 3d c3 de 35 3d bd dd 9a 3d 82 23 ae 3d
       0.051065113 0.044401895 0.075618245 0.08502866
0001b0 5c e7 8d 3d 28 fa 5c 3d 78 3c ca 3d 9f df 8c 3d
       0.06928894 0.053949505 0.09874815 0.0687859
0001c0 40 59 52 3d ac 03 9f 3d ef 50 97 3d ca 5a c7 3d
       0.051354647 0.07764372 0.07388484 0.097341135
0001d0 4a 67 f2 3d c9 62 93 3d f0 9d 75 3d 62 f5 ed 3d
       0.11836107 0.07196576 0.059965074 0.11619069
0001e0 22 b0 e9 3c 86 e9 15 3e 32 5c fd 3d c9 85 97 3d
       0.02852637 0.14639863 0.123711005 0.07398564
0001f0 6c 9e 7b 3d 3b 21 73 3d a5 6e 5b 3d 21 ca 03 3d
       0.06143038 0.059357863 0.053572316 0.032175187
000200 a6 f2 c9 3d 08 5c c6 3d 03 32 ab 3d ad 0d a4 3d
       0.09860735 0.09685522 0.08359148 0.08010421
000210 99 83 93 3d d2 b6 e4 3c 9f db d5 3d a3 7b d1 3d
       0.07202835 0.027919207 0.1044228 0.1022866
000220 f2 8b 97 3d 2f 92 3b 3e 16 02 b9 3d ff ae 94 3d
       0.07399739 0.18317483 0.09033601 0.0725994
000230 19 d0 90 3d 2a 99 9c 3d cd 06 00 3e 54 9c 69 3d
       0.070709415 0.07646401 0.12502594 0.05703385
000240 54 ce 51 3d 22 6f ad 3d bb 27 1b 3e 3e 31 29 3d
       0.05122216 0.084684625 0.15151875 0.041306727
000250 67 91 e7 3d e7 da 00 3e 1e 60 04 3e 81 68 9c 3d
       0.1130703 0.12583505 0.12927291 0.0763712
000260 58 da de 3d fa fd d7 3d dc ec be 3d 0c c9 61 3d
       0.108814895 0.10546489 0.09322521 0.055123374
000270 a1 50 83 3d f4 03 92 3d 12 61 44 3d 13 a3 b1 3d
       0.06411863 0.0712966 0.047944136 0.08673682
000280 e8 33 d0 3d 01 46 dd 3d 0e 08 10 3e 27 da d4 3d
       0.1016615 0.10804368 0.14065573 0.10393172
000290 80 26 a7 3d 07 54 85 3d 5c 67 b0 3d 78 1f de 3d
       0.0816164 0.065101676 0.08613464 0.10845846
0002a0 a7 f5 ae 3d 4d fe 45 3e c5 02 e3 3d 63 3b 06 3e
       0.08542948 0.1933529 0.110845126 0.13108592
0002b0 be 44 8e 3d 57 22 9e 3d b4 79 6b 3d b5 1b 93 3d
       0.06946705 0.077213936 0.057489112 0.07183019
0002c0 a7 5d ae 3d 58 a3 8b 3d 81 c1 c5 3d e2 e8 e9 3d
       0.085139565 0.06818265 0.096560486 0.11421372
0002d0 c2 db 53 3d ba 85 b0 3d e9 6a da 3d 9a 79 4b 3d
       0.05172325 0.08619256 0.10664923 0.049676515
0002e0 76 7c af 3d 3f 38 8e 3d d6 b1 0e 3e 5c 90 92 3d
       0.08568661 0.06944322 0.13935027 0.071564406
0002f0 46 cb 62 3d 93 39 52 3e e0 c5 e0 3d 89 6f fd 3d
       0.055369638 0.20529775 0.10975242 0.12374789
000300 80 e5 17 3e dc 3b 08 3e ce 0b 10 3e 79 79 58 3d
       0.14833641 0.13304085 0.14067003 0.05285022
000310 df dd 47 3d fb fa a2 3d 4c 55 94 3d 27 07 93 3d
       0.048795577 0.07958027 0.072428316 0.071790986
000320 ba 6e d5 3d 39 c3 79 3d 8e 6f 1f 3e 21 cd 74 3d
       0.1042151 0.060977194 0.15569898 0.05976594
000330 39 81 95 3d 87 43 b1 3d 3a 4d 06 3e c3 3c ee 3c
       0.07300038 0.08655458 0.13115397 0.029081708
000340 9d e6 95 3d 3e 99 f4 3d f6 c5 a2 3d 13 11 cc 3d
       0.073193766 0.11943291 0.07947914 0.09964194
000350 53 79 d4 3d 6b ee b6 3d 87 b3 aa 3d 3e 69 bd 3d
       0.10374703 0.08932193 0.083350234 0.09248589
000360 ad c8 ec 3d c3 a7 a5 3d ba 17 57 3d a1 ac f2 3d
       0.11561713 0.08088639 0.05251286 0.118493326
000370 67 4d bd 3d 60 95 85 3d 85 62 91 3d 94 9a b7 3d
       0.09243279 0.06522632 0.07098869 0.0896503
000380 42 af a8 3d 16 2a fc 3d e9 ce 9e 3d cf ac a1 3d
       0.08236553 0.12312715 0.07754309 0.07894289
000390 db 36 86 3d 3f a2 d8 3d 6b 42 d9 3d 33 bd 93 3d
       0.065534316 0.10577821 0.10608371 0.07213821
0003a0 5b 99 60 3d fa 69 21 3e 6e 19 a6 3d 32 34 a9 3d
       0.05483375 0.15763083 0.08110319 0.082619086
0003b0 6f b0 ff 3d 50 65 c5 3d 97 46 85 3d 45 a7 af 3d
       0.12484824 0.096384645 0.065076046 0.08576826
0003c0 7a f2 6a 3d 73 c9 52 3d 44 bd ba 3d a4 25 8d 3d
       0.05736015 0.05146165 0.09118131 0.06891945
0003d0 ea 8e e9 3d 2c 75 e8 3d 64 47 92 3d de f2 02 3e
       0.11404212 0.11350474 0.07142523 0.12787959
0003e0 29 13 aa 3d c2 a6 6d 3d 93 80 c8 3d ff 42 78 3d
       0.08304436 0.05802036 0.097901486 0.060610767
0003f0 2c 03 cb 3d f0 af ac 3d f7 df a4 3d f3 72 61 3d
       0.09912714 0.08431995 0.080505304 0.055041265

network.4.weight f4 [128, 256]
000000 0e 33 2e bd bc 5f 64 3d 10 c8 67 3d 3d 91 7f 3d
       -0.04252916 0.055755362 0.05658728 0.06239437
000010 cc 69 9e bb d3 25 d7 bb c9 3a 8c bd 08 9a 22 3d
       -0.0048343893 -0.0065657883 -0.0684715 0.039697677
000020 01 00 68 bc 80 43 7f bd 7b f2 67 3d f2 8f 16 bd
       -0.014160157 -0.062320232 0.05662773 -0.03675837
000030 48 09 5c 3d 41 bc a4 3a 8c 34 9e bb 8e c1 2b 3d
       0.05371979 0.0012568311 -0.0048280414 0.041932635
000040 13 86 16 3d 57 60 f8 bc 89 94 9b 3c cc 27 44 3d
       0.036748957 -0.030319376 0.018991726 0.047889516
000050 63 cf 3c bb 88 26 20 bc d1 04 6f 3d 2d f7 80 3d
       -0.0028810136 -0.009774812 0.058354203 0.06297145
000060 1f f5 16 bc 82 86 24 3d ca 79 33 bc 4c 7a be 3a
       -0.009213715 0.04016734 -0.01095433 0.0014532297
000070 25 49 73 3d 74 9b e4 3a 04 a9 b3 bc 4e 36 bd bc
       0.059395928 0.0017441348 -0.021931179 -0.023097184
000080 a2 ac 63 bd e4 84 67 3d 51 0b 82 bd 9c 42 67 bd
       -0.055584557 0.05652322 -0.06349815 -0.056460008
000090 9c 7c a9 3a 4a 95 58 bc 90 ab ee ba 5d b4 ae 3b
       0.0012930813 -0.013219187 -0.0018209089 0.0053315596
0000a0 bc 78 5e 3d 6f 84 60 bd 79 3b 59 bd ab bb d1 3c
       0.05431436 -0.0548138 -0.053035233 0.025602182
0000b0 f5 e0 38 bd 16 2c 6f bd 2b 0b 7e 3d c9 67 de 3b
       -0.04513641 -0.058391653 0.06202237 0.0067872745
0000c0 64 d9 35 bc 5c 7e af 3c c8 c5 2c bb 54 7f 2f bc
       -0.011099193 0.021422558 -0.0026363004 -0.01071151
0000d0 42 8a b7 3c d7 1d cc bb 55 be 2a 3d f2 6a 71 bd
       0.022404794 -0.006229143 0.04168542 -0.05893988
0000e0 0f 17 12 bd 59 91 aa 3c d6 89 52 3d 70 85 a6 bc
       -0.03566652 0.02082126 0.05140098 -0.0203273
0000f0 e4 0d 9a 3c 42 fe 33 bd e5 62 00 bd f5 99 71 3d
       0.018805452 -0.04394365 -0.031344313 0.058984715
000100 31 1d ff bc 92 09 29 bd f7 ba fd bb b4 7f 98 bd
       -0.03114185 -0.041268893 -0.007743235 -0.074462324
000110 e3 5a e3 3c 86 6a 74 bc 48 2d 50 bc 7e 93 d1 3c
       0.0277533 -0.014917975 -0.012706108 0.025583025
000120 46 46 ae 3c 9a 2e 82 bd 0c ce 90 bd 75 a0 d6 3c
       0.021273743 -0.06356545 -0.0707055 0.026199559
000130 97 22 11 3d a8 3b 30 3d 9a 76 81 bd 04 7a 03 bd
       0.035433378 0.043025643 -0.063214496 -0.032098785
000140 c7 46 24 3d 58 08 4d 3d 94 53 15 3d cf 18 45 3d
       0.04010656 0.050056785 0.03645666 0.048119362
000150 11 53 a3 bc d0 f8 01 bd 39 1e 5a 3d d7 64 32 3d
       -0.01993707 -0.031731427 0.05325148 0.0435532
000160 a3 db f4 bc 80 1f d0 bc 05 c7 80 3a c5 67 74 bd
       -0.029889887 -0.025405645 0.0009824937 -0.059669275
000170 d6 e0 20 bd d3 56 cf bc a8 a6 24 3d 88 db d9 bc
       -0.03927692 -0.025309956 0.040198 -0.026593938
000180 28 f1 eb 3c e1 b4 ab 3d e1 34 dd bc c1 32 36 bc
       0.028801516 0.08384109 -0.027002754 -0.011120499
000190 b6 d9 bd bc 66 b0 10 bc fc a9 4b bd ae 40 3c 3d
       -0.023175102 -0.008831119 -0.049722657 0.04596012
0001a0 13 b5 21 3d 99 c1 1f 3b 66 d9 67 3d 70 a9 67 3d
       0.039479326 0.0024376868 0.05660381 0.056558073
0001b0 c5 10 4f 3d 7d 4c 5c 3d fe af 41 bd 03 70 6c bc
       0.050553102 0.053783882 -0.04728698 -0.014431003
0001c0 dd 88 a7 3c 88 4e 88 bc bd b7 14 bd e2 0c 05 bd
       0.020451004 -0.01663901 -0.03630804 -0.03248299
0001d0 ae 60 21 bd 0d 7a ff bc fe aa 16 bd b7 35 d5 bc
       -0.03939884 -0.031186128 -0.036784165 -0.02602659
0001e0 1a bd 19 3d 10 4a de bc 8e 6f e6 3c a5 0a 3c bd
       0.037533857 -0.027134925 0.028129365 -0.04590859
0001f0 06 0d 59 bd 4d 87 35 3c e9 78 73 3d 8d 9c ee bc
       -0.052990936 0.0110796215 0.05944148 -0.029127384
000200 38 5a d1 3c e7 9c 4f bb 96 60 3c bd 39 6b d9 bc
       0.025555715 -0.0031679214 -0.04599055 -0.026540386
000210 53 ea 22 3d fc 34 1d bd 87 01 36 3d f5 b6 54 bd
       0.03977425 -0.038380608 0.04443505 -0.051932294
000220 cc e1 41 3d 1b 4f a2 bc cf 54 bc 3c fa f6 b5 3c
       0.047334477 -0.019813111 0.022989659 0.022212494
000230 f1 f2 17 bd 45 bc 1c bd a2 5a 91 ba 1a 33 53 bc
       -0.03709692 -0.038265485 -0.0011089633 -0.0128906015
000240 1b 3d 1c 3d 4d a7 c1 bc e0 ec 72 3c 99 cf 10 bd
       0.038144212 -0.023639346 0.014826983 -0.03535423
000250 e5 63 c6 bb 61 58 3d 3d ec e4 a7 bc 69 ac 28 bd
       -0.006054389 0.046226863 -0.0204949 -0.04118005
000260 af 49 c4 3b 00 81 0d bb 3f 51 8e 3c 5b b9 69 bd
       0.005990229 -0.0021591783 0.017372726 -0.057061534
000270 6f a6 d1 3c e7 e2 31 bd 12 e3 bc bc 0e 1a 66 bb
       0.025592057 -0.04342928 -0.023057494 -0.0035110745
000280 bd 08 7a 3c 3e 2f 55 3c 46 67 97 3d ca 9b 50 3c
       0.015260872 0.013011752 0.07392745 0.0127324555
000290 66 f8 14 3c 49 b6 2a 3b 67 e9 9c bd 6d 93 ca 3c
       0.009092426 0.0026048592 -0.076617055 0.024728501
0002a0 bf 5e 80 3d 35 e8 0e 3c 43 57 66 bd 1a bb 88 3d
       0.062680714 0.008722355 -0.056235563 0.06676312
0002b0 83 00 33 3b ac 82 eb 3c 58 a1 20 3d b4 83 4a 3c
       0.0027313537 0.028748833 0.03921637 0.012360502
0002c0 d9 68 ca bc 48 a2 7e 3c 13 1c 72 3c a9 14 27 bc
       -0.024708198 0.015541621 0.014777201 -0.010197797
0002d0 33 d5 de bc 03 9f 81 bc ed a6 85 bd f5 88 b6 bc
       -0.02720127 -0.015822893 -0.06525979 -0.022282103
0002e0 b2 df 8c bc 91 9b 1b 3d cd 11 da bc 73 1c 5e bd
       -0.01719651 0.037990157 -0.026619816 -0.05422635
0002f0 60 bd f7 3c ec 35 49 3d fe f0 4c bd e1 b3 39 bb
       0.030241668 0.04912369 -0.050034516 -0.0028335976
000300 b0 83 01 3d 81 9c d4 3c 95 d5 bc bc 2b 23 ff 3c
       0.031619728 0.025953533 -0.023051063 0.0311447
000310 20 43 91 3d 0a c8 32 3d 07 82 b3 3c a8 00 1e 3d
       0.07092881 0.043647803 0.021912588 0.038574845
000320 8c 93 7b bd 5e 54 49 bb 7f 76 31 3d 59 35 33 bd
       -0.06142001 -0.0030720453 0.043325897 -0.04375205
000330 28 99 1a bd aa 9e 44 bd 94 61 bd 3c c6 34 99 3d
       -0.037743717 -0.048002876 0.023117818 0.07480769
000340 74 60 15 bc 26 b1 13 bc 9c 46 12 bc 63 1b 11 bd
       -0.0091172345 -0.009014403 -0.008927967 -0.03542651
000350 70 ec 01 3b b5 8c 1a bd 8a 98 61 bd 4e a0 06 bd
       0.0019824766 -0.037731845 -0.055077113 -0.032867722
000360 c9 da a9 bc ae 9f 0b 3d 06 7d 23 3c a2 bd 05 3d
       -0.020734208 0.03408783 0.009978538 0.03265155
000370 d0 e8 5f bd 20 b9 54 bd c0 89 03 3d e2 19 8f 3d
       -0.054665387 -0.05193436 0.03211379 0.06987359
000380 71 61 3b 3d 63 89 88 bd 93 c0 d7 3c 9e 9d 81 bd
       0.045747224 -0.066668294 0.026336944 -0.06328891
000390 fc dd cc bc 4c 7b 09 3c 5f 0a ae 3c 9e ea 4a bc
       -0.025008194 0.008391213 0.02124518 -0.012385039
0003a0 ed a6 50 bd 0c 01 84 bd c7 50 fe bc 91 f8 54 3d
       -0.050940443 -0.06445512 -0.031044377 0.051994864
0003b0 6c 94 3d bc 81 c7 e8 3c 8a 15 36 bd 73 69 97 bd
       -0.011571031 0.028415443 -0.044454135 -0.0739316
0003c0 a9 1a 8e 3d 98 bb e9 3c 0b c5 ed bc df 50 d1 bb
       0.06938679 0.028531834 -0.029024621 -0.0063878144
0003d0 3a cd 29 3d 03 f1 80 3d af 84 65 bd 5e 60 24 bd
       0.041455485 0.06295969 -0.05603474 -0.040130965
0003e0 50 01 50 3c aa 97 56 3d 6a 1b a3 3a 4b 0a 09 bc
       0.012695625 0.052390732 0.0012444083 -0.00836427
0003f0 00 36 ce 3b c7 f0 7a 3d 98 49 3f bd 6b d5 33 3c
       0.0062930584 0.06126478 -0.046701044 0.010976176
