python/credit_scoring/models/genia_services_mlp_credit_scoring_model_v1.0.0_20250824.pt (torch, 57427 bytes, 13 tensors)

network.0.weight f4 [128, 26]
00000000: a15c f13d 027d 473e 859f 55bd 74a8 473e
00000010: 24b1 90bc 4a09 6a3c 47fb b3bd 5ab5 e03d
00000020: 8d77 2e3e f470 fbbd fd92 043e 96dd 9b3c
00000030: 7a3d 1f3e 1ef0 033d a3fe ad3d 0ccb cabc
00000040: 4906 153e 98d6 0e3d e7fb c8bd 183c 673d
00000050: f772 a4bd 6d6c fbbc 22d4 c7bd 7469 113e
00000060: 8bf8 37be 49f9 9fbd 3120 26bc f2ba b5bd
00000070: 636c ac3b 1a86 45be b6e4 383e 3f29 2ebe
00000080: 0161 223e db06 f23c 63d8 89bd c5a9 e03d
00000090: d3a0 f23c c129 2b3e e00d ac3c 8439 5cbd
000000a0: e29d 013d b1b0 9fbd 5ac6 d33d 47c6 523e
000000b0: ab2d 033e 3ba8 debd 83a5 d93d d5b1 ef3c
000000c0: be78 cc3d dbc6 b4bd aaa0 6fbe 43da 49bd
000000d0: 5e0c 14be 824b 113e 4fb7 683d 9c93 dc3d
000000e0: e36c ad3d cd5b d7bc 90b0 1e3e 1651 29be
000000f0: 5b30 093d 122c dfbd 45a1 113d 04a6 46bd
00000100: c85e 663d 1214 72bd 5264 393e cb3a ddbd
00000110: 9672 03be e1da 0dbe 5be0 383e f433 0c3d
00000120: 4919 573e 2773 15be 71a7 37be 8526 0ebe
00000130: 2b08 f7bd 4a79 983d e943 853d a334 0f3e
00000140: 1260 ecbd a4e6 11be 0d4b eb3d 9eb8 b8bd
00000150: eb69 cf3d ea74 edbc 5108 dc3d e6c2 1abe
00000160: 2975 bfbd b02b 9f3d f797 5b3d 0cd5 a0bd
00000170: 83b4 f53d 8cf8 0d3e 0693 23be dec0 c6bd
00000180: d6dd 3e3e 3ac0 94bd 11f4 7ebd 055d 43be
00000190: 46e8 bfbd 5bef 2a3d 4159 cabc 6aa6 17be
000001a0: 71e7 723b cda9 ecbd 6a3c 31be 8a63 f4bd
000001b0: 5245 3fbe 3004 debd 333a 4f3e bc83 fa3c
000001c0: b6d8 7e3d 6837 1cbe 6e29 16be cd35 91bd
000001d0: 6c50 813c 17c3 3cbe 5104 bebd ecb2 0ebe
000001e0: a7a0 563c 1261 53bd d77d adba 9dcf 0dbe
000001f0: 9dcc 0fbe df92 febd 0442 8ebd 995f 0fbe
00000200: 5c17 213e 1d36 1bbd 3ac0 183e 1df2 4b3d
00000210: 0c2c 31be 5102 083e e451 95bd 1427 64bd
00000220: 01e7 19be dda7 68be e1d6 a63d fb71 f9bc
00000230: 0469 883d 4f5d 12be 0c5c e13d c376 18be
00000240: 07df d9bc ebf0 0e3d e286 833d a80c 293e
00000250: fd77 2c3e 97ec 2bbe 9116 783d 8d66 8cbd
00000260: e4bd 23bc baec 2abe 579d 3b3e 8f0d 1dbe
00000270: 2aec de3d 1a86 a93d 3765 9a3d 3561 d0bd
00000280: 67f7 443e 62b9 e93c c485 4b3b 9cf4 1cbe
00000290: 07cf a63d e9c7 4abd 115b e6bd 4daa 3b3e
000002a0: e256 403d 4125 a6bd 0fdb a6bd bc75 46bd
000002b0: cfd6 e23d 7624 91bc 1dd4 0abe e58c 71bd
000002c0: 5624 21be fbe2 963d c95b 193e 5140 26be
000002d0: 0663 c03c 3d58 d13d f68f 7b3c 8d1b 94bd
000002e0: 5b86 e03d 1cfc c53d 7137 963d 0d94 0dbd
000002f0: 2ff7 70bd 9667 943c 39be d2bc d0d1 3fbd
00000300: 9e71 003e 8bf9 183e b055 3bbd 5a67 33bd
00000310: dbf4 a1bb 31e6 1bbc c0f4 183d b992 823d
00000320: 3738 30be 79d1 a2bd 27c3 273e 990c c93d
00000330: 979a edbc 5314 e4bd 0b76 02be 19ca 37be
00000340: 93c3 6abd 4d15 123d 411b ea3d d04e b43d
00000350: 01fb 1fbe accd 08be 9d58 0cbd 812f 443e
00000360: d32d d03c 2c65 44bd bf03 9f3d b1bd 98bd
00000370: 9e68 dfbd 3c23 0d3e 937e 0cbe 4d85 04bd
00000380: de89 16be 0597 263e 4dd7 133e f5d3 943d
00000390: 950f c6bd eabf 59be f365 1abe d5d3 173e
000003a0: 6a81 e13d ed91 1a3e 1fe1 ef3d 881e 243d
000003b0: 5c00 b6bc 5c5c 27be 387e 3dbe b74f 29be
000003c0: 2d12 a73d 28e1 bfbd 3966 36bd e62f c6bd
000003d0: 8560 bfbc 92c0 12be bd8d 1abe 9135 573d
000003e0: 2d81 7dbd 7f4d ef3d d964 1cbd 06ef 19be
000003f0: 6250 e8bc 4a68 c9bd 13ee 8abd 61dd 3ebe
0.11785246 0.1948128 -0.052154083 0.19497854 -0.017662592 0.014284441 -0.08788162 0.1097209
0.17037793 -0.122774035 0.12946697 0.019026559 0.15550795 0.032211415 0.08495834 -0.024755023
0.14553179 0.03487262 -0.098136716 0.056453794 -0.0802974 -0.03069135 -0.09757258 0.14200383
-0.17965905 -0.07811219 -0.010139511 -0.088735476 0.005261944 -0.19289437 0.18055996 -0.17007922
0.15857317 0.029544285 -0.067307256 0.10969881 0.029617703 0.16715147 0.02100271 -0.05376579
0.03164471 -0.07797373 0.10340567 0.2058345 0.1281039 -0.10871931 0.10627272 0.029259602
0.09983967 -0.08826991 -0.23401132 -0.049280416 -0.14457843 0.1418896 0.05681544 0.10770342
0.08468034 -0.026288891 0.15497041 -0.16534838 0.03349338 -0.108970776 0.03555419 -0.04849817
0.056242734 -0.05910117 0.18104675 -0.108022295 -0.1283668 -0.13853027 0.18054335 0.034229234
0.2100574 -0.14594708 -0.17934968 -0.13881882 -0.12062105 0.07445009 0.065070935 0.13984923
-0.115417615 -0.14248139 0.11488924 -0.09019588 0.10127624 -0.028986413 0.10743774 -0.1511341
-0.093485184 0.077720046 0.05361172 -0.078531355 0.119973205 0.13864344 -0.15974054 -0.09704755
0.18639311 -0.07263227 -0.06224448 -0.19078453 -0.093704745 0.041732173 -0.024700763 -0.14809576
0.003706422 -0.115558244 -0.17308202 -0.11933048 -0.18678787 -0.108406425 0.20237045 0.030580394
0.06221839 -0.15255511 -0.14664242 -0.0709034 0.015785418 -0.18433796 -0.09278167 -0.13935441
0.013099826 -0.051606245 -0.0013236356 -0.1384873 -0.14042898 -0.12430357 -0.06946185 -0.14001311
0.15731567 -0.037893403 0.14917079 0.049791444 -0.17301959 0.13282134 -0.0729101 -0.05570133
-0.15029527 -0.22720285 0.08146454 -0.030449858 0.06660655 -0.14293407 0.11003885 -0.14889054
-0.026595606 0.034897726 0.06422211 0.16508734 0.16842647 -0.1678947 0.060568396 -0.068554975
-0.009994004 -0.16691867 0.18321739 -0.15337203 0.108848885 0.08277531 0.075388364 -0.10174791
0.19235002 0.02853078 0.0031055072 -0.15327686 0.08144956 -0.049507055 -0.11247838 0.18326683
0.046957858 -0.08112574 -0.08147251 -0.048452124 0.11076128 -0.017717581 -0.13557477 -0.058972258
-0.15736517 0.07367512 0.1497642 -0.16235472 0.023484718 0.10221908 0.015354147 -0.072318174
0.10963126 0.09667227 0.07334793 -0.03456502 -0.058829483 0.0181158 -0.02572547 -0.046830952
0.12543342 0.14938943 -0.045736015 -0.043799736 -0.004942519 -0.009515331 0.037342787 0.063756414
-0.17208944 -0.0795011 0.16383038 0.09816856 -0.029004378 -0.11136689 -0.12740342 -0.17948188
-0.05731542 0.035664845 0.114309795 0.08804095 -0.15623094 -0.13359708 -0.034264196 0.19158746
0.025412476 -0.047948048 0.077643864 -0.07458056 -0.10908626 0.13782972 -0.13720159 -0.032353688
-0.1470103 0.16268547 0.144376 0.0726699 -0.09670941 -0.21264616 -0.15077953 0.14826901
0.11011012 0.15094729 0.1171286 0.04006818 -0.022216968 -0.16343826 -0.1850518 -0.16534315
0.08157764 -0.09369117 -0.04453108 -0.09677105 -0.023361454 -0.14331272 -0.15093131 0.05254132
-0.06189077 0.11684703 -0.038182113 -0.15032586 -0.028358642 -0.09834345 -0.0678369 -0.18639137

network.0.bias f4 [128]
00000000: c79b af3d 5d30 96bd 0be3 9b3d 1a38 55bd
00000010: 066a d038 93d7 85bb 5af5 82bc 6432 9d3a
00000020: 57e6 af3c 9595 03bd 6533 0dbc eda4 573c
00000030: 027f 50b7 7be8 d7b8 a966 6e3c 8e8f ebba
00000040: ae69 96bc 065e e23a 3e39 d7ba 5ccc 08bd
00000050: 5ff2 4cbc 54fd 0bbc 3180 b33d 8b63 a838
00000060: a9f3 b73b 863f 10b8 21ee 0dbd c663 2b3d
00000070: 386c 0c38 ca8c 3b39 9282 683d 27d6 55bc
00000080: 9f86 a938 6f66 80bd ea44 5b3c 7715 573b
00000090: c276 6dbd 259d 993c 6d1d b337 d56a 62bc
000000a0: 6411 813d ebd9 b43b 7a27 893a e1b6 f6ba
000000b0: fabf 8fbc b3b0 85bc 40e6 083b b0c6 61b9
000000c0: 0e48 c4bc f1f8 943d b51f b33c 9669 1dbb
000000d0: cb45 643c 9ff7 a6bb 43e8 9238 4845 743d
000000e0: 1616 8cbd f95a 40bc ce04 6937 f3da 3cb8
000000f0: 5484 6dbd cd2c 04bd ce9e d936 7d60 3f38
00000100: 0656 5138 c8f1 69b7 e11f a438 b44c 8937
00000110: dbe0 0138 4f69 bb36 0bd0 af3a 9502 133d
00000120: fe91 43bc db87 65bc ba7b cd3b 9d55 2cbd
00000130: 42cf fe3c 547d 073c 077e 46b8 eedc c0bb
00000140: f1c7 1937 f53c 58bd 6c5f 91bd 8f2e a03d
00000150: 3b69 90bd 5a85 72bd 4249 35bb f2bb 27b7
00000160: 2ac3 adb7 65cc 38bc 9372 cdb6 d224 5bb7
00000170: c442 773d 2958 863d 60d2 883b 56ad d936
00000180: 8a84 3d3d 896a 63bd ed72 983b daa9 b1bc
00000190: 5717 513d a1e6 8bbd 4159 f73a 3763 6dbd
000001a0: 4236 b43c 8926 8438 ddec 823d cc4a 40bd
000001b0: f879 f73c d6d5 09bd bf56 87bc ca80 183b
000001c0: 32c9 42b7 f67e 57bd 397a 80bd b10b 4539
000001d0: e924 66b9 a7f1 893d b531 343d 4fd0 2337
000001e0: 8dd2 d4bc d188 8ebd e62d 8f3d e500 99bc
000001f0: dc44 25b8 aa1a 63bd 125e 18bd a820 a938
0.08574634 -0.07333443 0.076116644 -0.052055456 9.937961e-05 -0.0040845363 -0.015986133 0.0011993167
0.02147214 -0.032125074 -0.00861821 0.01316188 -1.2427337e-05 -0.00010295302 0.014550843 -0.001797186
-0.018360939 0.0017270453 -0.0016420258 -0.033398017 -0.012508958 -0.008544285 0.08764685 8.0294056e-05
0.0056137634 -3.4391436e-05 -0.034650926 0.0418432 3.3479388e-05 0.00017886158 0.056765147 -0.013051546
8.083623e-05 -0.06269538 0.01338313 0.003281919 -0.057974584 0.01875169 2.1352165e-05 -0.013819416
0.06302145 0.005519142 0.0010464035 -0.0018822813 -0.017547596 -0.016319608 0.0020889193 -0.00021531689
-0.02396014 0.07274044 0.021865705 -0.0024019233 0.013932656 -0.0050954367 7.0050846e-05 0.059636384
-0.0684015 -0.01174044 1.3889001e-05 -4.5026605e-05 -0.057987526 -0.032269288 6.4855913e-06 4.562781e-05
4.99096e-05 -1.3944176e-05 7.826067e-05 1.636739e-05 3.096541e-05 5.585294e-06 0.0013413442 0.035891134
-0.011936663 -0.014009441 0.006270853 -0.042073835 0.031104688 0.008269627 -4.732425e-05 -0.005885712
9.166063e-06 -0.05279251 -0.070982784 0.0782138 -0.07051321 -0.059209205 -0.0027662073 -9.997735e-06
-2.0714087e-05 -0.0112792 -6.1228143e-06 -1.306199e-05 0.060366407 0.06559784 0.0041754693 6.487283e-06
0.046268977 -0.05552152 0.004652372 -0.021687437 0.05104765 -0.06831098 0.0018871204 -0.057955947
0.021998528 6.301428e-05 0.06392834 -0.04694633 0.030209526 -0.033651195 -0.016520856 0.0023270124
-1.16101455e-05 -0.052611314 -0.06273312 0.0001879174 -0.0002194826 0.06735545 0.043992717 9.764058e-06
-0.025979305 -0.069596894 0.06991176 -0.018677184 -3.9403196e-05 -0.05544535 -0.037199087 8.064631e-05

network.1.weight f4 [128]
00000000: 79cb 7e3f 3c84 803f 4645 7c3f 80b0 7f3f
00000010: 6287 7b3f 528d 7b3f 6153 7b3f a1a0 7b3f
00000020: 7335 813f ecb0 7b3f 40bf 7c3f 55be 7f3f
00000030: ad87 7b3f 72fa 813f 4c6c 7e3f 1c04 7f3f
00000040: 527b 793f 729a 7d3f bed0 763f 7a4d 803f
00000050: 4f3b 7e3f 971d 7c3f 26ae 7f3f 510d 7a3f
00000060: 8f70 823f aba7 7f3f 2e23 803f 8696 803f
00000070: 0dd6 7c3f 9deb 7f3f e8e0 803f ec7f 783f
00000080: 1f3c 7d3f e1e2 773f d334 7c3f 8fb4 793f
00000090: 5751 7f3f c55d 7e3f 5c9e 823f 2ed9 793f
000000a0: a9ba 7a3f f52e 7a3f 911f 813f 4b11 7c3f
000000b0: 5c9e 7e3f 0254 783f 28e0 7d3f 5bac 813f
000000c0: 821e 783f 1621 803f 8bbb 7e3f 9e87 7d3f
000000d0: bb51 813f 5ebc 7f3f c9b1 7f3f 4c7e 7b3f
000000e0: ef57 823f e623 803f 9a28 7e3f b31b 763f
000000f0: 3623 803f 2084 793f d34d 813f 19a9 7c3f
00000100: 4ee4 803f b683 7c3f 6cea 833f c74a 793f
00000110: 9aa6 7d3f f488 803f 2b1d 7f3f 6a1d 833f
00000120: 2bc2 7e3f ea43 7f3f 1ce3 813f 2e06 7f3f
00000130: 286b 7d3f 06f3 7d3f a29f 793f ffe2 7f3f
00000140: ca89 803f 0e88 7a3f 1cd2 7f3f fb51 783f
00000150: f28c 823f d907 7e3f 3824 7f3f 8c0c 7b3f
00000160: 7078 7f3f aca4 7b3f 0188 7b3f fa4a 813f
00000170: ddac 803f 1bb7 7a3f 7cfb 7c3f f526 813f
00000180: 2e71 7f3f 9d9d 7c3f 27df 803f 867f 823f
00000190: 29d2 783f 3c43 7c3f 2d10 7f3f 4f3f 7b3f
000001a0: 693d 7a3f 4f6d 7c3f c451 783f 611d 793f
000001b0: 48d7 7a3f e648 7c3f 6738 7c3f b5bd 793f
000001c0: 2282 7d3f b546 7f3f 26fd 783f 4285 7a3f
000001d0: 4c45 803f d491 823f 8c64 7b3f c453 7c3f
000001e0: ee31 7e3f 01e0 7b3f 57cf 7c3f 3cd2 7d3f
000001f0: 39f7 823f 553a 833f c7ab 7c3f e0a9 823f
0.99529225 1.0040355 0.985432 0.9987869 0.9825345 0.9826251 0.981741 0.98291975
1.0094436 0.98316836 0.98729324 0.998998 0.982539 1.0154555 0.99384 0.99615645
0.97453797 0.9906379 0.96412265 1.0023644 0.9930925 0.9848265 0.99875104 0.9767657
1.01906 0.99865216 1.0010736 1.0045936 0.98764116 0.9996889 1.0068636 0.97070193
0.9891986 0.96830565 0.98518103 0.97541136 0.9973349 0.9936183 1.0204577 0.97597015
0.9794107 0.977279 1.0087758 0.98463887 0.9946039 0.97003186 0.9917016 1.0130724
0.9692155 1.0010097 0.9950492 0.9903506 1.0103067 0.998968 0.99880654 0.9823959
1.0183085 1.0010955 0.99280703 0.96136016 1.0010746 0.9746723 1.0101875 0.9869552
1.0069673 0.98638475 1.0305915 0.97379726 0.9908234 1.0041795 0.9965388 1.0243351
0.99515027 0.99713004 1.0147433 0.99618804 0.9899163 0.9919895 0.97509205 0.99955744
1.004205 0.9786385 0.99929976 0.9700009 1.0199263 0.99230725 0.9966464 0.9806602
0.9979315 0.98298144 0.982544 1.0101006 1.0052754 0.97935647 0.98821235 1.0090014
0.99782073 0.98678 1.0068101 1.0195167 0.9719568 0.9854009 0.9963406 0.98143476
0.97749954 0.9860429 0.96999764 0.97310454 0.97984743 0.98548734 0.98523563 0.97555095
0.9902669 0.99717265 0.97261274 0.97859585 1.0021148 1.0200753 0.982003 0.98565316
0.99294937 0.9838868 0.98753875 0.9914892 1.0231696 1.0252177 0.9869961 1.0208092

network.1.bias f4 [128]
00000000: 26f0 b23b a7bb 163c 1f01 8cbc 27f0 39bc
00000010: cb57 2abc b1f2 593c fed1 89ba 907e 4dbb
00000020: 803c e43b 06b4 143c f62f 02bc afce ad3c
00000030: ab4e bbbb ff46 d43c 5687 6fbc 2230 983c
00000040: 0450 47ba bbc4 56bc 46b0 85bc 4c61 34bc
00000050: fe35 c6bc 2438 bf3b a944 023c 08c8 90bc
00000060: 9741 6cbc 02c8 30bc f6dd 81ba 0dcd a83b
00000070: 0d57 85bc 7d9c 0cbc 7596 81bb 28b6 70bc
00000080: 431c 653b 8b15 e0bb 7ab3 bcbc 6656 97bc
00000090: 5ee8 d73b 7157 68ba 72cf 203c 1cc2 7abc
000000a0: 6f37 3fbd 1a8e a6bc 0131 11bc 99f8 25bc
000000b0: 6e0e 383c 88e4 bdbc 053f 333c 0d76 8f3c
000000c0: f2ae 4bbb 4783 4139 ecf0 4ebb 82a3 be3c
000000d0: 83b2 613c 8bd9 4cbc 8c95 bd3b 8d97 83bc
000000e0: 1f73 c23c f40b 993c 42bf adbc 6baa f3bc
000000f0: 139d ce3b 8a7a 8bbc d916 223c f8d5 61bc
00000100: b934 6fba 73d6 ffbb d924 b63c 02da e2bb
00000110: 7cd0 933c 39b4 ba3b e54c 843c 3c1d fa3c
00000120: a912 39bb 6813 98bb ac53 a03c 925f 233c
00000130: 78de 163c 54ef e83b 27ec bebb d47c 693c
00000140: a20e 983c 016c f639 72d9 6d3b ded6 9abb
00000150: 73f5 773c e9c4 dd3b 7244 6a3a f565 733c
00000160: 137a 45bc aaf6 f0bb 9b86 e4bc 76b4 b73b
00000170: f528 b73a 06c1 d63b 89c5 a2bb 2955 9c3b
00000180: aaf2 55bc 38ca 5bbc 7303 2dbc 0cac 8d3c
00000190: 8c46 e5bb 869e 033c 15aa bc3c 4a1c 29bc
000001a0: a036 ecbb fdfb 17bc d021 93bb 1cfa c1bb
000001b0: 85ba 8dbc 9083 59bb 131b 9cbb 39c3 06bd
000001c0: acf3 adbb 8e4e 4c3c e7f7 42bc bae5 41bc
000001d0: 907b a23c 7fcd b03c 595b 41bc 172f 45bb
000001e0: 9dff feba faa2 d6bc 3375 62bc ecc1 803a
000001f0: 197f 483b f58f 183b 0418 213b d925 093c
0.005460757 0.009200013 -0.017090378 -0.011348761 -0.010396908 0.013302491 -0.0010514853 -0.0031355955
0.00696522 0.009076124 -0.007946005 0.021216718 -0.005716165 0.02591276 -0.014619669 0.018577639
-0.0007603171 -0.013108428 -0.016319405 -0.0110095255 -0.024195667 0.00583555 0.00795094 -0.017673507
-0.014419935 -0.010789873 -0.0009908068 0.005151397 -0.01627686 -0.008582232 -0.0039547035 -0.014691867
0.0034959472 -0.0068385056 -0.0230348 -0.018473815 0.0065889796 -0.00088631274 0.009815084 -0.015305068
-0.046683725 -0.020331431 -0.008861781 -0.010130071 0.011233909 -0.023180261 0.010940318 0.017512346
-0.0031079617 0.00018454819 -0.0031576706 0.023271326 0.013775471 -0.012503038 0.0057856496 -0.016063476
0.023736535 0.018682458 -0.021209363 -0.029744348 0.006305346 -0.017026205 0.009893143 -0.013783924
-0.0009124983 -0.0078075468 0.022234367 -0.006922961 0.018043749 0.0056977537 0.016149947 0.030531518
-0.0028239882 -0.0046409853 0.019571148 0.009971516 0.009208314 0.0071086083 -0.0058264914 0.014250953
0.018561665 0.00047001246 0.0036292938 -0.004725321 0.015134203 0.0067678583 0.0008936591 0.014855851
-0.012053031 -0.0073536234 -0.027896216 0.0056062294 0.0013973998 0.006553772 -0.0049673957 0.004770894
-0.013058344 -0.013414912 -0.010559904 0.017293952 -0.0069969352 0.0080334 0.02303032 -0.010321686
-0.0072086602 -0.009276387 -0.0044901147 -0.005919708 -0.017300854 -0.003318999 -0.0047639697 -0.032901023
-0.005308589 0.012469901 -0.011899925 -0.011834556 0.01983431 0.021582363 -0.011801564 -0.0030087882
-0.0019454841 -0.02620076 -0.013821888 0.0009823418 0.0030593334 0.0023279164 0.0024580965 0.00837084

network.1.running_mean f4 [128]
00000000: fd2e 603e 5815 f43b 1f72 23be c1ea 3abe
00000010: 780e d5be 42c9 96be 357d 25be e492 88bd
00000020: 37cc 983d 9c62 ebbe a437 16bd 1619 93be
00000030: 64eb dc3c 75ff 5fbe 33ce 5d3a a334 17be
00000040: 7f56 083e 1c7b 2bbe 5786 83bd 1067 80be
00000050: 4a3b b13d 3a3a 87bd 4014 213c 6af0 9bbe
00000060: 69e2 0abe b88b 063e 2a6d ae3e f0f5 623e
00000070: 6f63 c43d ea50 f2bd 13de 113c f592 cc3d
00000080: 2e7d 3ebe 8961 423e df36 c3bc dab6 3f3d
00000090: 53b4 84be 90ba bc3d 6e76 adbe a2d8 3cbe
000000a0: 1e8b ee3c 7096 ad3d dda2 683e c25b 40bd
000000b0: f2ec 913e 41f4 353e 2a8a 073e 291f 633e
000000c0: dfcd 5a3e 7782 9b3c 88ae 733c 4d41 4e3d
000000d0: 8349 c53d d9d6 c0bd ffbc 77bd 4aeb 8e3d
000000e0: 505a b2bd 726a 053e aa41 e43e e6a5 e03d
000000f0: 5fdb 72bd 2bea adbd d130 30be 0e73 96be
00000100: c225 d03d c736 1e3d e201 233c aedd a83e
00000110: 1924 49be 8342 f4bd a9b5 423b 7fad ba3e
00000120: b4af ffbd d875 cbbd 6e8a 5c3d 7f51 26bd
00000130: 77d9 9e3c fd59 a4bd 4e9c 89be ebee b0bd
00000140: cc75 cabd 3336 883e a734 4ebe 3ad2 883d
00000150: 268d a8be 5cc5 35be e1c4 d2be f7ab 0cbe
00000160: dc0d 6ebe e18f 0cbe 2bca 5b3d 1719 fdbd
00000170: abe0 b7bc 11de 8b3e 9a14 723e 9c3e 1bbe
00000180: 5307 e3bd 5276 d63c 2708 293e e84d 913c
00000190: 08be 843d 2f62 ab3d 31b8 8cbe 9d98 b73d
000001a0: 5b2c 6b3d f315 9c3e 1c0d 8c3d cfa2 c4bc
000001b0: 22a7 d4bd 5193 623d c91c 1abe 7a5e e9bc
000001c0: 8197 733e 3910 923d 77fc 56be 1364 2c3d
000001d0: 4d90 74be a710 7d3e 05c3 3ebd 2f4c 7f3c
000001e0: 2b8e c0bd 0f0c 8d3e 4f7a 99bd dea7 0b3f
000001f0: cc61 0dbd 530c 3bbe dbc7 e63d ac27 c3bd
0.21892925 0.0074488334 -0.15961502 -0.18253614 -0.416126 -0.29450423 -0.16161044 -0.06668642
0.07460826 -0.4597367 -0.036674157 -0.28730077 0.026967712 -0.21874793 0.0008461207 -0.14766173
0.13314246 -0.16746181 -0.06422108 -0.2507863 0.086538866 -0.06602903 0.009831488 -0.3045686
-0.13562931 0.13139236 0.3406766 0.2216413 0.09589278 -0.118318394 0.008903044 0.09988967
-0.1860244 0.18982519 -0.023829876 0.04680524 -0.25918826 0.092152715 -0.33879417 -0.18442014
0.02911907 0.08475959 0.22718377 -0.046962507 0.28501087 0.17768957 0.13236299 0.22179855
0.21367596 0.018983109 0.014873154 0.050355244 0.09633162 -0.09415979 -0.060482975 0.069784716
-0.08708632 0.13028887 0.44581348 0.109691426 -0.05929124 -0.084919296 -0.17206122 -0.29384655
0.10163452 0.03862646 0.009949179 0.32981628 -0.19642676 -0.119267486 0.0029710329 0.36460492
-0.124846846 -0.09934586 0.053842954 -0.040605064 0.019390805 -0.080249764 -0.26877064 -0.0863932
-0.09885749 0.2660385 -0.20137273 0.066807225 -0.32920188 -0.17751068 -0.41165832 -0.13737474
-0.23247474 -0.1372676 0.0536596 -0.12358301 -0.022445997 0.2731786 0.23640671 -0.15160602
-0.11085381 0.026179466 0.16507016 0.017737344 0.06481558 0.083683364 -0.27484277 0.089646555
0.057415348 0.30485496 0.06838438 -0.024003414 -0.103834406 0.055316273 -0.15050043 -0.028487433
0.23788263 0.071320005 -0.20994745 0.042087626 -0.23883171 0.24713384 -0.046572704 0.015582128
-0.094021164 0.27548262 -0.07494032 0.5455302 -0.034517094 -0.1826642 0.11268588 -0.09529051

network.1.running_var f4 [128]
00000000: a546 da3d c2d2 df3d 2d51 0c3e 4753 a53d
00000010: 290b cf3d d942 933d 6daa 7b3d 0ace 103d
00000020: f1bc d43d 5459 7a3d d07f 9b3d 28ce ed3d
00000030: ab8c 013e 614b 853d 5081 d03d 5926 833d
00000040: d068 a63d 763c 103e f372 1c3e 53ab d83d
00000050: 78c4 8b3d 9795 da3d 1786 d03d 7f21 823d
00000060: d501 763d eade ab3d 9cff ba3d 0f18 9d3d
00000070: 9b13 eb3d 07d8 cd3d cd46 9c3d 3b30 903d
00000080: 12d2 983d b0f2 b83d 3056 f13d ec2c 103e
00000090: 8dc0 6c3d 84f6 943d 548f 2c3d 4717 413d
000000a0: b985 c93d b054 183e 9dc6 f73d e843 e93d
000000b0: d4ca 023e 2136 073d 8bc7 9b3d 8389 743d
000000c0: 50f2 c83d 0723 1e3e 5cfa 343d 2d16 c93d
000000d0: 1a32 bb3d f438 e53d 1b72 1d3d 32bc 493e
000000e0: f6d6 b03d efdf af3d 0ba9 383d 040a 2b3d
000000f0: 9b96 583d 79f4 c23d 29df 713d 1305 5d3d
00000100: 7715 ab3d 4bcc db3d e84b 293d c558 e53d
00000110: 9bbb b53d e55d 083e 3ed6 bb3d ab79 b83d
00000120: 756a 883d 98ec ca3d 6701 803d 508b 843d
00000130: cb38 9b3d 6ce1 7d3d f083 d73d a2de 673d
00000140: 2120 8b3d 8f0b 313d 6b8c f93d c23d 7d3d
00000150: a40d 303d 0d79 823d 598f 213e c0c6 923d
00000160: d511 913d eeea 103e cae9 9e3d 86f7 8d3d
00000170: 24a5 203e 2bf6 c73d a0bf 833d f884 613d
00000180: 31fa 8c3d 3c5d de3d 82e2 c33d eede ba3d
00000190: dc8f db3d 6f44 843d c123 1f3e 30dd cd3d
000001a0: 1bc8 553d c046 343d 54ec 9e3d 9867 b13d
000001b0: 74d3 923d 9280 673d fcee cf3d 8999 803d
000001c0: 2332 573d d274 923d d2e1 9c3d daae d03d
000001d0: 8a6d e63d dd3d 953d 8e70 713d 65d9 ec3d
000001e0: 4a39 f43c 431f 0f3e 1123 003e a2c1 a83d
000001f0: 7755 6c3d ea77 683d 8d55 593d 72e5 1e3d
0.106580056 0.10928871 0.13702841 0.080725245 0.101095505 0.071904846 0.061441828 0.035352744
0.103876 0.061120346 0.07592738 0.11611587 0.12651317 0.06508518 0.101809144 0.064037986
0.0812546 0.14085564 0.15278225 0.105795525 0.06824583 0.10673063 0.101818256 0.06354045
0.06006034 0.08392127 0.09130785 0.076706044 0.11478349 0.100509696 0.07630692 0.07040449
0.07461943 0.09030664 0.11784017 0.14079636 0.05780082 0.072735816 0.042128876 0.04714134
0.09839959 0.14876056 0.12098429 0.11389905 0.12772685 0.033010606 0.07606419 0.059701454
0.098118424 0.1544305 0.044184074 0.09818683 0.091404155 0.111925036 0.038438898 0.19700697
0.086347505 0.08587634 0.045083087 0.0417576 0.052878004 0.09519286 0.059050713 0.053959917
0.083537035 0.10732325 0.041332155 0.11198572 0.088736735 0.13317068 0.09171723 0.09007581
0.0666093 0.09908408 0.062502675 0.06471884 0.07579192 0.061982557 0.10523212 0.056608804
0.067932375 0.043223914 0.12184986 0.061826475 0.04298176 0.06370745 0.15777339 0.07166815
0.07083479 0.14152119 0.077594355 0.06931977 0.15687996 0.0976375 0.06433034 0.05505845
0.06883658 0.10857627 0.09564687 0.09124552 0.107207984 0.06458365 0.15540983 0.10051954
0.05219279 0.044012785 0.0775992 0.08662337 0.07169238 0.0565191 0.101530045 0.062792845
0.05253805 0.07151188 0.07660259 0.101896 0.11251362 0.0728719 0.05894523 0.11564902
0.029812474 0.13976769 0.12513377 0.082400575 0.057698693 0.056754984 0.053060103 0.038793035

network.4.weight f4 [64, 128]
00000000: 93a9 bebc 3578 eb3c e6ee 75bc 3de5 793c
00000010: efc4 1cbc 568a 4bbb 8dd1 db3c a5d8 453d
00000020: 3cb7 ba3d 42ee 83bd 6d9c 77bd cb11 39bd
00000030: be8e 78bc ef45 483d a287 883d bc8f c63b
00000040: c8ed acbd 799f d0bb 46cf 423d 3f4a a23c
00000050: cb22 a2bd 0e49 6d3c 636e b7bd c76c 0cbd
00000060: d07c 3d3d 31b2 26bd f448 8c3d ac6a 92bd
00000070: 1787 cd3d d24d 793d 44d8 e83c d71e c73c
00000080: 27ec 9abb cd2f 28bd f15a 18bd e4be a7bd
00000090: f629 ab3d 875b 26bd 6d5d 6dbc fd55 a7bd
000000a0: bf25 633c 9cd8 5fbd 9d65 aabd 5611 363c
000000b0: d048 49bd bbf1 cbbc b00f 86bd ff3d a63d
000000c0: 3704 59bd c317 03bc 6df3 de3c 03fa b2bd
000000d0: ba1a 7b3d 1b60 713d 7001 c9bc 3afa 28bb
000000e0: 47ee 4c3d 0f6b c23d 0139 2a3d 4c28 5fbd
000000f0: bbc1 6ebd 6fbb 95bd ebd2 44bd b7e3 d1bc
00000100: c892 68bd 519e 213d c3ad 51bd 942c c5bd
00000110: 817a 83bd d33d 80bd fa45 ae3d 1a12 fe3c
00000120: 8372 babc da28 25bc 12c6 aabd 2d75 b3bc
00000130: b6ef a73c d5b5 9f3d 7194 343d 61c9 7bbc
00000140: a32e 35bd 0e96 4cbd 3f0b b93d e508 9fbd
00000150: f0d9 533b 4c2c 6dbc 20cf c73d 7bc6 693d
00000160: ce56 14bd 478c 88bd d50e d23c 1db4 87bd
00000170: 0965 34bc a221 fb3c 6057 123d b6b3 6dbc
00000180: a99f 81bd 35a4 adbd deb4 cbbd b0a5 243d
00000190: b110 57bd 8ff2 3fbc 69ba fabc 800a c3bc
000001a0: cddd 863d 3f86 673d 3bd1 8a3d f7be 8d3d
000001b0: 3789 55bd fdd4 30bd 5c4a 81bd f5c1 823d
000001c0: 3fc6 603d 4c89 3a3d 7fdd 46bd f40f 4abd
000001d0: 3d33 4d3d 3324 bfbd dbde 6dbd 121d 103d
000001e0: c6ba a8bd 4ace b3bb 87a0 403d 3d1d af3d
000001f0: f52e e5bc 1c7e a9bd eee4 283d e34c d03d
00000200: caf0 61bd 0e7a 933c 69b8 88bd e6a5 82bd
00000210: f874 fc3c f06f 1c3d c84d 9b3c 8f4a acbd
00000220: 1396 cebb 7980 2a3c 1f2e 553a 0532 0bbd
00000230: 220b 4fbd 63c8 9d3d 202c a8bd 85d6 a3bd
00000240: 1c48 633d aac3 73bd c44f 263d 8197 abbd
00000250: b7ef 9abc 5d1f 50bd 405c a03d 8e42 643d
00000260: 6672 99bc ce20 fcbb 7d9b 52bd a1cc 25bd
00000270: e7e3 44bc 8efd 0c3d 0b2c 2fbd b134 2a3d
00000280: eef4 973c c65a 05bc 6340 64bd 9fe8 053d
00000290: d62d 44bd 3faf 93bb e55a 023c 3ec6 133d
000002a0: 1d50 8a3d 41ab 403c 2baf 32bd a4a9 9dbd
000002b0: b041 93bd a40c a03c 58ca 733d 03ca 64bd
000002c0: 84d9 383d 7d08 0bbd 0f79 993d 3904 17bd
000002d0: 2aac 923d 1c93 493d e9b8 b03d 1cb4 7c3d
000002e0: be84 3e3d 1243 473d 6132 b6bd f859 bfbc
000002f0: 7b7f eebc a990 143d 0c82 f7bc f0fe 863c
00000300: 0cc2 f23c 43f5 073d 59a9 5b3c 891e 89bc
00000310: 0bba 0d3d 75b1 34bd ba11 793d a162 893c
00000320: a656 d2bc 7a00 8cbd c5e2 883d 2c66 453c
00000330: 703c 473d b2d0 64bd c60d b6bd 3238 01bd
00000340: cf96 21bd 34ba 063d aeca 793c 9d50 44bd
00000350: 0b3d e63c 8e20 6e3d 3ecb 94bd b622 94bd
00000360: bb15 1d3d 2794 a2bd 216e 663c 9158 f0bc
00000370: 323d 003b f6d7 48bd d76f d53c 2649 c0bc
00000380: f4b2 6bbd c3bc 44bd 682d 523c 6710 7b3d
00000390: 5563 19bc f719 cfbb 11c5 433d 839f dc3d
000003a0: a10a ecbc fd53 adbd 592e a33c 85ef 993c
000003b0: 9012 a9bd f1ee b7bd 6fa6 763c cd3a ca3d
000003c0: e0d5 cfbd d1c1 87bd d4b2 01bd 58e7 94bd
000003d0: 70ed 85bd 0d77 323d 02b4 8a3d 2c56 75bd
000003e0: dcd1 d4bb 5e55 99bd 2586 f23c 67e2 48bd
000003f0: 3742 90bd 6f39 01bd 6184 2a3c 1d6b 453d
-0.023274219 0.028743843 -0.015010571 0.015252409 -0.009568437 -0.0031057796 0.02683332 0.04830231
0.091169804 -0.064419284 -0.060451914 -0.045182984 -0.015170751 0.04889482 0.06666495 0.006059615
-0.08443791 -0.006366667 0.047560953 0.019810794 -0.079167925 0.01448275 -0.089566015 -0.034283426
0.04626161 -0.04069728 0.06849852 -0.07149252 0.10035532 0.06086523 0.028423436 0.024306698
-0.0047278586 -0.04106121 -0.037196103 -0.08190706 0.08357613 -0.04061463 -0.0144876065 -0.08170698
0.01386398 -0.054649934 -0.083201624 0.011112532 -0.049141705 -0.02489554 -0.06545961 0.081172936
-0.052982535 -0.008001271 0.027215684 -0.08739092 0.061304785 0.058929544 -0.024536818 -0.0025783912
0.050031926 0.09493076 0.04155827 -0.05448179 -0.058290225 -0.07311141 -0.04805271 -0.025621278
-0.056780607 0.039457623 -0.051191103 -0.09627643 -0.0641985 -0.06261792 0.08509441 0.03101449
-0.022759682 -0.010080541 -0.0833856 -0.02190646 0.020500045 0.077983536 0.044086877 -0.015367837
-0.04423393 -0.04994779 0.09035348 -0.07765368 0.0032325946 -0.014475893 0.09756303 0.05707405
-0.036215596 -0.06667381 0.025641838 -0.06626151 -0.011010417 0.030655686 0.03572786 -0.014508178
-0.06329281 -0.08478586 -0.09946607 0.040197074 -0.052506153 -0.011715545 -0.030606465 -0.023808718
0.06585274 0.05652451 0.06778189 0.06921189 -0.05213281 -0.04317187 -0.06313011 0.063846506
0.054876562 0.045541093 -0.04855108 -0.04933162 0.050097693 -0.09333076 -0.05807386 0.035183974
-0.08238749 -0.005487238 0.04702809 0.08550499 -0.027976492 -0.082760066 0.04123395 0.10170915
-0.055161275 0.018002536 -0.066757984 -0.06379299 0.030817494 0.03819269 0.018957987 -0.084126584
-0.0063045113 0.010406607 0.0008132178 -0.03398325 -0.050547726 0.07704236 -0.08211541 -0.07999901
0.05548869 -0.05951277 0.040603414 -0.083785065 -0.018913133 -0.05081116 0.07830095 0.055727534
-0.018731307 -0.0076943403 -0.051417816 -0.040478352 -0.012017227 0.034421496 -0.042766612 0.041554157
0.018549409 -0.008139318 -0.055725466 0.032692548 -0.047895275 -0.004506975 0.007956241 0.03607773
0.06753562 0.01175958 -0.043624084 -0.07698372 -0.07190263 0.019537278 0.059519142 -0.055856716
0.045129314 -0.033943642 0.07493793 -0.03686926 0.07161744 0.04921256 0.08629019 0.061695203
0.04651331 0.048647948 -0.08896328 -0.02335833 -0.029113522 0.03627077 -0.030213378 0.016478986
0.029633544 0.033192884 0.013407075 -0.016738193 0.034601253 -0.04411455 0.06080792 0.016770663
-0.025676083 -0.068360284 0.06683878 0.012048285 0.048641622 -0.05586309 -0.08889346 -0.031547733
-0.039450463 0.03289242 0.0152460765 -0.04792844 0.02810528 0.058136515 -0.07265328 -0.07233183
0.038350802 -0.07938414 0.014064343 -0.029339107 0.0019567725 -0.04903408 0.026054306 -0.02347238
-0.05754371 -0.04803158 0.0128282085 0.06129494 -0.0093620615 -0.006320234 0.04779536 0.10772612
-0.028813662 -0.08463285 0.019919561 0.01879097 -0.08255494 -0.08981121 0.015054329 0.098744966
-0.10148215 -0.066287644 -0.031664684 -0.07270688 -0.06539428 0.043570567 0.06772615 -0.059896633
-0.0064947437 -0.074869856 0.02960498 -0.04904404 -0.070438795 -0.031548914 0.010407538 0.048197854

network.4.bias f4 [64]
00000000: 74ad 5337 a766 6cb7 ec66 0bb6 c3fa a238
00000010: 12fe dab8 d71e d8bb ed99 bfba 3114 b138
00000020: 619b ae35 dd5a 6fbb 5605 e43a 70f4 bfb8
00000030: 89e6 9ebb cce0 64b9 2915 9db6 6d0a 1b36
00000040: ed04 ee3a 9c1d 773a 099b 2737 cd3e 49b8
00000050: 8ba8 263a fc83 053b 2cd0 96b7 33ec afba
00000060: 05fa a23b bf14 a3b8 1e06 6039 14f8 aabb
00000070: 227e 8238 1c15 f637 6e7c abb8 9fb4 c7bb
00000080: fdb5 c638 8109 d035 bbdb 623b 46b5 26b7
00000090: d7b8 7e3b d879 edb7 8e9b 8cb8 2127 51b9
000000a0: 15bf ed37 3600 763b bc51 a035 b390 57ba
000000b0: e37c 2bb9 b139 9ab7 5494 35b7 a41b 0339
000000c0: 1234 1f3b 7999 f838 26d1 9436 b6cf 39b9
000000d0: 7383 2cb7 2142 7937 2aa2 1f38 f7f7 3238
000000e0: 64b2 e1bb b9e4 dbb7 b62d fcb9 8f44 2fbb
000000f0: c820 cdb9 e721 cf3a c6d8 b138 4cfb 863a
1.2616965e-05 -1.4090597e-05 -2.0772522e-06 7.77147e-05 -0.00010442374 -0.0065954733 -0.0014618017 8.443779e-05
1.3009231e-06 -0.0036522665 0.001739661 -9.15312e-05 -0.0048492593 -0.00021827518 -4.681428e-06 2.3102868e-06
0.0018159427 0.00094267144 9.990073e-06 -4.7980622e-05 0.00063575123 0.0020372858 -1.7978331e-05 -0.0013421833
0.0049736523 -7.77631e-05 0.00021364584 -0.0052175615 6.222377e-05 2.9335315e-05 -8.177092e-05 -0.0060945298
9.475274e-05 1.5499974e-06 0.0034615833 -9.936577e-06 0.0038867497 -2.830934e-05 -6.7046945e-05 -0.0001994637
2.8341581e-05 0.0037536747 1.1944717e-06 -0.0008223161 -0.00016354355 -1.8385095e-05 -1.0822976e-05 0.0001250343
0.002429251 0.00011854148 4.435092e-06 -0.00017720353 -1.0282604e-05 1.4856953e-05 3.805958e-05 4.2669442e-05
-0.006887721 -2.6213342e-05 -0.00048099243 -0.0026743745 -0.0003912507 0.001580295 8.480395e-05 0.0010298281

network.5.weight f4 [64]
00000000: b528 803f b924 813f 864c 803f 4dfd 7c3f
00000010: f5d2 7a3f 5bbe 7f3f 4c07 803f 01a5 7e3f
00000020: ceee 7c3f 3a93 813f 27dc 833f d1d8 7d3f
00000030: 4afd 823f 6761 823f bbd6 7e3f fa37 7f3f
00000040: 3b68 803f c757 7e3f ff95 7d3f 0a79 833f
00000050: d447 743f 94e7 823f c5fd 813f b7dc 7a3f
00000060: 3ea5 7c3f 4dfa 803f 57b1 833f 1708 853f
00000070: 7786 7f3f 3e1a 803f c7ab 833f c5e7 823f
00000080: 9a02 843f b31e 813f 97cb 7b3f 92e5 803f
00000090: 57f4 7f3f 473f 843f 0761 823f 073c 783f
000000a0: 48f6 803f 52f8 763f fee0 783f 48fb 7e3f
000000b0: 908a 813f 3851 803f 4ebc 833f d5b8 7e3f
000000c0: 6965 7f3f 3247 7c3f fb6f 803f 50fa 7e3f
000000d0: cc26 7e3f 35bc 823f b2c0 833f bc58 823f
000000e0: fa1c 833f e4b7 7f3f de8e 783f 06cd 7e3f
000000f0: afe0 813f 5abc 713f 412a 833f fd2a 7e3f
1.0012423 1.0089332 1.0023353 0.98824006 0.97978145 0.99899834 1.0002227 0.99470526
0.9880189 1.0123055 1.030156 0.9915896 1.0233548 1.0185975 0.995464 0.9969479
1.0031809 0.9935269 0.99057 1.0271313 0.954221 1.0226922 1.0155569 0.97993034
0.9868964 1.0076386 1.0288495 1.0393094 0.9981455 1.0008008 1.0286797 1.022698
1.0313294 1.0087494 0.9835753 1.0070059 0.9998221 1.0331811 1.018586 0.96966594
1.0075159 0.96472657 0.9721831 0.99602175 1.0120411 1.0024786 1.0291841 0.9950078
0.99764115 0.98546135 1.0034174 0.99600697 0.9927795 1.0213686 1.0293181 1.018333
1.0243218 0.9988997 0.97093 0.9953159 1.0146693 0.94428027 1.024727 0.99284345

network.5.bias f4 [64]
00000000: 0a9f 433c f96a bb3c e9fb afbb 283b 83bc
00000010: dcb6 d3bc c097 a33c a6fe f4bb e01a a8bb
00000020: 11a6 be3c 12cd d4bb 2ee6 173d 2cfc 35bc
00000030: 3f0a de3c 1c7e 98bb df1a 37bc ef79 ecbc
00000040: 315d 47bb c3bf 2abc 0bc5 89bc 6313 db3c
00000050: eee4 42bc 461a b23c d828 af3c 2040 d1bc
00000060: 91af 86bc 812b b2b9 2b1b 053d 07cc 493d
00000070: 7cbc 213c 4b8f 34bc 1684 a93c 7bd2 b63c
00000080: 20e6 4b3d 6598 613c 042b 6ebb fa03 9cbb
00000090: 85a9 a6bb 3f25 043d c018 1639 4a1d 01bd
000000a0: f4d5 883c 29ae a83c 802e ccbc 3981 053c
000000b0: c089 823c 09d9 0f3d be92 f03c 0bd2 b63c
000000c0: 79c6 d5bb 0fdf bbbc 8474 99bc ec21 47bc
000000d0: d2c6 613c 647c 293d f890 933c 6d9d 1d3d
000000e0: 4646 353d 8ec6 d3bc 43af 73bc be86 7939
000000f0: 944f c53c adde a13c 8c2f c03c 0fc8 a6bc
0.011939773 0.022878157 -0.005370606 -0.016019419 -0.02584403 0.019969821 -0.0074766455 -0.005130157
0.023272546 -0.006494173 0.03708475 -0.011107486 0.027104495 -0.0046537053 -0.01117584 -0.028866736
-0.0030420537 -0.010421696 -0.01681759 0.026742643 -0.011895401 0.021741044 0.02138178 -0.025543272
-0.016441138 -0.0003398322 0.032496613 0.04926684 0.009871598 -0.011020492 0.020692866 0.022317162
0.04978001 0.013769244 -0.0036341557 -0.004761216 -0.0050861263 0.032262083 0.00014314335 -0.031522073
0.016703583 0.020590859 -0.024924517 0.008148485 0.015934825 0.03511909 0.029366847 0.022316953
-0.006523904 -0.022933511 -0.018732317 -0.012154084 0.013780313 0.041378394 0.018013462 0.03848021
0.04425647 -0.025851514 -0.014873329 0.00023796686 0.024085797 0.0197595 0.023460172 -0.020359067

network.5.running_mean f4 [64]
00000000: f913 93be f668 acbe 8837 273e 4e95 e93d
00000010: c551 6e3e dd65 3abe 1a2a 5a3e 6170 1dbf
00000020: 6f59 6abe a1f6 e43e 129e 983d 85a0 ed39
00000030: 91ec c33e 27a6 6d3e 65f7 803c 32b1 0dbd
00000040: 8c6c b43e faf7 a53d daac b03e cb1f 27be
00000050: 0f55 38be 2e38 13be c5c1 b1bb 174c bc3e
00000060: cabd 873e 71d8 933e f8ee 70be cc90 23bd
00000070: c2ed dbbd 1f78 fdbd 8a51 733c c5d8 053e
00000080: a1dd 9dbe a6ac 09bf 7475 f33b e06e 12be
00000090: cedd a03c 280e 483e 6cc4 6a3e 3674 3ebe
000000a0: 6f2f 24bc 89d6 ddbd 7659 8dbd 02cf a23e
000000b0: 7bad 6b3e cdd5 20be 7bfa 52be f8d8 603e
000000c0: cbd8 1c3e 14f2 aa3d e0d2 e7bd 5e31 94be
000000d0: df00 eebd 3c06 bdbe 4b5c 82be c88c e1bd
000000e0: 304d 12be 476d 493e 6fa0 d83d 8b43 173e
000000f0: b2b5 3abe d1a0 d9bd 93a5 133e cd7b ec3e
-0.28726175 -0.3367383 0.16329777 0.11405431 0.2327338 -0.1820292 0.21305123 -0.614996
-0.22885679 0.44719413 0.074520245 0.0004532376 0.38266423 0.23207913 0.015742967 -0.034592815
0.35239065 0.081039384 0.34506875 -0.16320722 -0.18001197 -0.143769 -0.0054247105 0.36776802
0.26511985 0.2887607 -0.2352866 -0.03993301 -0.10738708 -0.12376427 0.014850983 0.13070972
-0.30833152 -0.53779066 0.007429773 -0.14300108 0.019637015 0.1953665 0.22926491 -0.18599018
-0.010021075 -0.10831935 -0.06901829 0.3179856 0.23015396 -0.15706559 -0.20603363 0.21957767
0.15317075 0.08346954 -0.11319518 -0.28943914 -0.1162126 -0.3691882 -0.2546104 -0.1101318
-0.14287257 0.19670592 0.10577475 0.1477186 -0.18233374 -0.106263764 0.1441863 0.46188203

network.5.running_var f4 [64]
00000000: c2b2 893e df17 da3d 2e92 443e 3ec9 903e
00000010: 26d9 0a3e 1513 843e 1ee7 3d3e d3a7 8f3e
00000020: 86d5 6b3e df29 4d3e 123e 583e aba6 a33e
00000030: 79cb 5b3e 072f 573e 22d0 343e 6659 3d3e
00000040: 3fe6 a13e 6492 573e 0d3c 903e 0ad7 2a3e
00000050: ccf5 483e ad75 233e 20eb 323e 4b58 ef3d
00000060: 307a 683e 7c42 5e3e 4732 973e 3b89 1c3e
00000070: 6759 163e 3cb8 453e 124b 523e 690d 983e
00000080: 6714 3e3e 9d5b 4a3e 6a97 0a3e 11be 303e
00000090: 579f 793e a625 873e 7cdd 8d3e 37bd 243e
000000a0: 364f 573e 8b5e 123e 833a 1e3e 5346 3b3e
000000b0: 5002 883e b1b2 653e 6665 113e b5de 433e
000000c0: 96c8 3f3e 16dc 503e af73 553e 51f9 513e
000000d0: 8af7 9f3e c2b7 5c3e 379e 613e ebcd 3a3e
000000e0: 4af4 433e 8b7b 2d3e 5350 2a3e 0027 0b3e
000000f0: a72c 593e e9ea 233e bb67 6c3e bc89 ba3e
0.26894194 0.10649084 0.19196388 0.28278536 0.13559398 0.25795808 0.18545195 0.28057727
0.23030671 0.20035504 0.21117428 0.31963095 0.21464337 0.21014033 0.17657521 0.18491134
0.31620976 0.21051937 0.28170815 0.16683593 0.19625014 0.15962858 0.17472506 0.116867624
0.22702861 0.2170505 0.29530546 0.15286724 0.14682542 0.19308561 0.2053645 0.2969773
0.1856247 0.1976151 0.13534322 0.17260005 0.2437719 0.2639591 0.27708042 0.16087805
0.2102631 0.14293878 0.15452008 0.18288545 0.26564264 0.22431447 0.14198837 0.19127925
0.18728861 0.20396456 0.20844911 0.20505263 0.31243545 0.21554473 0.2203301 0.18242614
0.19136158 0.16941659 0.16632204 0.13589096 0.2120844 0.1600758 0.23086445 0.36433208

network.8.weight f4 [1, 64]
00000000: 1727 b43d 8599 273d c401 a3bd 068a d5bd
00000010: 09f5 a1bd e151 ac3d 1e17 b0bd add9 f7bc
00000020: 8610 cb3c fd20 1bbd bf62 7a3d 934f bfbd
00000030: 3aec 023e acc4 e2bd 3b2b 96bd fb89 d5bd
00000040: b385 b43d 968f 78bd c201 29bd eaf9 c43d
00000050: b19c ccba b0dc 023e 8b50 753d 0d27 8ebc
00000060: 4023 9abd 53fd 03be 4e55 883d bbd3 573d
00000070: 1687 ea3d 2bda f1bd 5810 6c3d c3bc 953d
00000080: c799 d23d d9d6 973d b15c a6bc 0956 03be
00000090: 54b8 0ebd a8bf 213e 4aae e9bd d541 65bd
000000a0: 53f7 fc3d 9dd6 a53c 04f2 bbbc 9c27 de3c
000000b0: 9ca3 8d3d 8fca 053d 10b6 063e e426 003d
000000c0: f2e0 64bd ee97 4bbd 52f4 fabc 8d1a 07bd
000000d0: 869b ac3d 5e1b ac3d a255 023e 1e63 f33d
000000e0: c04f 093e 7b2e f7bd 944f 6ebc fcbb c4bc
000000f0: f9c7 db3d 1c5a 8e3c d9cb 9a3d 2b6f aebc
0.08796518 0.040917892 -0.07959321 -0.104267165 -0.07908065 0.08414055 -0.08598159 -0.030255163
0.024788152 -0.037873257 0.061129328 -0.093413495 0.12785426 -0.110726684 -0.07332464 -0.10426708
0.088145636 -0.06068381 -0.041261442 0.0961798 -0.0015610663 0.12779498 0.059891265 -0.017352605
-0.07526255 -0.12889604 0.066568956 0.052692156 0.11451547 -0.1180919 0.057632774 0.07311394
0.10283237 0.07414026 -0.02030787 -0.12825789 -0.034843758 0.15795767 -0.11410196 -0.055970985
0.12351861 0.020243937 -0.02294255 0.027118497 0.06915972 0.032663878 0.13155389 0.03128709
-0.055878587 -0.04970544 -0.03063408 -0.032984305 0.08428101 0.084036574 0.12727979 0.118841395
0.13409328 -0.12069412 -0.01454534 -0.02401542 0.10731501 0.017376952 0.07558412 -0.021293243
